saves/01022021154932_acrobot_dqn.pt (torch, 8607 bytes, 6 tensors)

fc1.weight f4 [32, 12]
000000 1c 23 71 3e c3 7e 54 bf c8 c0 a2 3e 54 c7 08 bf
       0.2354855 -0.83005923 0.31787705 -0.5342915
000010 af a5 d9 bd 17 7b 07 3e df 4d b6 3e f8 48 83 3f
       -0.10627305 0.13230549 0.35606286 1.0256643
000020 a1 c9 06 3f 9e 36 a9 3e 78 be 8d be 4a 50 c5 3d
       0.5265141 0.33049482 -0.2768438 0.096344545
000030 2a fd bd bd 7b fa 96 be e7 d6 ea 3e f5 59 13 bf
       -0.09276803 -0.29487976 0.45867082 -0.5755914
000040 c0 ee 96 be e0 40 d0 be b8 84 01 3f 4c 2c ae 3c
       -0.29479027 -0.40674496 0.5059314 0.021261357
000050 51 e9 26 3f 70 40 70 3f 25 c9 19 3e 87 a0 97 3e
       0.6519976 0.93848324 0.15018137 0.2961466
000060 5e c2 82 bf 28 00 f8 3d e3 24 b7 be 91 c2 20 bd
       -1.0215566 0.12109405 -0.3577033 -0.039248053
000070 f2 c9 23 3f 77 8e 59 3d 9d 1a a2 3f 14 9d 61 3d
       0.6398002 0.05311438 1.2664372 0.055081442
000080 b2 76 ae 3e 3a d3 51 be e6 6b ec bc 28 13 6a be
       0.34074932 -0.20490733 -0.028860044 -0.2285887
000090 50 bf 57 bf fa a7 41 3f 01 a5 29 3b 29 03 85 3e
       -0.84276295 0.75646937 0.0025885704 0.25978974
0000a0 c9 6f e4 bd 10 ef 4b 3c b9 16 3e 3f 00 d2 54 3f
       -0.11154134 0.012447134 0.7425342 0.83132935
0000b0 95 92 0e bd 19 d6 6e 3e d7 8c 19 3f 7a 82 14 3d
       -0.03480776 0.2332386 0.5998053 0.036257245
0000c0 27 ca 71 bd 26 ee a8 bd 06 85 41 bf d9 91 59 be
       -0.059030678 -0.08248548 -0.755936 -0.21247043
0000d0 93 bb 58 bd df 4e 8a 3e f5 9a d7 3e b0 46 0e 3f
       -0.05291326 0.270133 0.4211041 0.5557661
0000e0 cc 30 52 bf e2 8f 17 3f 52 37 4c 3e 20 0c 8f 3e
       -0.8210571 0.5920392 0.19942978 0.27938938
0000f0 80 5b 5a 3f 51 09 01 3e be 0a a9 be c1 e0 2e 3e
       0.8529587 0.1260121 -0.33016008 0.17077924
000100 30 2a ee bd a0 42 00 3e ab 06 bc bf 5a 3a 4a be
       -0.116291404 0.12525415 -1.4689535 -0.19748822
000110 27 f0 ff 3e 4e 88 2f be 18 7d 72 3e 56 e8 17 3e
       0.4998791 -0.1714184 0.23680532 0.14834723
000120 c4 7d 04 3f 9c 8a 3c bf a3 c6 00 3e 28 24 3e 3f
       0.51754403 -0.73649 0.12575774 0.7427392
000130 2c d9 78 3e 2f 34 d9 3c a7 51 4e 3f 30 00 2f be
       0.24301594 0.02651414 0.8059334 -0.17089915
000140 e4 7f 84 3f ac a0 b0 bd 68 20 4b 3e e2 a7 d7 3d
       1.0351529 -0.08624396 0.19836581 0.10530068
000150 a3 1b f0 be 94 c9 42 bf de ee 86 3e 8e 42 ed 3e
       -0.46896085 -0.76088834 0.26354116 0.4633984
000160 30 44 40 3d be 81 f0 bd 0a 66 35 3f f7 99 88 3f
       0.04694003 -0.11743496 0.70858824 1.0671986
000170 8f 05 33 3f dc 23 69 be a8 10 1c be ac 1f 43 be
       0.69930357 -0.22767586 -0.15240729 -0.1905505
000180 62 29 c7 3d af e8 c9 3e 8e dc 49 bd 71 d0 cf 3e
       0.0972469 0.39435336 -0.049282603 0.40588716
000190 9e bd db bd 7c 03 7c 3e 2b e0 59 bf 1c 2a a0 bd
       -0.10729526 0.24610704 -0.8510768 -0.07820532
0001a0 50 14 02 3f de 32 62 be a0 f6 1c 3e 10 8d 14 3e
       0.50812244 -0.22089717 0.15328455 0.14506936
0001b0 20 ae 04 3f c2 06 3b bf f6 2c f6 3d af 28 20 be
       0.51828194 -0.73057187 0.12020294 -0.1564052
0001c0 78 08 4a be 42 cf 31 be 49 89 6b bf f1 95 11 bf
       -0.19729793 -0.17364219 -0.92006356 -0.5686942
0001d0 64 22 cd be 3d fe 03 bf f0 42 81 bd 00 b4 90 bc
       -0.400653 -0.5155981 -0.063115954 -0.017663956
0001e0 60 a2 ee 3e fb 83 76 bf 64 3e 4f be ee 27 c5 bd
       0.46608257 -0.96295136 -0.20238644 -0.096267566
0001f0 76 38 ee 3d e7 83 5c be 24 d6 7c 3f dd ef d5 3e
       0.11631863 -0.21534692 0.9876425 0.41784564
000200 1c 83 01 be 1e 1f cd bd 96 57 c0 3e 70 bd 9d bd
       -0.1264767 -0.10015701 0.37566823 -0.07702148
000210 3b c7 28 bf a9 4d 33 bf 91 96 2d 3f 85 cf 5b 3f
       -0.65929 -0.70040375 0.6780787 0.85863525
000220 db aa 6a be 7d 2e 88 3d fe a8 5c 3f 04 6c 46 3f
       -0.22916739 0.06649492 0.8619536 0.7750857
000230 c7 71 63 bf c9 25 79 bf 6e 86 a0 3d 84 9c 95 be
       -0.88845485 -0.9732328 0.078381404 -0.29220974
000240 fc 26 1b 3e 3c cb 7b bf c0 4e 3b 3f 51 bd 0e be
       0.1515159 -0.98356986 0.7316704 -0.13939406
000250 9e df 62 be 9e 05 81 3e 56 e2 37 3f 15 cb bc 3e
       -0.22155616 0.25199598 0.71829736 0.3687369
000260 cc 6d 7f be 99 86 8d 3f b0 29 75 be ea 74 f5 bd
       -0.24944228 1.1056701 -0.23941684 -0.1198519
000270 96 1c fe bd eb a5 bb be de 39 8f be e5 ce 44 3f
       -0.12407796 -0.36650023 -0.27973837 0.76878196
000280 e8 78 7c 3e db 51 3d 3e f9 69 a4 3e 41 cd 05 3f
       0.24655497 0.18488257 0.321121 0.5226632
000290 fa ef 7a bf db d9 e4 3e 2e 9e 06 be 68 75 44 bd
       -0.98022425 0.4469746 -0.13146278 -0.04796353
0002a0 31 fa 33 bf 50 03 3f bf 71 be 12 be d3 64 89 3d
       -0.70303637 -0.7461443 -0.1433046 0.06708684
0002b0 90 d9 b1 3d 99 9c 52 be c3 d8 87 3f 94 36 c4 be
       0.08684075 -0.2056755 1.0613025 -0.3832289
0002c0 c9 09 69 3e 07 ab 00 be 9d 85 d9 bd 2f 3d 89 3e
       0.22757639 -0.12565242 -0.10621188 0.26804492
0002d0 ec 47 e5 3e a5 de 90 3d 97 38 21 be 92 eb 22 3f
       0.44781435 0.07073716 -0.15744244 0.636407
0002e0 ee 31 c0 bb a1 2b 62 be 06 9d 3b 3f 37 b1 5a 3f
       -0.005865327 -0.22086956 0.73286474 0.8542666
0002f0 b4 e0 cb 3e a9 1d e0 be 32 c3 54 be 4b d1 93 bc
       0.39819872 -0.4377263 -0.20777586 -0.018044135
000300 48 77 b8 3e a7 ad 76 bf d1 8a 47 3e 74 07 a7 3b
       0.36028504 -0.9635872 0.19486548 0.005097324
000310 e6 3c 71 be be 9c 12 3e d6 de 5d 3f c7 59 00 3f
       -0.23558387 0.14317605 0.86668146 0.5013699
000320 b5 cb 0f be dd a8 9a be b4 f4 51 3e de ee 5b 3e
       -0.14042552 -0.30206957 0.20503503 0.2147784
000330 a3 08 6f 3d 17 6a 33 3f cc e1 de be c7 51 f1 3e
       0.058357846 0.70083755 -0.43531644 0.47132704
000340 8f ca 92 be 42 6e 01 be 5d dc 1a bf e4 de 88 bf
       -0.28670165 -0.12639716 -0.604925 -1.0693021
000350 8b 36 2c 3f 21 25 4a bf 06 f3 b6 3f 53 9a 95 3e
       0.67270726 -0.78962904 1.4292915 0.29219303
000360 9e 01 1e 3f 19 92 17 c0 da 75 37 bf d9 28 97 3e
       0.6172122 -2.368292 -0.716642 0.29523352
000370 22 62 da bd a3 65 2c bc d6 96 63 3e b0 8f cf 3e
       -0.106632486 -0.010522279 0.22225508 0.40539312
000380 cd f2 07 3f 1d d4 0e 3c a5 f1 1a 3e b1 c3 06 bd
       0.5310486 0.008717564 0.15131243 -0.03290147
000390 46 4e b5 be b5 b8 5c be d8 ec 01 3f 62 99 08 be
       -0.3541128 -0.21554835 0.5075202 -0.13339761
0003a0 0d c0 c0 bc 9d 8f 90 3e af 81 c6 bf f2 d5 12 bc
       -0.023529077 0.28234568 -1.5508326 -0.008962141
0003b0 9b b4 aa 3e 72 e5 66 3e 28 ea 46 3e 4a 4c 81 3e
       0.33340916 0.22548464 0.19425261 0.25253516
0003c0 d9 95 05 3f fe b1 93 bf 2f 28 3a bf 84 d8 10 bf
       0.52181774 -1.1538694 -0.72717565 -0.56580377
0003d0 dd 6c 5e be ce 1e 68 bb 50 a1 2c 3c b1 7f 46 3f
       -0.21721216 -0.0035418752 0.010536507 0.7753859
0003e0 99 a4 15 3e a8 6e 77 bc c2 63 da bd 69 0f 94 bd
       0.1461357 -0.015102066 -0.106635585 -0.07229502
0003f0 b7 17 55 3f dd 98 d3 3e e6 e5 e0 3e b9 a5 02 3f
       0.8323931 0.41327563 0.439254 0.5103412

fc1.bias f4 [32]
000000 8e bd 04 be 97 07 87 be 09 9f 2f be c3 f0 cf 3e
       -0.12962934 -0.26372978 -0.17150511 0.40613374
000010 a7 cd d9 be b9 a7 18 bf ef d9 50 bd 5e 18 04 bf
       -0.42539713 -0.59630924 -0.050989088 -0.5159968
000020 4d 03 4d bf 63 71 a7 be 6d 4e cb bd 57 3b e6 bd
       -0.8008316 -0.32703695 -0.09927068 -0.11241787
000030 1f 74 d9 3d 94 d5 d9 be a1 3b 36 bc 09 47 95 bd
       0.106178515 -0.4254576 -0.011122615 -0.072889395
000040 b5 c5 34 3d 8b 17 0b bf 2e 5d 27 bf 57 19 17 3e
       0.04413386 -0.543328 -0.65376556 0.1475576
000050 f1 73 b5 3e 95 84 0e bf 81 16 fc be 46 0a d6 be
       0.3544002 -0.55671054 -0.4923592 -0.41804713
000060 ad 38 02 bf 7f c2 f4 be 2a b2 8a be 01 2d e8 bd
       -0.5086773 -0.4780464 -0.27089053 -0.11336709
000070 a7 b0 df be 2e 9e 44 be 90 b2 bd be 3d 5f 42 3b
       -0.43689463 -0.19200966 -0.37050295 0.0029658817

fc2.weight f4 [32, 32]
000000 99 2d 47 bf 3f 05 dd 3d 2a fa 9f c0 8c 51 12 3f
       -0.7780395 0.10792016 -4.9992876 0.5715568
000010 9a bf e9 3e 3d 86 57 3d 80 1c 65 3f 73 08 62 bf
       0.45653993 0.052618254 0.8949661 -0.8829414
000020 06 fe 7a be 89 4f e7 3e 21 29 2c 3f a4 2f e6 bf
       -0.24510965 0.45177868 0.6725026 -1.7983289
000030 58 9b 88 be 38 ed ed 3d e3 f5 20 3f 4d 0b 15 3e
       -0.26681018 0.116175115 0.62875193 0.14555092
000040 7b c5 06 3c 62 c5 e9 3f 66 08 92 3f fd 8c b2 bf
       0.008225794 1.8263361 1.1408813 -1.3949276
000050 b5 82 40 bf 4b 10 b2 3e 3e 81 ee be 15 ef 1e bf
       -0.75199443 0.34778056 -0.4658298 -0.6208356
000060 59 bf 2d 3e 6f 46 da bf 89 35 77 bf b0 08 84 3f
       0.16967525 -1.7052745 -0.96566063 1.0315151
000070 75 f1 31 3e 63 27 9e 3e ee 93 49 3f 3f c7 7e 3f
       0.17377265 0.30889425 0.7874135 0.99522775
000080 cd 7d e7 be 0b c8 97 bf fa f1 38 bf e2 66 31 3f
       -0.45213166 -1.1857923 -0.72244227 0.6929761
000090 c5 cd d3 3d 3f 5e 2a 3f 1e fa 20 3f 0b 87 00 be
       0.10341982 0.6655006 0.6288165 -0.12551515
0000a0 68 fe 18 3f ef e6 52 3f 2e f7 a6 be 50 1c 87 bf
       0.59763193 0.82383627 -0.32610458 -1.0555515
0000b0 89 f0 1c bf 0e b9 5c be 28 a9 ef bf 90 24 dd be
       -0.6130453 -0.21554968 -1.8723497 -0.43191957
0000c0 5b 15 1f 3e 66 eb 40 c0 28 f1 8b 3e 6b 05 85 bf
       0.1553549 -3.0143676 0.27332425 -1.0392278
0000d0 58 a6 93 bf 91 ad a7 bf cb 7a 3d 3f b5 7b a2 bd
       -1.1535139 -1.3099843 0.7401549 -0.079337515
0000e0 61 2a c8 3e 4b 77 e6 be d8 0d 84 3e 48 bd 25 be
       0.39094833 -0.45012888 0.25791812 -0.16185486
0000f0 6d c6 81 3e 1f 4b 6b bf ff 2b 81 3f ea 9d d7 3f
       0.253467 -0.919115 1.0091552 1.6845067
000100 20 04 1b 3f aa fc fa 3e 3a ab 50 3f ed 89 10 3e
       0.6055317 0.49020892 0.8151127 0.14115115
000110 99 fa bb 3e b6 89 a4 bf ed 23 b6 3e b3 71 0c 3f
       0.36714628 -1.2854526 0.35574284 0.5486099
000120 9c 5d 2c 3f 13 af 08 3f fa 38 b7 3e 3f d9 f2 be
       0.67330337 0.5339214 0.35785657 -0.4743137
000130 15 fd 4c 3e 89 de 08 3f 8a cd 15 3f 9a 8a 92 3e
       0.20018418 0.5346456 0.5851675 0.2862137
000140 da 7b a8 3e 99 e0 2d be cf 5c 21 bf a0 63 dc 3e
       0.3290699 -0.16980208 -0.6303224 0.43044758
000150 41 8b 4e bd 36 49 d6 bd 40 84 c4 3e 30 da b6 3c
       -0.05042577 -0.10463183 0.3838215 0.022320837
000160 f7 82 da 3e 6a 55 7c bd 46 01 31 3f cb fc 10 3f
       0.42678043 -0.061604895 0.6914257 0.5663573
000170 9d 68 b4 3e 78 95 4d 3e 35 34 45 3f 1b a4 30 c0
       0.35236064 0.20076549 0.77032787 -2.7600162
000180 42 2d eb 3e 18 07 c3 be 13 b6 91 3f 9b 42 aa bd
       0.45932966 -0.3809135 1.138369 -0.08313485
000190 93 2e bd be cd 03 50 c0 2d d3 7b be 25 d4 04 bd
       -0.36949596 -3.250232 -0.24592276 -0.03242888
0001a0 10 63 94 bc 6b aa 8c 3d d8 f0 5b 3f e6 f7 4c 3e
       -0.018113643 0.06868442 0.85914373 0.20016441
0001b0 b7 77 80 be e4 a0 f9 3e 92 24 27 3f 83 fd 0d 3c
       -0.25091335 0.48755562 0.65290177 0.008666399
0001c0 41 5b 1e 3f 7f 24 9b bf 4a a8 41 bf 3d a6 a4 3e
       0.6185799 -1.2120513 -0.75647414 0.3215808
0001d0 3a 67 b2 bd ae 3b 92 bf 15 3e 71 3f 1f 23 5e 3d
       -0.08711095 -1.1424463 0.94235355 0.054232713
0001e0 5c fc c7 3f 05 c0 38 3f ba 95 1e be 8a 6a f1 3e
       1.5623889 0.72168 -0.15486804 0.47151595
0001f0 48 c3 8a 3f 7e 1d 18 3e 0a 74 88 bf 4a a2 12 c0
       1.0840845 0.14855 -1.0660412 -2.2911553
000200 13 90 06 bf 04 35 29 3e 87 01 0b c0 93 d0 e0 bf
       -0.5256359 0.1652413 -2.1719682 -1.7563652
000210 28 84 8b bc 3a 9a 20 c0 33 c5 06 3e 3d 2e 8a 3c
       -0.01703079 -2.5094132 0.13161163 0.016867751
000220 74 bf 76 bf a8 03 cc 3e c0 86 5a 3f 75 a7 a3 bf
       -0.96385884 0.3984654 0.8536186 -1.2785479
000230 1c bb 66 bf fa df 2c 3f 47 ab 66 3e 6a 62 00 3f
       -0.90129256 0.6752926 0.22526275 0.5015017
000240 82 37 0f 3d 2c 1a 02 c0 f1 a2 8b bd 50 d7 05 3f
       0.034965046 -2.0328474 -0.06818188 0.52281666
000250 af e0 07 be 3e 54 92 bf 89 f0 dd 3d d1 3c cb bd
       -0.13269304 -1.1431959 0.10836894 -0.09923709
000260 b0 2e 08 3f e2 ab 66 bf dd 28 21 3e 9c 6d c0 3e
       0.5319624 -0.9010602 0.15738244 0.37583625
000270 ae 54 68 3e c9 d9 16 3f a8 81 be be db 0b 8d 3f
       0.22688553 0.58926064 -0.37208295 1.1019243
000280 a9 6e ec bd c1 fb 0d be 74 1d ce 3b e4 7a b3 bd
       -0.11544544 -0.13865568 0.006290132 -0.08763674
000290 59 5a 97 bd 20 d7 36 bd 69 e1 f3 3c d0 41 e5 3c
       -0.07390279 -0.044638753 0.02977057 0.027985483
0002a0 30 00 ce bd 9b c8 42 3d 8d 6c e4 bd 21 b3 9a bd
       -0.100586295 0.047554594 -0.11153517 -0.075536974
0002b0 99 a2 34 be cb c3 80 be cb 61 a7 3d ca 38 b1 3d
       -0.17640151 -0.25149378 0.081729494 0.0865341
0002c0 ec 0c 7e be f2 41 1a be 7f 44 29 3c 06 b0 45 be
       -0.24809617 -0.15064219 0.010331272 -0.19305429
0002d0 43 43 21 be ff 21 fa bd 08 32 33 be c1 01 8b bd
       -0.15748315 -0.122135155 -0.17499554 -0.06787444
0002e0 e3 80 4d be 0a fa ab 3d a9 61 ac 3c 35 43 67 3d
       -0.20068698 0.083973005 0.021042662 0.056460578
0002f0 39 db 4b be 89 b2 e1 bd 36 1b 90 bc c9 7c f3 3c
       -0.19907846 -0.11020381 -0.0175911 0.029722588
000300 05 a2 c4 3e a2 d0 c4 3e 60 8e 2a 3f 8e f2 ad 3e
       0.3840486 0.38440424 0.66623497 0.33974117
000310 81 39 02 3f 36 10 bc bf 09 d7 59 3e 32 bf 34 3f
       0.50868994 -1.4692447 0.21273436 0.7060424
000320 9b 3f 06 3f c4 d9 61 3f 04 9b dc 3e ef b1 e1 be
       0.52440804 0.8822291 0.43087018 -0.44081065
000330 e9 a5 84 3e bd 79 b1 3e 67 ae f5 3e 92 de b8 3e
       0.2590783 0.3466319 0.4798462 0.36107308
000340 c9 d2 d7 3e 75 71 9e be 42 14 0f bf e4 24 11 3f
       0.42153004 -0.30945936 -0.55890286 0.56696916
000350 ca 25 80 bd c8 23 1d be 13 9a f9 3d 1f 84 80 3e
       -0.06257208 -0.1534568 0.121875905 0.251008
000360 23 4f 01 3f ee d6 57 be 5a 8f b8 3e e2 52 e5 3e
       0.5051138 -0.21078083 0.3604687 0.44789797
000370 8a ca 06 3c 2b 48 41 3d f8 28 19 3f b4 89 34 c0
       0.008227 0.047187965 0.5982814 -2.8209047
000380 7c 52 9f 3e 71 25 05 3e cc 03 f3 3e 6f 03 5e 3e
       0.31117618 0.13002564 0.47463834 0.21680997
000390 1c d6 3c 3f 91 d8 f5 bf 60 dd d7 3e 8c 71 55 3f
       0.73764205 -1.9206716 0.42161083 0.83376384
0003a0 6a 22 0e 3f b5 8a 4b 3f 28 ac 8a 3e 3e 1f 2a bf
       0.5552126 0.79508525 0.2708447 -0.6645392
0003b0 94 bc 5f 3e 2f cb 21 3f 11 c2 1e 3f c9 f3 24 3f
       0.2184928 0.6320066 0.6201487 0.64434487
0003c0 82 74 dc 3e f2 d9 38 bf 05 cb d9 be d1 eb fe 3e
       0.43057638 -0.7220756 -0.42537704 0.4978929
0003d0 e6 1c b1 be 39 f9 4d 3e 14 d4 59 3e 75 86 8c 3e
       -0.3459236 0.20114602 0.21272308 0.27446333
0003e0 82 0e f2 3e 49 31 21 be b0 a1 09 3f b4 be a6 3e
       0.47276694 -0.15741457 0.5376234 0.3256737
0003f0 ec e5 b3 3d b0 6c c6 3c 09 12 4b 3e e9 3f 1b c0
       0.087840885 0.024221748 0.19831099 -2.4257758

fc2.bias f4 [32]
000000 d9 20 d2 be 76 32 cf 3e 2c 16 67 be cd 3f 21 bf
       -0.41040686 0.40468186 -0.22567052 -0.6298798
000010 d4 6b a6 be 14 87 67 bd 72 1f 4a bd ef ea c1 be
       -0.3250414 -0.056525305 -0.049346395 -0.37874553
000020 81 f7 b3 be 1d b6 0d be 15 b6 38 be 39 eb 55 be
       -0.35149768 -0.13839002 -0.18038209 -0.20890512
000030 65 5d 73 bc 16 6d 56 be 06 95 62 be d7 e1 f9 bd
       -0.01485381 -0.2094005 -0.2212716 -0.12201279
000040 c2 ae 03 3e 5b a8 0e 3e de 72 63 be fd 7e 63 bd
       0.12859634 0.1393141 -0.22211787 -0.055541027
000050 dd fe 19 3f 4e 7a 15 be aa f0 e2 bd 61 e2 2d 3c
       0.60154516 -0.14597437 -0.11081059 0.010613055
000060 f2 c3 5b be b5 a8 03 bd 32 a3 33 be 24 07 83 be
       -0.21461466 -0.032143313 -0.17542723 -0.25591385
000070 d6 68 1c bf 04 c8 b2 be 72 5e 3c be 1b 09 12 3e
       -0.61097467 -0.34918225 -0.18395403 0.14261286

fc3.weight f4 [3, 32]
000000 6e f7 ae bf f1 70 1b c0 87 4b c3 be 4a 0b 6d bf
       -1.366926 -2.4287684 -0.3814356 -0.9259535
000010 9b 6c c3 bf 53 12 e8 bb 68 06 ff be b0 1a 03 bf
       -1.5267519 -0.0070822625 -0.49809575 -0.51212597
000020 27 3e ce be 5a c8 d7 be 57 ae f0 bf 9e f2 ac be
       -0.40281793 -0.42145044 -1.8803204 -0.33778852
000030 d6 a6 0a 3e fe 39 03 be 3c d5 08 bf cb ef 7f bd
       0.13540205 -0.12815091 -0.5345037 -0.062484544
000040 a3 a2 21 40 fe 05 d3 3f c3 c3 c3 be 6b a9 86 3e
       2.5255516 1.6486204 -0.38235292 0.2630113
000050 f5 30 a3 bf f8 c2 b6 be 2d a2 97 be 93 ba c4 bd
       -1.2749316 -0.35695624 -0.29615918 -0.09605899
000060 b8 fe 04 3d 8a 54 70 bf c5 76 df be df eb ba be
       0.03246948 -0.93878996 -0.436453 -0.3650808
000070 f0 5f 8d be 72 64 3b bf 6e a6 80 be 5e 70 ee bf
       -0.27612257 -0.7320014 -0.25126976 -1.8628042
000080 71 a2 b2 bf 27 b1 16 c0 da 27 a4 be 77 52 92 bf
       -1.3955823 -2.3545625 -0.32061654 -1.1431416
000090 f1 ca cd bf d9 ad 1e ba bc be 6f be b5 4e d1 be
       -1.6077558 -0.0006053127 -0.23412603 -0.4088036
0000a0 a6 52 9a be 72 ef 26 be 26 26 01 c0 8c b7 db be
       -0.3014118 -0.16302279 -2.0179534 -0.42913473
0000b0 24 ef 3b bd e3 a4 91 3d 2d 65 d5 be 16 9f 87 3e
       -0.04588236 0.07111528 -0.41678753 0.2648856
0000c0 f8 b0 20 40 4e 4a 16 40 cc f5 9c be a4 fb 8c bf
       2.5108013 2.3482852 -0.30656278 -1.1014295
0000d0 36 28 7b bf c7 4a f3 be 29 f6 e1 be fe d8 19 bd
       -0.9810823 -0.47517988 -0.44133118 -0.037560456
0000e0 49 b9 b4 3d eb e7 1b bf 68 60 c4 be b6 13 16 bf
       0.08824403 -0.60900754 -0.38354802 -0.58623827
0000f0 48 57 28 bf 13 98 96 bf f7 31 1a bf ce 1f 18 c0
       -0.6575818 -1.1765159 -0.6023249 -2.3769412
000100 56 92 ab bf 50 5d 07 c0 8c 3a aa be 1a 1f 41 bf
       -1.3404033 -2.1150703 -0.33247793 -0.7543808
000110 58 b3 b5 bf 04 55 7e 3d c1 fb 81 be 30 9b c0 bd
       -1.4195356 0.062092796 -0.25387385 -0.094046
000120 2b 45 03 bf 4e 81 9f be 91 a7 e0 bf 51 46 08 bf
       -0.51277417 -0.3115334 -1.7551137 -0.53232294
000130 47 93 60 3c 92 7a 8d 3d 5d 2e 07 3d ac 36 ea bf
       0.013706989 0.06908144 0.0330032 -1.8297935
000140 b5 b4 25 40 cb b7 22 40 57 3f e3 be f7 1c 24 3f
       2.5891545 2.5424678 -0.44384262 0.64106697
000150 3a c7 5c bf 39 7d 63 be 6c e0 17 bf b0 64 fe 3c
       -0.86241496 -0.22215737 -0.59326816 0.03105387
000160 c4 69 88 3d b9 88 93 bf da 18 1d bf da 3c 56 bf
       0.06660798 -1.15261 -0.61366045 -0.836866
000170 a2 7d 98 bf dd a0 87 bf 49 2e 05 bf 01 2f 1a c0
       -1.191334 -1.0595967 -0.5202375 -2.409119

fc3.bias f4 [3]
000000 17 00 e1 be 80 57 10 3f 5e ac ba 3e
       -0.4394538 0.56383514 0.3645963
