saves/01022021160335_acrobot_dqn.pt (torch, 27479 bytes, 8 tensors)

lstm.weight_ih_l0 f4 [128, 6]
000000 3b ea 15 bd 29 85 b5 be 1c d0 e6 3c 90 e0 b7 be
       -0.036600333 -0.35453156 0.028175406 -0.35913515
000010 92 19 6c 3e 64 39 fc 3d 9c 18 f2 3d e2 57 9f 3c
       0.2305663 0.12315634 0.118211 0.019451085
000020 c1 93 38 3e fe f1 42 bd f7 36 92 3d f2 16 c3 3c
       0.18025114 -0.047594063 0.0713939 0.023814652
000030 9b 44 91 3d 17 4b 85 3d ba d5 89 3d 1e f9 3c bd
       0.070931636 0.06508463 0.06730218 -0.046136014
000040 23 6e 84 3d af 17 46 3c 6a af 0b 3f 08 25 ed bc
       0.064663194 0.012090608 0.54564536 -0.028948322
000050 79 c6 ad 3e cf 9f 14 bd f4 20 35 bc 23 23 dc bb
       0.33940485 -0.036285218 -0.01105522 -0.006718056
000060 79 04 4b bf 55 03 04 3f 5b 55 e6 be 77 c1 a3 be
       -0.793037 0.51567584 -0.44986996 -0.3198354
000070 c8 90 30 3e 40 d5 47 3f 61 b7 ad bd e3 af c5 be
       0.1724273 0.7805977 -0.084822424 -0.38610753
000080 52 26 67 3e d9 a1 ea be c4 b9 c1 3d 38 c7 81 3d
       0.22573212 -0.45826605 0.0945926 0.06336826
000090 c1 67 ed bd 47 2c e3 bd 34 e0 99 be 87 cf 99 3c
       -0.11592055 -0.110924296 -0.30053866 0.018775715
0000a0 93 d7 0c 3f c2 1e 5a 3e b2 e5 b1 3d 91 18 66 bf
       0.5501644 0.21300796 0.08686389 -0.89881235
0000b0 31 ac d8 be 78 1e 90 3e 04 38 3d be 3d be 08 bf
       -0.42318872 0.28148246 -0.184784 -0.5341528
0000c0 dc 27 47 bf 93 3e 9b bf 8d 3d ed be 4c d5 70 3f
       -0.77795196 -1.2128471 -0.46336022 0.94075465
0000d0 81 6e 3d be da 40 a7 be 5f 49 14 3f 80 cd 1b 3e
       -0.18499185 -0.32666665 0.57924455 0.15215111
0000e0 47 6d 0f 3f 1d 84 01 3e 68 bd 18 3d 45 29 11 bd
       0.5602612 0.12648053 0.037290007 -0.03543975
0000f0 c0 a9 8e 3f be 02 eb 3e bb 65 0b 3e 51 61 08 3f
       1.1145554 0.4590053 0.13613026 0.53273493
000100 f8 08 05 3c ab 7c ed bd db 95 f2 be d3 ad b7 bf
       0.008119814 -0.11596044 -0.47379956 -1.4349922
000110 a0 44 0e c0 1a 09 65 3f eb ec ce 3e bb e7 25 be
       -2.2229385 0.8946701 0.4041513 -0.1620168
000120 32 e0 b6 3e 1c fd 60 be b9 ed 2a 3e b4 3f ad be
       0.35717922 -0.21971554 0.16692246 -0.33837664
000130 fb dc b8 3b 18 b6 bd 3c 4d 11 07 be 5c dd e2 be
       0.0056415773 0.023158118 -0.13190193 -0.4430951
000140 e0 7e 32 bf db 5b 5d 3f f1 88 cf 3e 33 a7 b0 be
       -0.69724846 0.86468285 0.40534166 -0.34502563
000150 a2 d9 f5 3e 58 7b 62 be a9 32 f5 39 5d bf 92 bd
       0.48017603 -0.22117364 0.00046767786 -0.07165406
000160 9b 4c 3d be 84 60 33 be 3c d4 ea 3e d0 22 b5 be
       -0.18486254 -0.17517287 0.45865047 -0.35378122
000170 b9 fb 4c 3f 48 94 ed 3e ba 07 e9 be 47 49 d6 be
       0.800716 0.46402192 -0.45513707 -0.4185278
000180 09 ba 2c bd e8 3d 8d bd 4f 8a 2d 3b b8 85 14 be
       -0.042169604 -0.06896573 0.0026480143 -0.14504135
000190 77 e2 1f be f3 50 4e bd 60 de 73 be 05 d8 22 3e
       -0.15613733 -0.050370168 -0.23815298 0.15902717
0001a0 39 cd 54 3f 33 d4 11 3e 4e 25 8e be 8a e9 ab be
       0.83125645 0.14241104 -0.27762836 -0.33576614
0001b0 44 5e c2 3e 57 1e 59 3e 54 1a 95 3f 36 fe bd 3d
       0.37962544 0.2120298 1.164866 0.092770025
0001c0 ae 23 86 3d 44 dc c6 bc 2f b1 3e 3f bd c4 44 be
       0.06549774 -0.024274953 0.7448911 -0.19215675
0001d0 e2 28 bc bd b5 25 89 be 0a 4b 51 be 28 25 63 bd
       -0.09187485 -0.2678658 -0.20438781 -0.055455357
0001e0 0a d6 0b bf 92 f2 ec 3d 08 b4 df be 74 05 74 bd
       -0.5462347 0.11569704 -0.4369204 -0.059575513
0001f0 05 69 02 be 16 76 ac 3e 11 a7 44 3d 95 71 85 3e
       -0.12735374 0.33683842 0.04801089 0.2606322
000200 55 95 44 3f ff a1 04 be 48 00 de bd 57 ba 4c 3b
       0.7679036 -0.12952422 -0.108398974 0.0031238997
000210 01 fb cd 3e 3e 66 1e be dc 80 87 bd 7c 1f 87 be
       0.40230563 -0.1546869 -0.06616375 -0.26391208
000220 17 08 62 be ee ae 85 bd ec 76 17 be 51 e8 92 be
       -0.22073399 -0.06527506 -0.14791459 -0.28692868
000230 54 7d ce bf 9b 95 56 bf dc 49 18 be 33 9d 9d bc
       -1.6131997 -0.8382203 -0.14871925 -0.019239997
000240 a9 62 96 bf ec 9e c3 3f 42 0d d8 be 3c 6c 97 3e
       -1.1748859 1.5282874 -0.42197615 0.29574764
000250 b7 c8 ee 3e e3 20 b6 3e 8e 5b ed 3e 7d 82 41 3e
       0.46637508 0.35571966 0.46358913 0.18897434
000260 89 92 1d 3f 87 54 1a 3e 32 88 69 3d bc c0 10 bd
       0.6155172 0.15071307 0.05701465 -0.035340056
000270 bd 61 fe 3e ca d0 95 3f 33 70 61 3f d1 04 9a bf
       0.49683943 1.1704342 0.8806183 -1.203272
000280 33 1d 0f be 57 60 0b 3f 05 60 cf 3e e6 c3 ef 3c
       -0.13975982 0.5444388 0.40502945 0.029268216
000290 b5 82 99 3e 2f 70 ff bc d8 33 48 bc 49 c6 8e bc
       0.29982534 -0.031181423 -0.012219392 -0.017428534
0002a0 e9 cb 0e 3f 9b ca 23 be 82 d9 ab 3e e7 0b 9e be
       0.5577989 -0.15995257 0.33564383 -0.30868456
0002b0 b3 03 b9 3c 09 d7 36 3d 12 93 87 3f d8 98 26 bc
       0.022584772 0.044638667 1.0591757 -0.010168277
0002c0 44 8c 29 bc 09 cf 9f bd 57 4a 91 be b1 32 fc bd
       -0.010348383 -0.07803161 -0.2837703 -0.12314356
0002d0 98 3a 68 3f db e0 d2 3e 52 2d 16 3f 2e b3 8a 3e
       0.90714407 0.41187176 0.58662903 0.27089828
0002e0 09 2e a5 3d bf f3 d4 bd 35 3b cf bd ef 57 a6 3f
       0.08065421 -0.103980534 -0.10118715 1.2995585
0002f0 d8 69 2c 3f 87 4d f7 3e a8 17 99 3e 52 03 ca 3e
       0.67349005 0.48301336 0.2990086 0.39455658
000300 12 96 a7 3d 97 5b 1e be 51 95 22 3e b7 a0 1a be
       0.081829205 -0.15464626 0.15877272 -0.1510037
000310 e0 dc 25 bc bc 4d 96 bd f8 8e b5 3c 2a 7d c4 3d
       -0.0101234615 -0.073390454 0.0221629 0.09594186
000320 a0 2f 40 3c f5 d3 1e 3e 58 b9 d8 bd 60 3b 55 bc
       0.011730105 0.15510543 -0.105822265 -0.013014644
000330 9e 64 1b be 97 be 2e 3e 2d 35 21 3e 87 e4 03 3e
       -0.15175101 0.17064892 0.15742941 0.12880145
000340 1b 55 25 3e a6 30 99 3d ef 10 26 3e c0 5a 5b bd
       0.16145746 0.07479982 0.16217397 -0.053553343
000350 32 5e f2 3d 42 d3 d7 3d ce ce e6 3d b1 5f 1c 3e
       0.118343726 0.10538341 0.112699136 0.15270878
000360 d5 29 02 3e 15 25 88 bd 37 b8 06 3e 03 aa 05 be
       0.1271127 -0.06647698 0.1315621 -0.13053136
000370 54 84 0a bd 10 75 03 3d 95 11 dc bd 50 8e 89 3d
       -0.033817604 0.03209406 -0.10745541 0.06716597
000380 43 d2 22 3e 48 df 4f 3d ea 93 05 be 78 42 5a bd
       0.15900521 0.050750047 -0.13044706 -0.053286046
000390 88 6a 4a bd 8e a8 a8 3d 8f d1 21 be f6 2b 69 bd
       -0.049418002 0.08235274 -0.15802597 -0.05692669
0003a0 46 c8 90 3d f8 01 13 be 80 96 57 3d 65 89 1c 3e
       0.07069449 -0.1435622 0.052633762 0.15286787
0003b0 c0 17 9e 3c 2e 5c 9b 3d c0 30 e2 3b 00 96 bd 3c
       0.019298434 0.07585941 0.006902784 0.023142815
0003c0 f7 da 92 bd 1e 40 f8 3d 3a 1b 9c 3d a4 6a 7d 3d
       -0.071706705 0.121216044 0.076223806 0.06186928
0003d0 10 3e 07 bc 00 55 72 ba a8 99 e4 3c 82 c1 e1 3d
       -0.008254543 -0.00092442334 0.0279053 0.11023237
0003e0 1b 68 19 3e a2 7b cc 3d 54 ad 20 bd 18 d5 c2 bc
       0.1498112 0.099845186 -0.0392278 -0.023783252
0003f0 60 1c 5e bd 96 32 a6 3d 50 f9 d5 bc c6 d3 1d be
       -0.05422628 0.08115117 -0.026119858 -0.15412816

lstm.weight_hh_l0 f4 [128, 32]
000000 7c 1a 6e bd 70 ff 16 be 4f 25 14 3e c9 fc b0 bd
       -0.058130726 -0.14745879 0.14467357 -0.08641965
000010 f6 00 ed 3d b6 c5 1c be fb c5 a4 bd bc 34 06 bd
       0.11572449 -0.15309796 -0.08045574 -0.032765135
000020 6c 9e 8a 3d 4a f5 ad 3d 9d 73 8d bd 3c 31 fe bd
       0.06768498 0.08494051 -0.06906817 -0.124117345
000030 c9 bf 2f 3e f0 54 37 3d e4 ad 5d bd 7e d2 ef 3d
       0.17163004 0.044758737 -0.054120913 0.1171007
000040 a6 ed ef 3d 72 b6 28 be 9d d4 20 be 10 46 76 bd
       0.1171525 -0.16475847 -0.15706106 -0.06012541
000050 85 e6 28 be c0 54 28 bc 28 ac ff bc 80 07 af bc
       -0.16494186 -0.010274112 -0.03121002 -0.021365881
000060 7a f1 ea bd 11 bf 18 be 88 a1 7d 3d 64 ab 22 3d
       -0.11471839 -0.14916636 0.061921626 0.039714232
000070 5a 2f ae 3d b0 69 2a 3c 86 a3 0a be 58 0c f7 3c
       0.08505125 0.010401174 -0.13538942 0.030157253
000080 4d b3 10 3e 29 81 e3 bd c0 fb 65 3b fd 82 16 be
       0.14130898 -0.1110862 0.0035092682 -0.14698406
000090 cc 9c 41 3d b6 42 c5 3d 18 c4 0e be c7 c4 02 be
       0.047268674 0.09631865 -0.13941991 -0.12770377
0000a0 07 53 29 be 17 74 07 be a0 d0 cb bc bf db 13 be
       -0.16535579 -0.13227879 -0.024879754 -0.14439295
0000b0 ec 60 39 bd 76 bc bb 3d 5d 34 13 3e 44 6a dd bd
       -0.045258448 0.091668054 0.14375444 -0.10811284
0000c0 80 f5 3c 3c 80 5f ac 3b bb 29 28 3e 60 f8 63 3d
       0.011533141 0.005260408 0.16422169 0.05565679
0000d0 38 30 a2 bc d0 37 8a bc 42 d0 9d 3d c0 f2 9a bc
       -0.019798383 -0.016872317 0.07705738 -0.01891458
0000e0 20 78 0e 3c 18 a7 0e be 3c cd 4c bd b4 1b f5 bd
       0.008695632 -0.13930929 -0.050000414 -0.119681746
0000f0 1f ea a8 bd 52 73 25 be db 0a 28 3e dd fa 20 be
       -0.0824778 -0.16157272 0.16410391 -0.15720697
000100 54 42 0d be 0c 40 7f 3d db bb cf bd d6 b9 c4 3d
       -0.13794833 0.06231694 -0.101432525 0.09605758
000110 07 54 2e be 62 94 ff 3d 08 74 cc bd 50 61 46 bd
       -0.17024241 0.12479474 -0.09983069 -0.04843265
000120 76 ad 10 be 48 cf 10 3d 30 b4 74 3c b8 f3 21 3d
       -0.1412867 0.03535393 0.014935538 0.03953907
000130 86 a8 83 3d 40 4c 07 3d 29 a3 2c 3e 72 11 ef 3d
       0.06428628 0.033031702 0.16859116 0.11673249
000140 be b9 bb 3d b0 23 21 be 46 47 f5 3d 80 dc 20 bd
       0.09166287 -0.1573627 0.11976485 -0.039272785
000150 ba 18 0e be 20 60 13 be cc e4 e7 bd 26 04 e1 3d
       -0.1387662 -0.14392138 -0.113229364 0.109871194
000160 e2 67 ed 3d b8 ad d7 bc b4 48 dc bd 75 06 04 3e
       0.1159208 -0.026327953 -0.107560545 0.12893088
000170 34 5d 64 bd 01 c3 23 3e 0c bc 01 3d 96 1a ae 3d
       -0.055752948 0.15992357 0.031673476 0.085011646
000180 ac f6 28 be 2f b5 2b be 30 d5 3f bd 1a ff 0e be
       -0.16500348 -0.16768335 -0.04683417 -0.13964501
000190 05 5c 26 3e 90 ef 1a 3c 84 15 07 bd 77 22 33 be
       0.1624604 0.00945653 -0.032979503 -0.17493616
0001a0 4e f4 99 3d 7e dc e6 3d f0 76 2c bc 56 1b 91 bd
       0.075173005 0.11272524 -0.010526404 -0.07085292
0001b0 4b 9b e4 bd b0 f3 0f be 30 cd ad 3c 2c 93 30 be
       -0.11162432 -0.14057803 0.021216005 -0.17243642
0001c0 7e 5f 85 3d c8 82 6f 3d 58 bb ca bc 16 bd cf 3d
       0.06512354 0.058474332 -0.024747536 0.10143487
0001d0 f7 18 01 be f4 8f 15 be 67 0d 33 3e 58 11 a1 bc
       -0.1260718 -0.14605695 0.17485581 -0.01966159
0001e0 a0 fd 90 3d c8 06 f5 3c 60 17 cf bd 01 38 8d bd
       0.07079625 0.02991046 -0.1011188 -0.068954475
0001f0 58 c0 fc bd db 00 92 bd f9 77 f9 bd 33 6b 09 3e
       -0.12341374 -0.071290694 -0.12181086 0.134198
000200 0f 54 e5 bd 20 4e 9c bb c8 c8 96 bd 8d 74 89 bd
       -0.111976735 -0.0047700554 -0.07362515 -0.067116834
000210 58 36 cc bc 4b ac 21 3e 4b f7 08 be 24 d5 10 bd
       -0.024928257 0.15788381 -0.13375585 -0.035359517
000220 88 10 63 bd 42 d0 c0 3d 36 d4 e5 3d 45 f7 93 bd
       -0.055435687 0.09414722 0.11222117 -0.07224897
000230 6c 6d 20 3d 05 6b 10 3e b5 6d 03 3e 40 c4 8f bc
       0.039166853 0.14103325 0.12834819 -0.017549634
000240 8e 81 30 be 41 68 0f 3e f6 83 fe 3d 18 f9 74 3d
       -0.17236921 0.14004613 0.12427513 0.059807867
000250 33 a5 25 3e 45 b8 14 be cf 87 23 be b4 f2 5e 3d
       0.161763 -0.14523418 -0.15969776 0.05443068
000260 fd 2a 2a 3e 53 da 10 3e 20 c6 7b 3d fd a2 19 3e
       0.16617961 0.14145784 0.061468244 0.15003581
000270 87 79 c5 bd d2 83 9f 3d 4a 20 d0 3d 00 16 f2 39
       -0.0964232 0.077888146 0.10162409 0.00046174228
000280 af 11 e4 bd e0 ec 25 3d 59 1d a8 bd 29 11 19 be
       -0.111361854 0.040509105 -0.082087226 -0.14947952
000290 00 4a 35 3d 5a 03 ee 3d 60 9a a3 bc d0 90 10 3d
       0.044260025 0.11621733 -0.019971073 0.035294354
0002a0 00 00 92 b7 f1 86 a1 bd 48 f6 17 3d dc 52 0a be
       -1.7404556e-05 -0.07887066 0.037100106 -0.13508171
0002b0 67 c8 09 3e 00 69 74 3d 55 02 1a 3e 6a b0 9f 3d
       0.13455354 0.05967045 0.15039952 0.0779732
0002c0 6e 29 f0 3d cf 3f 08 3e 26 19 06 be e3 a2 02 3e
       0.11726652 0.13305591 -0.13095531 0.12757449
0002d0 9b da d7 bd cc 36 00 bd c4 9e c4 bd cb 67 06 be
       -0.105397426 -0.03130226 -0.09600595 -0.13125531
0002e0 80 dd 24 be 40 95 ec bd ca c3 ce 3d e2 d4 c8 bd
       -0.1610012 -0.11551905 0.100959376 -0.09806229
0002f0 f3 db 2a 3e 83 6a 2a 3e ce 94 34 be 4e 47 98 3d
       0.16685466 0.16642193 -0.1763489 0.07435475
000300 00 bc 4a b9 08 e3 c5 3c fd a1 01 3e 67 65 32 3e
       -0.00019334257 0.024156108 0.1265945 0.17421494
000310 f8 a1 80 3c 10 5b 5b bd 60 e7 d2 bb 96 ad be 3d
       0.015702233 -0.05355364 -0.0064362735 0.09310453
000320 64 75 8f bd 80 c2 ac 3b 9c ba fd bd b6 b8 8b 3d
       -0.07004812 0.0052722096 -0.123891085 0.0682234
000330 d2 3e 87 bd 47 44 2c 3e 80 53 d1 bb 5d ef 1f 3e
       -0.06603779 0.1682292 -0.006388128 0.15618654
000340 5a e0 de 3d 8f a9 01 3e 18 bc fe bd 16 3f 95 3d
       0.108826354 0.12662338 -0.1243822 0.07287423
000350 c8 1e 2a be 88 68 04 be 74 05 01 be 76 56 9d 3d
       -0.16613305 -0.129305 -0.12599736 0.07682507
000360 92 f6 f0 bd 70 10 73 3c fc 59 72 3d 97 da 9d bd
       -0.117657796 0.014835462 0.059167847 -0.07707708
000370 a6 c6 bb 3d 22 e2 04 be e2 b7 61 bd 86 20 31 be
       0.091687486 -0.12976888 -0.055107005 -0.17297563
000380 e4 e7 14 3d 4e f6 c5 3d 98 44 91 bc 31 eb fa bd
       0.03635396 0.096661195 -0.017732903 -0.122518905
000390 ba 27 bd 3d e0 5c d1 3c 60 b8 9e bd d0 50 01 be
       0.09236093 0.025556982 -0.077500105 -0.12628484
0003a0 e3 2e 10 3e ee 65 57 bd d8 c2 4b bd d2 8f e9 bd
       0.14080386 -0.052587442 -0.049746364 -0.11404385
0003b0 8c 93 2d be 06 36 cf 3d 66 f3 dc 3d 28 34 fd 3c
       -0.16950816 0.10117726 0.10788612 0.03090866
0003c0 98 b4 c3 3c 4f 43 a6 bd ba f9 bf 3d 70 f1 44 bd
       0.023889825 -0.08118307 0.093738034 -0.048081815
0003d0 de eb da 3d 66 32 f2 3d 19 79 81 bd f9 51 13 3e
       0.10689519 0.11826019 -0.06321926 0.14386739
0003e0 40 19 4a 3c 6e 2a 9d 3d 8f f0 06 be 14 59 c3 bd
       0.012335122 0.076741084 -0.13177703 -0.09538475
0003f0 58 e0 30 be 38 6f c7 3c e2 10 2b be 30 55 53 3c
       -0.1727308 0.024345025 -0.16705659 0.012898728

lstm.bias_ih_l0 f4 [128]
000000 a6 1d 73 3f 55 b6 9e 3f 38 78 91 3f 62 27 a3 3f
       0.94967115 1.2399393 1.1364813 1.2746394
000010 09 d9 31 be 5e 05 92 3f 9d 62 3c 3f c0 0c 0e 3f
       -0.17367949 1.1407888 0.7358797 0.55488205
000020 6c b2 51 3d 40 c1 73 3f 22 3d 93 3f 3f 6a 76 be
       0.051195547 0.9521675 1.1503031 -0.24063967
000030 e3 ac 8b 3f 9d 86 79 3e 8d 26 7f 3f 17 c5 31 3f
       1.0912136 0.24367757 0.996682 0.6944136
000040 30 e5 71 3f ae fd 42 3f 3c 37 ad 3f c7 8b 9f 3f
       0.9449034 0.76168334 1.3532481 1.2464532
000050 11 9b 38 3f d2 7e 85 3f ff bf a2 3f f3 59 30 be
       0.7211161 1.0429327 1.2714843 -0.17221813
000060 dd 0f a7 be 0b 40 9c 3f 11 22 3c 3f 55 1c 6d 3f
       -0.3262929 1.2207044 0.7348948 0.92621356
000070 1a 4a b6 3f 9f 0c 92 3f 65 00 be 3f f6 4f a2 3e
       1.4241364 1.1410102 1.484387 0.3170163
000080 0a 1b 01 be 18 ca 47 bd 90 f0 fa bd 9a 21 06 be
       -0.12607971 -0.048776716 -0.12252915 -0.13098755
000090 00 3c 23 be 1f b8 e8 bd 94 be 57 3d 46 93 fd 3d
       -0.15940857 -0.11363243 0.052671984 0.12381606
0000a0 64 b3 1e 3d 51 b2 da bd b0 c1 6f 3d c0 f6 59 3d
       0.0387453 -0.106785424 0.058534324 0.053213835
0000b0 01 1d 2f 3e 14 49 1f 3d 70 5f 9a 3c 40 61 d5 3c
       0.17100908 0.038888052 0.018844336 0.026047349
0000c0 20 ce 4e 3d c0 07 b4 bd 10 b1 0a bd 08 39 7d bd
       0.050489545 -0.08790541 -0.033860266 -0.061821967
0000d0 20 e5 92 bc ad 98 09 3e 30 66 99 bc 50 fe 05 be
       -0.017931521 0.13437147 -0.018725485 -0.13085294
0000e0 64 c3 83 3d f3 37 89 bd f0 09 16 3c 75 59 a7 bd
       0.06433752 -0.067001246 0.009157643 -0.081713594
0000f0 4e a3 99 3d 66 4a 1c be a8 51 6a 3d a6 6c d0 3d
       0.07501851 -0.15262756 0.05720678 0.10176973
000100 48 ef c3 3f 03 e6 b7 bf f6 ed a2 bf 38 d2 d7 3f
       1.5307398 -1.4367069 -1.272887 1.6861029
000110 1b 1d 26 3f 86 eb b0 3f ff f9 a0 3f 3f 05 95 bf
       0.6488816 1.3821876 1.2576293 -1.1642226
000120 f6 38 19 bf 3a ba c4 bf 5b fa af bf 15 f2 c3 3e
       -0.5985254 -1.5369332 -1.3748277 0.3827063
000130 d0 bb bc bf 1c 95 99 bf 66 db a6 3f 9d 90 9a 3f
       -1.4744816 -1.199863 1.3035705 1.2075382
000140 1e 22 e2 bf 3f 0a d1 3f 01 aa c5 bf bc 58 c2 3f
       -1.7666662 1.6331252 -1.5442506 1.518333
000150 a2 9f bb 3f db 1e c2 3f ce 17 a4 bf 28 64 3d 3f
       1.4658091 1.5165666 -1.2819765 0.7398095
000160 5c 1f 96 bf 05 9c ba 3f dc 10 84 bf 91 a5 d5 bf
       -1.172832 1.4578863 -1.0317645 -1.6691152
000170 1f 28 cb 3f ac 93 a9 3f a5 2b d1 bf 0b c3 a4 3f
       1.5871619 1.3248191 -1.6341444 1.2872022
000180 fe 8b 50 3f ae 0e 8e 3f 2d 0d 58 3f bd a2 9f 3f
       0.8146361 1.109823 0.84395105 1.2471539
000190 47 86 88 bd 53 95 07 3f 5e 55 45 3f 0d 05 dc 3e
       -0.06666236 0.52962226 0.77083385 0.42972603
0001a0 5f a1 8e bd ec 13 59 3f e4 9a 68 3f 0d 39 91 be
       -0.06964373 0.84796023 0.90861344 -0.2836384
0001b0 d5 cb 84 3f 83 15 f3 3e d0 b6 15 3f a9 00 f0 3e
       1.0374705 0.4747735 0.58482075 0.46875504
0001c0 98 d0 6d 3f fb 99 aa 3e 4c 3d 86 3f f7 29 5c 3f
       0.92896414 0.33320603 1.0487456 0.86001533
0001d0 e2 8f 30 3f 30 eb 44 3f c6 d4 6f 3f 7e 90 4c be
       0.6896955 0.7692137 0.9368404 -0.19976994
0001e0 45 52 75 be c5 15 8d 3f 53 0b d8 3e b5 ed 17 3f
       -0.23957165 1.1022269 0.4219614 0.5934709
0001f0 a2 80 a3 3f 7b bc 96 3f 20 ee ac 3f ef b9 34 3e
       1.2773631 1.177627 1.351017 0.17649053

lstm.bias_hh_l0 f4 [128]
000000 07 33 94 3f c1 98 8b 3f d6 0a 69 3f a7 65 b2 3f
       1.1578072 1.0905992 0.9103216 1.3937272
000010 1a fc a1 be 73 21 50 3f 35 24 3b 3f 10 0a 2d 3f
       -0.3163765 0.8130104 0.7310212 0.6759348
000020 95 ad 63 be b0 72 a2 3f da 81 73 3f c3 56 95 be
       -0.22234185 1.269125 0.9512001 -0.29167756
000030 85 e8 a6 3f 01 c7 77 3e 4d d7 9a 3f c0 eb 12 3f
       1.3039709 0.24197008 1.2096955 0.57390976
000040 d9 4c 58 3f 93 8c 5f 3f f9 40 aa 3f ce 24 9e 3f
       0.8449226 0.87323874 1.3301078 1.2354982
000050 d9 54 4d 3f e1 aa 91 3f 71 68 81 3f bf 11 06 bd
       0.8020759 1.1380273 1.0109998 -0.032731768
000060 6a 19 3e be 94 d0 a7 3f 0e 6c 5c 3f f7 52 85 3f
       -0.18564382 1.3110528 0.8610238 1.0415944
000070 bb bf ca 3f 8a da a2 3f a5 bb b6 3f 94 19 f9 3e
       1.5839761 1.2722943 1.4276015 0.48652327
000080 60 d8 84 3c aa 24 c7 3d 90 25 c4 bd 26 5b 75 bd
       0.016216457 0.0972379 -0.09577477 -0.05990138
000090 b4 c5 3c 3d bc fb 33 bd 1c 76 4d 3d da c1 a5 3d
       0.046086982 -0.043941244 0.050161466 0.08093615
0000a0 19 58 03 be 26 4e a6 bd 54 25 02 bd b3 2c 07 3e
       -0.12826575 -0.081203744 -0.03177388 0.13200645
0000b0 e5 be 05 be 7b c6 14 3e 70 a7 09 3d 28 0b 0c bd
       -0.13061102 0.1452884 0.033606946 -0.034190327
0000c0 a0 6c 83 3d 9c c4 6e 3d 5d b5 84 bd 8d 07 a1 bd
       0.06417203 0.05829297 -0.06479905 -0.07862768
0000d0 c4 4e 55 bd 38 21 13 be 3c 7c 46 3d 9b 56 09 3e
       -0.05207707 -0.1436814 0.048458323 0.13411944
0000e0 e0 84 a2 bb 64 e0 a3 bd 1a 80 e6 3d c7 cb 29 3e
       -0.0049596876 -0.080017835 0.11254902 0.16581641
0000f0 0c 15 0d be 9d 63 0e be ba 2d 5d bd 0c df 09 be
       -0.1377756 -0.13905187 -0.053998686 -0.13463992
000100 92 3a c4 3f df 1b 96 bf 0c 2b bc bf 42 7a d5 3f
       1.5330374 -1.1727256 -1.4700637 1.6677935
000110 c7 69 0b 3f e1 8a a2 3f c2 ba a0 3f d3 2b 6d bf
       0.5445828 1.2698632 1.2556994 -0.92644995
000120 59 d6 b6 be 5c 6e b9 bf bd 41 bc bf 3f ba f7 3e
       -0.3571041 -1.4486804 -1.4707562 0.48384282
000130 28 13 d0 bf 47 64 ab bf d1 59 86 3f 11 60 93 3f
       -1.6255846 -1.3389977 1.049616 1.1513692
000140 10 4f c5 bf 96 68 d9 3f 29 21 b8 bf 59 f6 c4 3f
       -1.5414753 1.6985042 -1.438512 1.5387679
000150 da 5c b0 3f 0c 18 b0 3f c9 43 a0 bf d7 34 5f 3f
       1.3778336 1.3757339 -1.2520686 0.8719
000160 f4 82 94 bf bc a4 ca 3f 48 98 ab bf b3 63 c5 bf
       -1.1602464 1.5831523 -1.3405848 -1.5421051
000170 b8 62 c0 3f 35 48 bb 3f 9d ea ba bf ef 44 c8 3f
       1.5030127 1.4631411 -1.4602848 1.5646037
000180 e4 a6 51 3f fc ee 71 3f 72 09 78 3f 5f 2f 87 3f
       0.8189528 0.94505286 0.9688941 1.0561332
000190 b9 b9 7c be 79 49 27 3f cf 29 63 3f 4a 0c 05 3f
       -0.24680223 0.65346485 0.8873567 0.51971877
0001a0 9a 6a 44 be eb 46 68 3f 01 48 97 3f 52 15 6e be
       -0.1918129 0.9073321 1.1818849 -0.2325032
0001b0 26 e3 7c 3f 19 0b 33 3e 3a ee 4d 3f d9 6f dd 3e
       0.987841 0.17484702 0.8044163 0.43249395
0001c0 9f 27 2d 3f 5a 54 24 3f 00 24 84 3f bd 04 68 3f
       0.6763858 0.6419121 1.0323486 0.9063223
0001d0 5c ea 10 3f c9 88 78 3f 27 5f 75 3f 8b 88 1e be
       0.56607604 0.9708372 0.95848316 -0.15481775
0001e0 b8 3c aa bd ee a6 8d 3f 50 30 e6 3e 6b 7f 60 3f
       -0.083123624 1.1066568 0.44958735 0.87694424
0001f0 fd 50 95 3f e5 c7 80 3f 26 ca a5 3f 64 43 6b 3e
       1.1665341 1.0061003 1.2952316 0.22974926

fc1.weight f4 [32, 32]
000000 87 04 6a bc ac 42 4d 3e a4 c5 5d 3d 94 80 98 bd
       -0.014283306 0.20044965 0.054143563 -0.07446399
000010 62 ac 53 3d 86 06 d9 bd bc 8f 9a bd 79 38 e4 bc
       0.05167807 -0.10596947 -0.075469464 -0.02785896
000020 81 63 2c 3e 11 32 06 3e 86 5b 84 3d 27 00 a2 bd
       0.16834833 0.13105036 0.06462769 -0.07910185
000030 9d 41 0b 3e 37 b9 03 3e e1 79 9a bd 17 42 49 be
       0.13599248 0.12863623 -0.07542778 -0.19654118
000040 f9 f3 a9 bd e3 74 eb bc 0b 68 00 3e b8 d4 d7 bd
       -0.08298487 -0.02874226 0.12539689 -0.1053862
000050 f4 8d b7 bc d0 4c aa 3d 43 54 94 3d 70 9d c6 3d
       -0.022406556 0.08315432 0.07242634 0.096979976
000060 78 75 31 3c 60 81 b6 3d b9 c0 a5 bd a0 a2 ee 3d
       0.010831229 0.08911395 -0.080933996 0.11652112
000070 00 78 1a 3c 45 5a b6 bd 22 e9 39 3d ea c5 18 be
       0.009428024 -0.08903936 0.04538835 -0.14919248
000080 e8 91 a6 3e d2 1c c6 be 88 2b 11 bf 86 f7 a6 3e
       0.32533193 -0.38693863 -0.5670705 0.3261072
000090 7a 60 0a bf 54 35 f5 3e 1d 94 c6 3d 39 c3 0e bf
       -0.5405346 0.4789225 0.09696219 -0.55766636
0000a0 fb f7 97 be 83 c7 b6 3e ec 1d 43 3f e0 e6 ef 3d
       -0.29681382 0.3569909 0.7621753 0.11713958
0000b0 b1 eb 30 be 4b 52 80 3f b5 35 b3 3e 13 65 8a bf
       -0.17277409 1.0025114 0.35001913 -1.0812095
0000c0 2a 53 8a be e3 46 88 3e 2c 83 9f 3f aa 17 6b 3e
       -0.27016574 0.26616582 1.2461905 0.22958246
0000d0 47 5f 1c bf f0 b6 b3 3e 49 0a 24 be b1 2b d8 be
       -0.6108288 0.35100508 -0.16019548 -0.42220834
0000e0 e2 06 98 3f 56 9a 8e bf af 62 31 bd cc b7 38 be
       1.18771 -1.114085 -0.043307003 -0.18038863
0000f0 eb f0 d5 3e cd 31 04 3f ca 8a 91 3f f3 47 6f bf
       0.41785368 0.5163849 1.137048 -0.9346916
000100 17 04 74 bd d9 7f 8f 3c 15 8b 88 3d 0f 30 b0 bd
       -0.059574213 0.017517017 0.06667153 -0.086029164
000110 1c c1 a4 3c 05 2c d9 3d a8 5d d1 bd 45 ba 24 3e
       0.020111613 0.10604099 -0.10222942 0.16086681
000120 f6 5f 37 3e a9 0b 09 bc 28 ee 33 3e 3b f2 21 be
       0.179077 -0.008364596 0.17571318 -0.1581506
000130 49 1e 4b 3e 02 63 1a bd 42 3c 38 bd d0 a1 cf 3c
       0.19835772 -0.037692077 -0.04497934 0.025345713
000140 43 cc f5 3d 1b 6c 74 be 29 30 e1 bd 78 01 d5 3d
       0.120018505 -0.23869364 -0.10995514 0.10400671
000150 69 e8 6a 3d 69 2c 9a 3d 71 72 05 3e 77 b5 57 be
       0.05735055 0.07528002 0.13031937 -0.21065317
000160 e6 c2 94 3d 4f 83 d2 bd 89 70 09 3e 1f 17 01 be
       0.072637364 -0.102789514 0.13421835 -0.12606476
000170 e6 95 f3 3d 95 76 c7 3d 6f f1 07 3e 53 84 04 3e
       0.11893825 0.097394146 0.13275693 0.12941103
000180 e2 9a c6 3d 58 8d 1e be 7b 14 90 bd 6a b5 1c be
       0.0969751 -0.15483606 -0.07035156 -0.15303579
000190 01 88 50 3e 20 a5 04 3e 5a 18 55 be a5 60 0e be
       0.20364381 0.12953615 -0.2081007 -0.13904054
0001a0 80 0c c7 be 2c 61 3c bd 89 a6 e4 3c 88 89 8b 3f
       -0.38876724 -0.045991108 0.027911441 1.0901346
0001b0 3b 25 70 3e 51 98 8b be 90 b3 b1 3d bb f3 ad 3e
       0.23451702 -0.27264646 0.08676827 0.33975014
0001c0 6c 4f ed bd 89 c8 3f 3e fd 3b 8f bd 61 b0 40 3e
       -0.11587414 0.18728842 -0.06993864 0.18817283
0001d0 63 39 b0 3d ac 71 e3 3d da bb 8e 3d 49 75 f4 bd
       0.08604696 0.111056656 0.069694236 -0.11936433
0001e0 90 3c 06 bf ce f2 09 3e e9 3d 08 be df b0 3a bd
       -0.5243616 0.13471529 -0.13304867 -0.045578834
0001f0 9d e1 08 3e b1 63 3a 3e 77 35 dc bd d6 31 da bd
       0.13367315 0.18202092 -0.10752385 -0.10654037
000200 27 ff 3c 3f 00 6c 22 bf 3c 73 12 bf 5e a7 1f 3f
       0.7382683 -0.63446045 -0.57207084 0.6236476
000210 f2 a9 04 3f 25 4a ad 3e 0d 0c 2b 3f f8 ed 20 bf
       0.51821816 0.3384563 0.66815263 -0.6286311
000220 74 e1 f0 be c3 81 b0 be bd b0 28 bf 89 43 8c 3f
       -0.47047007 -0.34474 -0.6589468 1.095811
000230 e9 e5 2c bf d1 4f 0e bf bb ac 28 3f f1 9c 4b 3f
       -0.67538315 -0.5559054 0.65888566 0.7953635
000240 e5 6a 81 be ae aa c3 3e 39 a9 2c bf 35 51 1c 3f
       -0.25276867 0.38216156 -0.67445713 0.6106141
000250 f9 f1 3d 3f 31 53 1e 3f 0b 82 3d bf 0c 35 e0 3e
       0.74197346 0.6184569 -0.74026555 0.43790472
000260 31 fa 33 bf 09 94 3d 3f c3 15 1c bf 61 72 f2 be
       -0.70303637 0.7405401 -0.60970706 -0.4735289
000270 71 b2 3f 3f 1d 5d 4b 3f 81 d1 45 bf ed 1e 1e 3f
       0.74881655 0.79438955 -0.772728 0.6176594
000280 5e eb 48 be a3 37 99 bd 73 95 c5 3d 9e 0e 54 3c
       -0.19621035 -0.07481315 0.09647646 0.012942938
000290 72 d0 6b be 19 65 1c be c5 b6 42 3c 8d d0 36 3e
       -0.23028734 -0.1527294 0.011884396 0.17852993
0002a0 ff b8 6a bd 57 f8 57 bb e9 5d ff 3b 9a cb 05 bd
       -0.057305332 -0.0032954419 0.0077931774 -0.032664873
0002b0 96 f5 bf bd e1 92 f6 bd 8c f1 9e bd ac 3b 2f be
       -0.09373014 -0.12039734 -0.07760915 -0.17112607
0002c0 5a aa f2 3d 58 63 31 3d d7 2a 59 3e a1 35 1e be
       0.11848898 0.043307632 0.21207748 -0.15450145
0002d0 ab 4d 61 bd 55 20 fd 3c 3a b3 90 bd d6 35 d3 ba
       -0.05500571 0.030899206 -0.07065435 -0.0016114067
0002e0 ca ea 39 3c 89 72 81 bd 9b ba 98 3c 47 20 31 3e
       0.011347482 -0.06320674 0.018643668 0.17297469
0002f0 9c b1 7d bd 40 32 61 be e1 e0 35 3e 90 fe 41 be
       -0.06193696 -0.21991825 0.17761566 -0.18944764
000300 be 0b ec 3e c4 e9 0e bf bf cc 1e bf 2f 4a 23 3f
       0.4610271 -0.5582545 -0.6203117 0.6378507
000310 21 03 0a 3f fa 06 da 3e fb 30 ad 3e ea 98 24 bf
       0.53911024 0.42583448 0.33826432 -0.6429583
000320 ef 9c f6 be 73 51 0f bf 00 96 0a bf 19 bb 92 3f
       -0.48166606 -0.55983657 -0.5413513 1.1463348
000330 6e e3 03 bf 59 c6 1b bf c5 ba 1d 3f 50 7b 47 3f
       -0.51518905 -0.6084953 0.6161311 0.77922535
000340 68 4f ba be 6e 2d e2 3e 7d 77 5a bf 3f a1 3b 3f
       -0.36388707 0.44175285 -0.85338575 0.73292917
000350 32 b0 dc 3e d4 d5 02 3f d0 c0 3d bf 31 3c 7c 3e
       0.43103176 0.51107526 -0.74122334 0.24632336
000360 c1 dc 38 bf b1 f6 13 3f a2 35 09 bf 70 f4 fa be
       -0.72211844 0.57798296 -0.5359746 -0.49014616
000370 70 bd 42 3f 54 29 0d 3f fa de 61 bf 17 aa d1 3e
       0.7607031 0.55141187 -0.8823086 0.4095008
000380 1d 2a e4 3e a9 4c a0 be 3d 62 e4 be b8 ef cb 3e
       0.4456338 -0.31308487 -0.446062 0.39831328
000390 7e 06 04 3f 66 08 04 3f 9d be d8 3e c3 fd 0c bf
       0.51572406 0.51575315 0.42332926 -0.5507471
0003a0 15 ee 2f bf 15 a3 ea be c4 31 1c bf d8 4d 64 3f
       -0.6872266 -0.45827547 -0.61013436 0.8918128
0003b0 82 84 3f bf 63 28 0c bf 05 e3 0b 3f a6 95 3c 3f
       -0.74811566 -0.54749125 0.5464328 0.73665845
0003c0 8f 2f 3a be 75 ad ff 3e 68 5b 16 bf 0b 22 23 3f
       -0.18182205 0.49937025 -0.58733225 0.6372382
0003d0 2a 2a 01 3f d0 fa f6 3e 5f 29 4e bf b5 ee f3 3e
       0.5045496 0.4823823 -0.8053188 0.47643057
0003e0 aa 46 2b bf fd 1a 00 3f 02 4c 61 bf 39 1e a5 be
       -0.669047 0.5004118 -0.88006604 -0.3224962
0003f0 73 f4 3d 3f 0c 47 32 3f 7b ce 68 bf 59 21 2f 3f
       0.74201125 0.6963966 -0.90940064 0.6841026

fc1.bias f4 [32]
000000 16 b2 31 be 35 78 85 3e 6e 8f 1b be 17 1b c5 3e
       -0.1735309 0.26068273 -0.15191433 0.3849723
000010 ba 24 4c 3f 61 a5 bf bd 4c a0 4d 3f 13 8a 48 3f
       0.7974354 -0.093577154 0.8032272 0.78335685
000020 2a 3a 3d be 84 1b 67 3f 4a 60 38 3f 91 05 61 3f
       -0.18479219 0.9027636 0.72021925 0.8789912
000030 72 ac 2e 3f 58 23 be 3c a3 d3 48 3f 45 37 9e 3d
       0.6823188 0.023210213 0.7844793 0.077253856
000040 29 95 3a be ab 99 44 3f 26 7b 3d 3f 61 b6 94 bb
       -0.18220963 0.7679698 0.74016035 -0.004538343
000050 b7 01 d8 bd e1 30 c6 bd 5c 37 59 3f d0 ab 3f 3f
       -0.10547202 -0.09677292 0.84850097 0.7487154
000060 92 07 5b 3f d8 5f e6 3e f0 8c ba bd be 33 5d 3f
       0.85558426 0.44994998 -0.09108913 0.8640708
000070 cd aa cd 3e 9f d2 0a 3f 83 42 b1 bd ac fd 34 be
       0.40169373 0.5422763 -0.08655264 -0.17674893

fc2.weight f4 [3, 32]
000000 b9 53 56 bc c2 22 fe 3d 73 2a f1 3d 61 7b 65 be
       -0.0130814845 0.12408973 0.11775675 -0.22410347
000010 2b f4 13 bf 66 1c 65 bd 4b c7 02 bf 2e 9a 34 bf
       -0.57794446 -0.055935286 -0.51085347 -0.7054776
000020 5b 0f 8f bd bf 46 16 bf 28 cb ba 3f 63 52 20 bf
       -0.06985351 -0.587017 1.4593248 -0.6262571
000030 c9 bd cb be b8 8c 69 3c 90 0e 15 bf 8f 1f e9 3c
       -0.39793232 0.014254741 -0.58225346 0.028457431
000040 55 84 a5 be 6f 3d fa be ea f0 0c bf 8c cb fb 3b
       -0.32327524 -0.48874995 -0.55055106 0.007684177
000050 df da 95 bc 1b ce 57 3e 61 7b 0d bf 68 e1 25 bf
       -0.018292842 0.21074717 -0.55266386 -0.6479707
000060 6d b9 35 bf 3e 8f 1b bf f7 1a 01 be d3 3a 0b bf
       -0.7098606 -0.60765445 -0.12607943 -0.54386634
000070 5d 8e ca 3f b4 ad 03 bf ed 72 af 3d bb 55 9d bd
       1.5824696 -0.51436925 0.08566842 -0.076823674
000080 a8 0c b2 3d f4 49 5c 3e 75 8b ba 3d ce be 9b be
       0.0869382 0.21512586 0.091086306 -0.3041901
000090 7c 43 28 bf d1 4c 30 bd ec 24 37 bf b1 6a fe be
       -0.65727973 -0.043042008 -0.71540713 -0.49690774
0000a0 f7 53 ff 3c 9f 2d 22 bf b4 c2 12 3f 33 ce 19 bf
       0.031167967 -0.6335086 0.57328343 -0.6008026
0000b0 db a0 e0 be 0a 37 94 3d 8e 58 16 bf 00 52 f8 3d
       -0.43872723 0.0723706 -0.58728874 0.12125015
0000c0 1d b1 cb 3d 42 8e f8 be 54 76 26 bf 0a 17 a3 3d
       0.09945891 -0.48546034 -0.65024304 0.07963379
0000d0 8e e8 15 3d fe 92 f7 3d 09 7d 12 bf 55 62 1f bf
       0.036598735 0.120885834 -0.5722204 -0.6225942
0000e0 b3 73 30 bf ca 58 ad be 88 c8 89 3c f5 5b 01 bf
       -0.68926543 -0.33856803 0.016819254 -0.5053094
0000f0 b6 37 4c be 83 26 ad be 40 4b c0 3c 2d 7a cc bd
       -0.19943127 -0.33818445 0.023473382 -0.09984241
000100 27 1b 81 bd 5b bc 4c 3f 2a 6c 56 bc b9 1e 24 be
       -0.06304007 0.7997491 -0.013087312 -0.16027345
000110 ae fc 1e bf 43 af 49 bd 4b 76 1b bf c6 f6 13 bf
       -0.6210431 -0.04923941 -0.60727376 -0.5779842
000120 b2 8d 2a bd 87 4b fb be 3c 7b 87 bf e8 a8 fe be
       -0.041639037 -0.4908106 -1.0584483 -0.4973824
000130 d8 36 16 bf 42 7c 05 bc bc fb 16 bf 0c a7 9c bd
       -0.58677435 -0.008147301 -0.58977866 -0.07649049
000140 5c 85 d5 bd aa a8 e9 be b0 74 27 bf fe cd 80 3d
       -0.10425827 -0.45636493 -0.65412426 0.0628929
000150 3f f0 5c 3c 2c fd 4e 3e f7 3d 27 bf fa b4 12 bf
       0.0134850135 0.20213765 -0.65328926 -0.573074
000160 55 23 29 bf 4e e1 c0 be 1c d1 ed bd 91 1b 1d bf
       -0.6606954 -0.37671894 -0.1161215 -0.6137019
000170 75 da 45 3e 76 0a f4 be bc 0e aa bd e9 35 26 3e
       0.19321616 -0.4766423 -0.083035916 0.16231503

fc2.bias f4 [3]
000000 03 71 19 bf 12 1c 71 bf 6b fb 6e bf
       -0.5993807 -0.94183457 -0.93352383
