saves/01022021152952_acrobot_dqn.pt (torch, 8607 bytes, 6 tensors)

fc1.weight f4 [32, 12]
00000000: db34 9f3e 2f12 493f b48c 643f a9a9 c2bd
00000010: 9cba ac3e dc98 0b3e 7d56 043f c125 a73d
00000020: 3167 62bd cce7 343d d626 0bbe e64a 22be
00000030: c80e d5bd 3d89 4e3d f464 bcbe 9bf4 873e
00000040: 9796 12be 585c 863e f8dc 1abf 750d 823f
00000050: 4f2e fa3e 2fbb 39be 5f8d c7bd 5b5b 2d3d
00000060: f069 313f 5b69 bcbe 26a1 e43d 8d12 853e
00000070: 304f 29be 5f98 5abc 3ed5 883e 6e99 2fbe
00000080: 3cf8 643f 326d dfbc b246 4abe 3731 1dbe
00000090: d840 04be 093f 95bf f91a 54bf 9093 a33e
000000a0: 4a0d 8cbe d06d a7bd 45b4 1c3c 2c55 8e3d
000000b0: 231c 52bf 7c42 21bf f924 383e 62fe c5bc
000000c0: 09ac e0bf f820 18bf 569f 51bf f277 e93e
000000d0: 3954 843e aa89 ef3d a5d6 443f 75f3 483e
000000e0: 47ed 203f 0df5 433c 436d d5be 73e6 5fbe
000000f0: ba01 84bf 9a0d f83d fd5e 2a3d 253a 75be
00000100: 0143 8a3f e62a c63e 936e 39bd 72ec ce3e
00000110: dc62 153e 375b 203f 67f8 18bf a57d 33bd
00000120: 0512 0ebe 1203 343e 67f1 5ebf 1767 b5be
00000130: af48 a53b 3932 5fbe 030c 963e 938f 453f
00000140: ed46 673b 5cc5 1fbf 12f8 92bd 61fd 6b3e
00000150: 77ef 0d3f 248a 9d3e f453 e2bd 3a67 88bf
00000160: af31 c3bd 8dc8 c4bd f0ce 343f b8c7 59bf
00000170: dbee 0d3e 0e74 2bbe 52e5 633e f50a a03d
00000180: ea4b 9e3e 3084 1c3f 25e4 b43d 1c7d 633e
00000190: 63de eb3d c897 e7bd 01f3 2e3f 1a10 833f
000001a0: 9826 f93e eb54 20bf e7ed 9d3e e838 683e
000001b0: ef1c 70bf ca62 b4be e3ac 473e f19c af3f
000001c0: d2a1 5dbe 8c8d a0be 6004 d5be f1cd 753f
000001d0: 7a99 283f 6421 febe 5d78 d73d 2e8b 873e
000001e0: fbcb 343d 0941 f73e 2c1a 673f cda5 0dbf
000001f0: 003a d33d 1c35 5f3e 1d42 523e c725 0a3f
00000200: eac9 d8bd 7e7a a2bf af7e b33e 323d 263e
00000210: 7b1c a3bf 8fe8 f6bc f522 18bd 0604 033f
00000220: 2a62 783f ea9b b3be f5e8 aebf 5e7a 373f
00000230: ea9a 33bf f104 f4be 4e92 bcbe f78e 263e
00000240: a5d8 49bf e3c6 75bf c9a4 c9be 6a80 f8be
00000250: 014e f2be 740f f6bd d916 a6bf 9d8a d13e
00000260: d6f0 053d 67a5 aebe f88e 053f 0937 a1bd
00000270: b57f e8bc bc6b 883f e252 f4be 2e94 9f3d
00000280: b3a1 1bbf 4eb3 1f3d 80d8 d0be 73c3 02bf
00000290: 03a8 adbe 8100 3fbf 4698 363f e3b5 fc3e
000002a0: 0e72 d6ba d0d9 e13d 0df5 32bd b3db 033e
000002b0: 00df 7b3e 434e 30bc 0a35 923e d119 21be
000002c0: abaa e7be bbd9 01bf 0201 4abe bdcc 183e
000002d0: e27a 82be d5e1 85bf b4ce 233e 683e 35bf
000002e0: c7dc 913e 1f96 5b3d 9edb adbf e91f 0b3f
000002f0: dda7 8f3d 9ca6 da3e fae7 663f 3e8b 6f3e
00000300: 773e cc3e 1328 653e 1d30 00be 64a3 e03e
00000310: 2e40 51bf 6e1e 85be a809 18be 7286 27bf
00000320: efdb d9bf 32cb 51bd 9781 92bd f80f 0dbf
00000330: 09f1 f2bf 0e83 e13e 44fa 8b3d d469 8b3f
00000340: bd25 f1be d348 05bf dca4 30be d182 0e3f
00000350: a104 62bf eba7 0c3f 2535 16be c50d c63e
00000360: 7bea 4b3f 365b 36bf 07b3 bf3e 8c0c 9a3f
00000370: 7634 3f3c 21c5 81bd f0b7 29bf 5037 a5bf
00000380: 9d50 55bf bd81 c5be 335d 32bf 7ea6 0bbf
00000390: f97e b6bf e6a9 d13e 78b2 2bbf f5e3 0d3f
000003a0: 26e7 2cbe a4ef cf3c ccba e83e 71f5 583f
000003b0: 2fc5 6cbf 837a 493f 15e8 483e 32c4 7c3b
000003c0: f971 8fbf 3588 4dbf 61bd 123e 0a68 30bf
000003d0: dc2c d73d 3292 d63e 5254 233e 7e66 0dbe
000003e0: 57b6 73be 13ab d23e 194d 89be 5aa6 61be
000003f0: 402f 563f 489d b63e 7878 593e 7c70 533f
0.31095013 0.7854337 0.89277196 -0.09505016 0.33736122 0.1363253 0.5169447 0.08161498
-0.055274192 0.04416637 -0.13589033 -0.15848884 -0.1040321 0.05042385 -0.3679577 0.26553807
-0.14315258 0.26242328 -0.6049342 1.0160357 0.48863456 -0.18137811 -0.09743761 0.04232345
0.6930227 -0.3679913 0.11163549 0.25990716 -0.16534114 -0.013341992 0.2672519 -0.17148373
0.89441276 -0.027273748 -0.1975353 -0.15350805 -0.12915361 -1.1659862 -0.82853657 0.3194852
-0.2735389 -0.08175242 0.009564464 0.06949839 -0.82074183 -0.6299207 0.17982854 -0.02416915
-1.7552501 -0.59425306 -0.8188375 0.45599324 0.25845507 0.11696179 0.7689002 0.19624121
0.62862056 0.01196028 -0.41684923 -0.21865253 -1.0313027 0.12111969 0.041594494 -0.23947962
1.0801698 0.38704604 -0.045271467 0.40414768 0.14588493 0.6263918 -0.5975403 -0.043820996
-0.13874061 0.17579296 -0.870871 -0.35430214 0.005044065 -0.21796502 0.2930604 0.771722
0.0035290078 -0.6241052 -0.07176222 0.23045875 0.5544352 0.30769455 -0.11051169 -1.0656502
-0.09530961 -0.096085645 0.7062826 -0.8507037 0.13860647 -0.1674349 0.22255448 0.0781459
0.30917293 0.611392 0.088325776 0.22215694 0.11517026 -0.11308247 0.68339545 1.0239289
0.48662257 -0.62629575 0.30845568 0.22677958 -0.9379415 -0.3523162 0.19499545 1.371977
-0.21643761 -0.31357992 -0.416049 0.96017367 0.65859187 -0.4963485 0.10521004 0.26473373
0.044139843 0.48291805 0.9027431 -0.55331117 0.10313797 0.21797603 0.20533033 0.53963894
-0.10585387 -1.2693632 0.3505759 0.16234282 -1.2743067 -0.03014019 -0.037142713 0.51178014
0.97024786 -0.3507989 -1.3664843 0.7167109 -0.70158255 -0.4766002 -0.36830372 0.16265474
-0.788462 -0.960066 -0.39383534 -0.48535472 -0.47325137 -0.12014666 -1.2975723 0.40926066
0.032700382 -0.34110567 0.5217128 -0.07871825 -0.028381208 1.0657878 -0.47719485 0.07791935
-0.6079361 0.038989358 -0.40790176 -0.5107948 -0.33917245 -0.74610144 0.713261 0.4935752
-0.0016360895 0.110278726 -0.04369073 0.12876777 0.24596786 -0.010760847 0.2855609 -0.15732504
-0.45247397 -0.50722855 -0.19726947 0.14921851 -0.25484377 -1.0459543 0.1599682 -0.7079835
0.28488752 0.053609964 -1.3582647 0.54345566 0.07014439 0.42705238 0.9019772 0.2339296
0.39891407 0.22378568 -0.12518354 0.43874657 -0.81738555 -0.25999779 -0.14847434 -0.6543952
-1.7020243 -0.051219173 -0.071536236 -0.5510249 -1.8979808 0.440453 0.06834844 1.0891671
-0.47099105 -0.52064246 -0.17250389 0.5566836 -0.88288313 0.5494372 -0.1466871 0.3868238
0.79654664 -0.71232927 0.37441275 1.2035079 0.0116702225 -0.063364275 -0.6629629 -1.2907505
-0.8332613 -0.38575545 -0.6967346 -0.5455092 -1.4257499 0.40949935 -0.67069197 0.5542596
-0.16885051 0.025382824 0.45455015 0.84749514 -0.9248838 0.78702563 0.19619782 0.003856909
-1.1206657 -0.8028596 0.14330055 -0.6890875 0.10506603 0.41908413 0.15950134 -0.13808629
-0.23800026 0.41146144 -0.26816633 -0.22036114 0.8366585 0.3566687 0.21237361 0.8259351

fc1.bias f4 [32]
00000000: ec30 743f cbc7 2b3f d081 573f f4a4 2c3f
00000010: 5137 493f b394 2bbf 9926 583f c5b7 6b3f
00000020: 95c0 063f a8b4 383f 5aff 303f 35a3 35bf
00000030: 3fda 36bf bc25 edbf e33a c33f 8099 98bf
00000040: 9967 91bf fbdb 07c0 1dd6 25bf e0de 603f
00000050: 2bea 2d3e dbee 243f 6483 593f e1ee 953f
00000060: 9532 5abf 2d58 0dbf f0f5 c7bd 1a4d 363f
00000070: 62cf 113f 4808 7abf 6e38 68bf f537 963d
0.9538715 0.67101735 0.84182453 0.674392 0.7860003 -0.6702377 0.84433895 0.92077285
0.52637607 0.7215066 0.69139636 -0.7095216 -0.7142677 -1.8527141 1.5252346 -1.1921844
-1.135974 -2.1228015 -0.64779836 0.8784008 0.16983859 0.64426965 0.8496611 1.1713525
-0.8523343 -0.5521267 -0.09763706 0.712114 0.56957066 -0.97668886 -0.90711105 0.07334892

fc2.weight f4 [32, 32]
00000000: b6c3 183c 2c7a c53c af2d fd3d cf23 a43e
00000010: 2437 903e 99ef 74be 84bc 4c3e b721 073e
00000020: b720 7fbd 9ec3 cd3c fdf5 663e df24 29be
00000030: 0c54 b23d 9639 55bf 01be c73d 3355 54be
00000040: 6acc 32bf 1904 ebbe 938c 373e 68f2 bd3d
00000050: a876 50be 93fd ae3e 1847 c03d 1ba5 5abd
00000060: f87e f6be 8180 0ebf 6e5a d8be a78e a93e
00000070: b0a5 833e e5aa 4f3e 9bf0 1cbe 1c5d 94be
00000080: 02c5 013e 9072 c63d f2c4 903d b3fc 3d3e
00000090: 1059 cfbd 5e14 98bc 5566 763e cfd5 2cbd
000000a0: ed61 173e 8685 e23e 7a0c 893e e0ad 02bf
000000b0: 23a6 c23d 7912 0bbf e9bd 913e 2673 42bf
000000c0: 5d61 09bf b276 06c0 0cfe b0be a4ff ed3d
000000d0: a88a e2be 32ec bb3e c8d4 cabe 6197 3c3f
000000e0: 21d4 6c3d df68 fbbe 55b6 dbbc 9fc3 e93d
000000f0: ec06 653e ea36 a63e 9719 843e 9b02 ff3d
00000100: 62e9 27be 9429 8d3e ca09 a8be e73a 083f
00000110: 0af3 3bbe 82eb b0bf 67d8 443d f6c6 09bf
00000120: 7bc3 c2be 4f19 b5bf 656b 70bf 5ab0 e4bd
00000130: c88b 7d3f 21ad 30bf f409 ac3e abcb 61be
00000140: 153b 6a3e 6aa7 ea3f 45f9 f23e 08a5 c5be
00000150: b62f 263e 6b47 86bf ba8e 073e 94a2 6cbc
00000160: 78ec 03bf 5836 413f 3a5f 8bbe d778 333f
00000170: 4b74 4abf b9bb 4c3f dadc 1f3f 56b8 48bf
00000180: f32e 393e d177 a4bb cc25 ba3e 2454 6abe
00000190: 79e4 60bd fb54 663f 8e41 04be c28e 9dbd
000001a0: de47 c3bf e64d 223f 68f4 cb3d a6e2 8fbf
000001b0: be8e 61bf b6aa 4fbd 6a64 60bd 4515 48be
000001c0: 206b 263f 7fe9 fcbe 1536 79bf 9a95 b8be
000001d0: 5371 6abf 98d8 1f3f 744f d03e 4f86 00bf
000001e0: 569c 393f 277e 753f 160d 71be 2b34 2b3e
000001f0: 231f fbbe bf52 d9bf 3099 fd3e 1b7a 14bf
00000200: f4d5 633e 5d1c 1cbe 29aa 623e 8c4b be3e
00000210: 4232 9e3e d780 43bf 025c dc3e 5aa3 04bc
00000220: 784d ddbd b92f ea3d 92a9 573e 863f 02be
00000230: d882 ffbd d66e 89bf df3e d83e 349f e7be
00000240: 83cf 32bf db2d a6bd d435 a63c 206e 553e
00000250: 220f 41be 9344 b43e 58b4 193d eb33 5f3e
00000260: c8a9 5a3d 7de2 93be 73d3 bfbe d07a e13e
00000270: a219 913d e572 0b3e cee8 72bf b6ce 16be
00000280: 23c7 993e 81f0 173e 613b 973e ce07 c53e
00000290: c4ed e43e 1d57 fabe 38c0 0e3e 1a8f 9a3e
000002a0: 22f3 c23d cc69 213e 49f2 4d3d d203 d4bd
000002b0: 1607 29be 107a 88bf 9260 ae3e 3791 0ebf
000002c0: 3594 8fbe c7fd 97be 698b 063c 85ce 1c3e
000002d0: 4ac4 3bbe 2082 933e 3303 283d 7e5f 873e
000002e0: 3e84 24be 3c13 7abe 9edd 893c 39c0 1a3f
000002f0: b45b c0bd f3e9 233e 6e49 bfbe d5d8 1abf
00000300: 1d0b ab3d a5cf 993e ab5b 53be 0df9 a9be
00000310: a390 e0bd d853 8a3d 7dff 633d 36f8 873b
00000320: 19e5 57bf 3b24 013f 9bc9 aebd 1ce1 9a3e
00000330: 1692 67be cbf9 a13e fdfd 413d 8e69 abbf
00000340: bc68 cc3e 6916 0c3f f006 a5be 3fe2 0abe
00000350: 91b6 a4be 85b6 423f 6bad 5c3e a613 0e3f
00000360: 973b bebf 295d a33e 2bea 093d f7a2 f83e
00000370: a4f2 13be 6e33 9ebf 7248 613e d204 223f
00000380: 39c5 de3d c742 30be 808c 51be 8339 a63e
00000390: 6dd6 21bf 54c1 493f 2cc4 c53c f813 19bf
000003a0: 733c 233d 00e9 d83e 9d66 b03d 584d 72bf
000003b0: 5e5c 2fbe b9a0 3b3f 7070 2b3d 13b1 11bf
000003c0: 189d 243f 0a36 c2bd 98e1 95bf 60b3 a93e
000003d0: 218a abbe 1f77 233b 2047 8dbd 7ac9 3b3e
000003e0: 5069 1a3f 98d1 0a3f 967d 29bf 9088 43bd
000003f0: ae3e fc3c e0c3 73be 882e fdbe 7a96 afbe
0.009324005 0.024106108 0.12362229 0.3205857 0.2816707 -0.23919524 0.19993788 0.13196455
-0.06228706 0.025117692 0.22554775 -0.16517971 0.08707437 -0.83290994 0.09753037 -0.20735626
-0.6984316 -0.45901564 0.17924719 0.09274751 -0.20357764 0.34177837 0.0938856 -0.053380113
-0.48143744 -0.5566483 -0.42256492 0.33116648 0.25712347 0.20280035 -0.15326159 -0.28977287
0.12672809 0.0968982 0.07068814 0.18553428 -0.10124409 -0.0185644 0.24062474 -0.04219609
0.1478345 0.44242495 0.2676733 -0.5104656 0.09504344 -0.5432506 0.28465202 -0.7595695
-0.5366419 -2.1009946 -0.34568822 0.11621025 -0.4424641 0.3670364 -0.39615464 0.73668486
0.05781949 -0.49103448 -0.026820341 0.11414265 0.22365922 0.3246377 0.25800774 0.12451669
-0.16397622 0.27570784 -0.32819968 0.5321488 -0.18354431 -1.3821871 0.04805794 -0.53819215
-0.38039765 -1.4148349 -0.9391387 -0.11166449 0.99041414 -0.69014174 0.33601344 -0.2205035
0.228741 1.8332341 0.47455803 -0.3860247 0.16229138 -1.0490545 0.1323804 -0.0144430585
-0.515327 0.75473547 -0.2722109 0.7010626 -0.790837 0.7997394 0.6244637 -0.78406274
0.18084316 -0.005019166 0.36356962 -0.2288366 -0.05490539 0.8997342 -0.12915632 -0.076932445
-1.5256307 0.63400114 0.09958726 -1.1241043 -0.8810843 -0.050699912 -0.054783262 -0.19539364
0.6500721 -0.49396893 -0.9734815 -0.36051637 -0.9157917 0.6243987 0.40685618 -0.5020494
0.72504175 0.9589562 -0.23540148 0.16719119 -0.49047193 -1.6978377 0.49530935 -0.5799882
0.22249585 -0.15245195 0.22135223 0.37167013 0.3089772 -0.7636847 0.43038946 -0.008095587
-0.108057916 0.114348836 0.2106078 -0.12719545 -0.12476128 -1.073695 0.42235467 -0.4523865
-0.6984789 -0.08114215 0.02028934 0.2084279 -0.18853429 0.35208568 0.037525505 0.21797149
0.053384572 -0.28883734 -0.3746601 0.4403901 0.07084967 0.13618048 -0.9488648 -0.14727291
0.30034742 0.14837839 0.2953749 0.38482517 0.4471265 -0.48894587 0.13940513 0.30187303
0.0951903 0.15763015 0.05027989 -0.10352291 -0.1650661 -1.066225 0.34058052 -0.5569033
-0.2804276 -0.29685804 0.008211949 0.15313156 -0.18336597 0.28810215 0.041018676 0.26440042
-0.16066071 -0.244214 0.016829308 0.6044956 -0.09392491 0.16007213 -0.3736071 -0.6048711
0.08351729 0.30041233 -0.20640437 -0.33197823 -0.10965087 0.06754273 0.055663574 0.004149462
-0.8433395 0.5044591 -0.08534547 0.3024987 -0.22614321 0.3163589 0.047361363 -1.3391588
0.39923656 0.54721695 -0.32231855 -0.13562869 -0.32170537 0.7605975 0.21550529 0.5549873
-1.4861935 0.31907013 0.033670586 0.48561832 -0.14448029 -1.2359445 0.22000292 0.63288605
0.10877461 -0.17212974 -0.20463753 0.32465753 -0.6321781 0.7881062 0.024141394 -0.59796095
0.03985257 0.42365265 0.08613322 -0.9464927 -0.17125079 0.7329212 0.041855276 -0.5691082
0.64302206 -0.094829634 -1.1709471 0.33144665 -0.33503821 0.0024942828 -0.06898332 0.18338576
0.60316944 0.54226065 -0.66207254 -0.047737658 0.030791607 -0.23805189 -0.49449563 -0.34294492

fc2.bias f4 [32]
00000000: ad62 903f 9cc8 a53f 845e c53e 0add 1b3f
00000010: a1d3 c73f 9d62 983f 00b3 773f 5ae1 6e3d
00000020: 4771 84bd 74c1 823f b96e bbbe b79b a43f
00000030: 1203 8f3f c2e0 893e 9032 a73f d4e1 5d3f
00000040: 94f6 eabd 5e7d 3cbe 8c8b 8fbe 2760 52ba
00000050: de63 7b3f 8a90 803f ee7e 873f 9032 ad3e
00000060: fb21 a03f b1f4 883f b724 f5be 9148 113e
00000070: a82a a43f 0ac4 78bc bd0b 7d3f 7ff8 bc3f
1.1280113 1.2951846 0.38548672 0.60884154 1.5611459 1.1905094 0.9675751 0.05832038
-0.064669184 1.0215287 -0.36607912 1.286002 1.1172812 0.2692929 1.3062305 0.8667271
-0.11472812 -0.18407199 -0.28036153 -0.0008025192 0.9819926 1.004411 1.0585611 0.3382764
1.251037 1.0699674 -0.47879574 0.14187838 1.2825518 -0.015183458 0.98846036 1.4763335

fc3.weight f4 [3, 32]
00000000: f08c 1abe 7b48 f2be b90d b4bf d7b2 8bbf
00000010: 0254 f4be 1f8b cebe 6dce 11bf 991e 0fbf
00000020: 1efa aa3f 04d3 c4bd d1a2 0f3f fb53 abbe
00000030: 4484 b5be e0d8 dbbf a5c6 0cbf bb68 59bf
00000040: 1fa1 b33d 5c09 0ac0 55fc 88bd 2e2d c73f
00000050: 036c 32be bfd7 d6be d2e1 aebe a69d 78bf
00000060: 6bdc 1abe d77e 04bf ca28 c23f bdf1 e63f
00000070: d63e 50bf d231 2340 2981 05bf a58f efbe
00000080: fe40 afbe 52c0 56be 2253 8e3e ac07 5cbf
00000090: 8b2d 09bf 43e4 debd 5d0e 15bf 3f20 80bf
000000a0: d6c5 b83f d6b6 0bbe b4f1 673e 8dd8 eebe
000000b0: 185b 99be 2313 a93e 3c39 adbe eb89 04bf
000000c0: bf66 00bd 1dcc fd3f b69a 943c 5645 26bf
000000d0: e004 b3be f881 0cbf 4b6d c5be e918 5dbf
000000e0: 79be 1dbf 6098 48bf b7ab d83f 176c c3bf
000000f0: dc91 63bf 033f 3040 d9fc cbbe 2f3a d3be
00000100: 0d20 a8be c143 14bf 16bd 9dbe 4195 4dbf
00000110: 32b5 d9be 7c4b cdbe ee9c 16bf 4fcc 95bf
00000120: c0c0 a23f 765d e3be 42ee 8cbf 2894 07bf
00000130: 3887 8bbe 084c 1e40 9bd0 9ebe bbbb d2be
00000140: 33ef d63d 461e 0940 caea 143e dcc3 123e
00000150: 3046 5bbe 5334 ebbe 6b15 41be e0cb 2fbf
00000160: 19d6 87be 6652 2dbf 965b b23e a307 2cbf
00000170: 24e6 35bf 2c74 c73f ac6d 2bbe a97f c6be
-0.15092826 -0.47320923 -1.4066688 -1.0913953 -0.47720343 -0.40340516 -0.56955606 -0.55906063
1.335758 -0.096105605 0.56107813 -0.3346251 -0.35452473 -1.717556 -0.5499061 -0.8492543
0.08770966 -2.1568213 -0.066887535 1.5560663 -0.17424016 -0.41961476 -0.34156662 -0.9711555
-0.15123145 -0.5175604 1.5168698 1.8042523 -0.8134588 2.5499158 -0.5215021 -0.4678928
-0.34229273 -0.20971802 0.277978 -0.85949206 -0.5358512 -0.10883381 -0.5822504 -1.0009841
1.4435375 -0.13643965 0.22650796 -0.4664959 -0.29952312 0.33022413 -0.3383273 -0.51772946
-0.031347986 1.9827915 0.018140178 -0.6494955 -0.34964657 -0.54885817 -0.38559946 -0.86366135
-0.61618763 -0.78357506 1.6927403 -1.5267361 -0.8889444 2.753846 -0.39841345 -0.41255328
-0.32836953 -0.57915884 -0.30808324 -0.8030587 -0.42521054 -0.40096653 -0.58833206 -1.1702975
1.2715073 -0.44407243 -1.101021 -0.52960443 -0.272516 2.4733906 -0.31018528 -0.41158852
0.104948424 2.1424727 0.1454269 0.14332527 -0.21413493 -0.45938358 -0.18855827 -0.68670464
-0.2653053 -0.67703855 0.348355 -0.6719915 -0.7105429 1.5582328 -0.16741055 -0.38769272

fc3.bias f4 [3]
00000000: 414c 75bf 5fa2 53bf 643e 7fbf
-0.9581948 -0.82669634 -0.99704576
