saves/01022021164201_acrobot_dqn.pt (torch, 27479 bytes, 8 tensors)

lstm.weight_ih_l0 f4 [128, 6]
0	0x3d8adc36	0.06780283
1	0xbf4369c3	-0.76333255
2	0x3efac1d2	0.48975998
3	0xbd312243	-0.043245565
4	0x3e763733	0.24044494
5	0x3d6171e4	0.055040255
6	0x3e805f96	0.25072926
7	0xbdce286b	-0.10066303
8	0x3e685943	0.226903
9	0x3e9d8ddd	0.30772296
10	0xbda72fed	-0.08163438
11	0x3d8f0d7e	0.06984995
12	0xbc7bf86e	-0.0153790545
13	0xbf5a6138	-0.85304594
14	0x3f1a32e3	0.60233897
15	0xbd185263	-0.037187945
16	0x3df3f676	0.11912243
17	0xbe329471	-0.17439438
18	0xbd009d8d	-0.031400252
19	0xbf5a52ec	-0.8528278
20	0x3dfe449e	0.124154314
21	0xbf200a91	-0.62516123
22	0x3e40f180	0.18842125
23	0x3cc93b20	0.024564326
24	0x3f4030ce	0.7507447
25	0x3f48afcc	0.78393245
26	0xbea70815	-0.32623354
27	0x3eda5faa	0.4265111
28	0xbdcfabb1	-0.101401694
29	0x3d9b2c45	0.07576803
30	0x3df85639	0.12125821
31	0xbf680851	-0.9063769
32	0x3ec91afe	0.39278406
33	0xbeab6b0d	-0.3348011
34	0x3e6963a6	0.22791919
35	0x3d23db3d	0.040004004
36	0x3e4cd59f	0.20003365
37	0xbf2faa44	-0.6861918
38	0x3edaab36	0.4270875
39	0xbc5d4f54	-0.013507683
40	0xbd7275df	-0.059194442
41	0xbe4150e2	-0.1887851
42	0x3f62e0ce	0.88624275
43	0x3f1b2f80	0.60619354
44	0xbeca09db	-0.39460644
45	0x3e31f0a9	0.17376961
46	0xbdb5568b	-0.088543974
47	0xbe3c4817	-0.18386875
48	0xbe39f76e	-0.18160793
49	0xbf848976	-1.035445
50	0x3f4403fa	0.7656857
51	0xbd19cbc1	-0.03754783
52	0x3e58821c	0.21143383
53	0x3c8e213c	0.017349832
54	0xbf04f0a5	-0.51929694
55	0x3fcd2c7f	1.6029204
56	0x3f2da478	0.67829084
57	0xbf54a671	-0.8306647
58	0x3e342d8c	0.175955
59	0x3db43f69	0.08801157
60	0x3f1a308f	0.60230345
61	0xbca7de42	-0.020491723
62	0xbdcca9d0	-0.09993327
63	0xbe37afe8	-0.17938197
64	0x3d6686c3	0.056280863
65	0xbe2e1191	-0.16998889
66	0x3f276798	0.65392447
67	0x3cf41709	0.02979614
68	0x3daf4051	0.08557189
69	0x3e95ca58	0.2925594
70	0x3e839581	0.257
71	0xbe062637	-0.13100515
72	0x3f21f8e9	0.6327043
73	0x3e36e868	0.17862093
74	0xbda41b5c	-0.08013031
75	0x3ccb7bb5	0.024839262
76	0xbd2f01a3	-0.04272617
77	0xbe5f4517	-0.218037
78	0x3f38599d	0.7201174
79	0x3e6cf3fb	0.23139946
80	0x3db44b93	0.08803477
81	0x3e84e19d	0.2595338
82	0x3e4b2ef3	0.19842128
83	0xbe33d5d4	-0.17562038
84	0xbb0f3e9a	-0.0021857382
85	0xbed8d8fe	-0.42353052
86	0x3e5b045f	0.21388386
87	0x3bfd0769	0.0077218306
88	0x3df766b4	0.12080136
89	0xbe31ec1b	-0.17375223
90	0x3f056946	0.5211376
91	0x3dc7e835	0.09761087
92	0xbd330da8	-0.043714195
93	0xbcfda7b8	-0.030963764
94	0xbdd803f9	-0.10547633
95	0xbd187147	-0.037217405
96	0x3f492928	0.78578424
97	0x3f48212b	0.7817561
98	0xbea24d24	-0.3169948
99	0x3e9ede4d	0.31028977
100	0x3deabab9	0.11461396
101	0xbd5fe115	-0.054658014
102	0x3f0d77b6	0.5526079
103	0x3e8e0319	0.27736738
104	0xbd902f1e	-0.07040237
105	0x3df2c92f	0.11854779
106	0xbca9f853	-0.020748293
107	0xbda74970	-0.08168304
108	0x3f12337e	0.5710982
109	0xbebdff68	-0.37108922
110	0x3e116ec9	0.14202417
111	0xbe9742fc	-0.29543293
112	0x3dbc7df2	0.0920371
113	0xbe8087d4	-0.2510363
114	0x3f76ab40	0.96355057
115	0x3f6618b4	0.89881444
116	0xbf4bdae2	-0.79630864
117	0x3df47c90	0.11937821
118	0xbda9b7fa	-0.08287044
119	0x3b10ba3d	0.0022083663
120	0x3f462e33	0.77414244
121	0x3f3a093c	0.7267034
122	0xbead5a36	-0.33857888
123	0x3ed0ff40	0.4081974
124	0x3e6b9a6f	0.2300813
125	0xbdf5b502	-0.11997415
126	0x3edbe60e	0.42948955
127	0x3e8fbb90	0.28072786
128	0xbddbf9d7	-0.107410125
129	0x3dc433d1	0.09580196
130	0x3d0a95f0	0.033834398
131	0xbcc58752	-0.024112377
132	0xbd5e4217	-0.054262247
133	0xbe6a8cbc	-0.22905248
134	0x3e9624d4	0.29324973
135	0x3e71a151	0.23596694
136	0x3db36b7f	0.08760738
137	0x3da4bb17	0.08043497
138	0xbd12ffa8	-0.035888344
139	0xbe9eaa9e	-0.30989546
140	0xbea0623f	-0.31324956
141	0x3fbaff8a	1.4609234
142	0xbdaaab5c	-0.083334655
143	0xbb8d92b1	-0.0043204655
144	0x3f00bbaf	0.5028638
145	0xbe9a955e	-0.30192083
146	0x3d2a5ca3	0.04159225
147	0xbded20cc	-0.11578521
148	0xbd91783a	-0.071030095
149	0xbc4cb55c	-0.012494411
150	0xbfaa3108	-1.3296213
151	0x3fa5e32b	1.2959951
152	0x3e1dd7fa	0.1541442
153	0xbe50693e	-0.20352647
154	0xbdcee863	-0.10102918
155	0xbe25a3a3	-0.16175704
156	0xbdd0cbea	-0.101951435
157	0xbf71d923	-0.9447195
158	0x3f1cd781	0.6126633
159	0xbe23115a	-0.15924588
160	0x39b361f8	0.00034214533
161	0xbcb3efd1	-0.02196494
162	0x3e66f2b4	0.22553521
163	0xbfc9fe1d	-1.5780674
164	0x3f0c01f3	0.54690474
165	0x3ef57f1c	0.4794854
166	0x3de81503	0.11332133
167	0xbe349e18	-0.17638433
168	0x3f19c6b7	0.6006884
169	0xbeffc045	-0.49951378
170	0xbe1b06b6	-0.15139279
171	0xbf36a02c	-0.7133815
172	0x3e21522e	0.15754005
173	0xbdc72376	-0.097235605
174	0x3ec19f6a	0.37816936
175	0xbe99fb81	-0.30074695
176	0xbdec073f	-0.115248196
177	0xbec7d3ee	-0.39028877
178	0x3dd67677	0.10471814
179	0xbc1f4e8c	-0.009723317
180	0x3f43cc9e	0.76484096
181	0xbe71aa26	-0.23600063
182	0x3d768081	0.060181145
183	0xbdeefc53	-0.11669221
184	0x3e37d845	0.17953594
185	0xbc030d72	-0.007998811
186	0x3ed8a842	0.4231587
187	0xbdb30ed0	-0.0874306
188	0x3d6460b3	0.055756282
189	0xbc9d6215	-0.019211808
190	0x3e1508f4	0.14554197
191	0x3d343d68	0.044003874
192	0xbd72d4ea	-0.059285082
193	0x3e0e6a4d	0.13907738
194	0xbcb39630	-0.0219222
195	0x3de892e2	0.11356141
196	0x3e20f721	0.15719272
197	0x3d40c550	0.047063172
198	0x3de37a66	0.1110733
199	0xbc5c22a0	-0.01343599
200	0xbe0628cc	-0.131015
201	0x3e093c31	0.13401867
202	0xbe044c2d	-0.12919684
203	0x3d48ac9c	0.048992738
204	0xbd6ba160	-0.057526946
205	0xbe15cbed	-0.14628573
206	0x3e21c9bf	0.15799616
207	0xbe2f6150	-0.17126966
208	0x3e2fe8cb	0.17178647
209	0xbcda90b0	-0.02668032
210	0xbb37d700	-0.0028051734
211	0x3ca58670	0.020205706
212	0xbc9af600	-0.01891613
213	0xbd164f44	-0.036696687
214	0xbe2deb1e	-0.16984221
215	0xbd0a9b08	-0.033839256
216	0x3e0f288d	0.13980313
217	0x3e0eb9cb	0.13938062
218	0xbb860060	-0.0040894
219	0xbe2b0350	-0.16700482
220	0xbd36d990	-0.044641078
221	0xbe224edc	-0.15850395
222	0x3e2a2ef3	0.16619472
223	0xbdc433f3	-0.09580221
224	0x3e0582ad	0.1303813
225	0x3d494e84	0.049147144
226	0xbbc36de0	-0.005964026
227	0xbe1d28f0	-0.15347648
228	0x3d3850fc	0.044999108
229	0x3e124569	0.1428429
230	0x3ab76600	0.001399219
231	0xbde40a81	-0.11134816
232	0xbd946643	-0.072460674
233	0xbe176e43	-0.14788155
234	0xbe1e5aaa	-0.15464273
235	0xbdf2fa6d	-0.11864171
236	0x3dbf745a	0.09348364
237	0x3e27e277	0.16394983
238	0x3d7fb0b4	0.062424377
239	0xbdf4a5d1	-0.119456895
240	0xbdccf0af	-0.10006844
241	0x3e1c8ce3	0.15288119
242	0x3df626b6	0.12019102
243	0xbdd3e7cc	-0.10346946
244	0xbd5b91f4	-0.05360599
245	0xbe274b48	-0.16337311
246	0x3dcc4b42	0.09975292
247	0xbd5eda36	-0.05440732
248	0x3d7b3c54	0.06133683
249	0xbe22f3f6	-0.15913376
250	0xbcbed220	-0.023293555
251	0xbd33b574	-0.04387422
252	0xbd698176	-0.05700823
253	0x3d85bbf4	0.0652999
254	0x3e3075ad	0.1723239
255	0x3e171fc5	0.14758213

lstm.weight_hh_l0 f4 [128, 32]
0	0x3dc57e8a	0.09643276
1	0x3d7beb84	0.061503902
2	0x3cf07fa8	0.029357746
3	0x3c12e610	0.008965984
4	0xbd567e60	-0.052366614
5	0xbdf44880	-0.11927891
6	0xbdd6c52d	-0.10486827
7	0xbc8dc628	-0.017306402
8	0xbe21fa64	-0.15818173
9	0x3ca191b8	0.019722804
10	0xbe07ebe4	-0.13273579
11	0x3e08e423	0.13368277
12	0xbc17b1c0	-0.0092586875
13	0xbdecd5ad	-0.11564193
14	0xbd8610f4	-0.06546202
15	0xba9f3700	-0.0012147129
16	0x3dc313ee	0.09525286
17	0x3e19ae75	0.15007956
18	0xbe30d7ca	-0.17269817
19	0xbdd0dd04	-0.101984054
20	0xbb1cd380	-0.0023929775
21	0x3dadb5c6	0.08481936
22	0xbcc17fa0	-0.023620427
23	0xbe2fc156	-0.17163596
24	0x3cf21f58	0.029555961
25	0xbe0d3264	-0.13788754
26	0x3d044924	0.032296315
27	0x3e0fe9bf	0.14054011
28	0x3e0d1139	0.13776101
29	0xbe0df9e4	-0.13864857
30	0x3de3d77a	0.11125083
31	0xbd6f1f02	-0.05837918
32	0xbe06ad60	-0.13152075
33	0x3cf39380	0.02973342
34	0xbdc6fd38	-0.097162664
35	0x3da92aba	0.082601026
36	0x3dca481e	0.098770365
37	0x3df1481e	0.117813334
38	0x3e285ea3	0.16442351
39	0xbe00fb47	-0.12595855
40	0xbc17fc20	-0.00927642
41	0xbdce01fa	-0.10058971
42	0xbdfe7e77	-0.12426465
43	0x3e14044b	0.14454763
44	0x3d841126	0.06448583
45	0xbcb12bd0	-0.021627337
46	0xbd164834	-0.036689952
47	0x3da9b1d2	0.0828587
48	0x3d6882e0	0.056765437
49	0x3db1a0aa	0.08673222
50	0xbd65b180	-0.05607748
51	0xbe04d6a2	-0.12972501
52	0x3e245657	0.16048561
53	0x3d11c1c4	0.03558518
54	0xbd0eea24	-0.034891263
55	0xbc918940	-0.017765641
56	0x3e05c78b	0.13064401
57	0xbd916f2c	-0.071012825
58	0xbc8318a8	-0.016002968
59	0xbde5996c	-0.112109035
60	0x3d57cff4	0.052688554
61	0x3dfecf4e	0.12441884
62	0x3d5120d4	0.051056698
63	0xbdf88172	-0.12134065
64	0xbdefd404	-0.11710361
65	0xbdc604d9	-0.09668893
66	0x3e32264f	0.17397426
67	0xbdc9b36c	-0.09848675
68	0xbe006db7	-0.12541853
69	0xbe09cc83	-0.13456921
70	0xbb8e5bc0	-0.0043444335
71	0xbb787540	-0.0037911683
72	0x3e09ee05	0.13469703
73	0x3e26a20f	0.16272758
74	0x3e01b6d9	0.12667407
75	0x3c049bb0	0.008093759
76	0xbd8c8bbf	-0.06862592
77	0xbe0bc11b	-0.13647883
78	0xbddc4be8	-0.107566655
79	0x3dfe7d6e	0.124262676
80	0x3d5b31f0	0.05351442
81	0xbdf0d60b	-0.117595755
82	0xbd866845	-0.065628566
83	0x3dee013a	0.11621328
84	0xbe18bdb2	-0.14916113
85	0x3d2e3d7c	0.042539105
86	0x3dfdc5a6	0.12391214
87	0x3d5eb9a0	0.054376245
88	0x3d8f1d0c	0.06987962
89	0x3e182a6d	0.14859934
90	0x3d7bca7c	0.0614724
91	0x3d8cfcc8	0.06884152
92	0x3dcddb2e	0.10051571
93	0xbdab0ce1	-0.08352066
94	0x3e1a1f6f	0.15051053
95	0x3d30e488	0.043186694
96	0x3e0a9eeb	0.13537185
97	0xbbadc440	-0.005302936
98	0x3d5df41c	0.05418788
99	0xbd81fd0d	-0.06347094
100	0xbd72e1d2	-0.05929739
101	0x3e20850f	0.15675758
102	0xbe25e150	-0.16199231
103	0x3df570f6	0.11984436
104	0xbe07c388	-0.13258183
105	0x3d828b1a	0.06374188
106	0x3e17866b	0.1479737
107	0x3e2206fd	0.15822978
108	0x3d68a6d4	0.056799725
109	0xbe1e72c2	-0.15473464
110	0xbd87ae77	-0.066250734
111	0x3dfc3d9a	0.12316437
112	0x3e32beed	0.17455645
113	0xbdecb90a	-0.11558731
114	0x3e24a2f5	0.16077788
115	0xbe02b066	-0.12762603
116	0x3cb40130	0.021973222
117	0x3d89521a	0.06705113
118	0xbd6a30cc	-0.057175443
119	0x3cd1ff08	0.025634304
120	0xbd0d45a4	-0.034490243
121	0x3cffeb90	0.031240255
122	0x3d75fbf8	0.06005475
123	0xbdb58b6f	-0.088644855
124	0xbdcd9cc3	-0.100396655
125	0xbdbfdcd7	-0.09368294
126	0x3cfc6e00	0.03081417
127	0x3e294065	0.16528471
128	0x3e002217	0.12513004
129	0xbdcedfab	-0.10101255
130	0xbe161b44	-0.14658839
131	0xbb302fc0	-0.002688393
132	0xbd9f9663	-0.07792356
133	0xbe23a25a	-0.15979901
134	0xbc8fafe8	-0.017539933
135	0x3e2f5481	0.1712208
136	0xbe1da435	-0.15394671
137	0x3d36b454	0.044605568
138	0xbe0e9f9e	-0.13928077
139	0x3db287be	0.08717297
140	0x3b5d3880	0.00337556
141	0xbc8f43f0	-0.01748845
142	0xbd5111e8	-0.051042467
143	0x3de62fda	0.11239596
144	0xbddd0d26	-0.107935235
145	0xbc813df0	-0.015776604
146	0xbdd87297	-0.10568731
147	0x3e0ed5d3	0.13948755
148	0xbdc981d9	-0.098392196
149	0xbc9bc950	-0.019016892
150	0x3dfa5092	0.12222399
151	0x3d964ec2	0.073392406
152	0x3de4c66e	0.1117066
153	0xbc361e70	-0.011115655
154	0x3de74e5a	0.11294241
155	0x3e1d1abf	0.15342234
156	0xbc0ac860	-0.008470625
157	0xbdbc117c	-0.091830224
158	0x3d20d9f0	0.03927034
159	0x3be69ee0	0.0070379823
160	0x3ba312c0	0.0049766004
161	0x3d3f563c	0.0467131
162	0x3df69ca2	0.12041594
163	0xbe207023	-0.15667777
164	0x3e20a1bf	0.15686701
165	0x3d83d57c	0.06437203
166	0x3dae915e	0.0852382
167	0xbddb57c2	-0.10710098
168	0x3e0d0da1	0.1377473
169	0x3e29a085	0.1656514
170	0x3c3dd7b0	0.011587068
171	0x3dce768a	0.10081203
172	0x3d9b07aa	0.07569821
173	0xbd875786	-0.06608491
174	0xbe305bbb	-0.17222492
175	0x3da9985a	0.08281012
176	0xbda90e73	-0.08254709
177	0x3cde0090	0.027099878
178	0xbd808a5d	-0.06276391
179	0x3dd08ed2	0.10183491
180	0x3dcad68a	0.09904201
181	0x3e1945e3	0.14968066
182	0x3a476600	0.0007606447
183	0xbe20b79c	-0.15695041
184	0x3c791d50	0.015204743
185	0xbd0c9040	-0.034317255
186	0x3d8a4efa	0.06753345
187	0x3cadab20	0.021199763
188	0x3de4627e	0.111515984
189	0x3e348d57	0.17632042
190	0xbd136b58	-0.035991043
191	0xbe08f85d	-0.13375993
192	0xbd159c8c	-0.036526248
193	0x3e27531b	0.16340296
194	0xbda6761c	-0.08127996
195	0xbdc97590	-0.098368764
196	0x3d0d3484	0.03447391
197	0x3d9106d6	0.07081382
198	0x3e01e7d1	0.12686087
199	0xbd8f004a	-0.06982477
200	0x3da4fca6	0.08056001
201	0xbd2dd784	-0.04244186
202	0x3e1b6395	0.15174706
203	0x3c181830	0.0092831105
204	0xbe33ac32	-0.17546156
205	0xbe242277	-0.16028772
206	0x3d79cbc0	0.060985327
207	0x3c905db8	0.017622814
208	0x3d62c1a0	0.055360436
209	0xbe2bdc52	-0.16783264
210	0x3debfefe	0.11523245
211	0x3da16ad6	0.078817055
212	0x3d05a558	0.032628387
213	0x3c800808	0.01562883
214	0xbdacfb56	-0.08446376
215	0x3dca9f5a	0.09893675
216	0xbe1a445e	-0.15065143
217	0xbe0049c6	-0.12528142
218	0xbe12d162	-0.14337686
219	0x3e310e9f	0.17290734
220	0x3e2c0a7b	0.16800873
221	0xbde379b6	-0.11107199
222	0xbdd94187	-0.106082015
223	0x3e2e3fef	0.17016576
224	0x3d85db34	0.0653595
225	0xbdde9187	-0.10867601
226	0xbe0de6af	-0.1385753
227	0xbe13a077	-0.14416681
228	0xbe13e3ed	-0.14442416
229	0x3e25730d	0.1615717
230	0x3d3ec800	0.046577454
231	0x3debe946	0.11519103
232	0xbd1b0eb8	-0.037855834
233	0xbc1a4850	-0.009416655
234	0x3e0950e5	0.13409765
235	0x3e2aa5d1	0.16664816
236	0x3e06f63b	0.13179867
237	0xbe21bcf9	-0.15794744
238	0x3c107060	0.008815855
239	0x3e258ac3	0.16166215
240	0xbd273094	-0.040817812
241	0xbdb85c87	-0.09002023
242	0xbd63d4c6	-0.05562284
243	0xbe046ec6	-0.12932882
244	0x3d7f39dc	0.06231104
245	0xbd953632	-0.072857276
246	0xbcdfbd60	-0.02731198
247	0x3e3014f9	0.171955
248	0x3e2269f5	0.15860732
249	0x3d9ef2de	0.07761167
250	0xbe2a6425	-0.16639765
251	0x3df4e6a6	0.11958055
252	0xbdd25946	-0.10270934
253	0x3dea05ba	0.114268735
254	0x3e299485	0.16560562
255	0xbd2c6b60	-0.04209459

lstm.bias_ih_l0 f4 [128]
0	0x3f89bec4	1.0761342
1	0x3fae8588	1.36345
2	0x3fb2ba37	1.3963078
3	0x3f3acc69	0.72968155
4	0x3f878206	1.0586555
5	0x3f2c83b4	0.67388463
6	0x3f99b383	1.2007908
7	0x3f7de06a	0.99170554
8	0x3f78cd58	0.9718833
9	0xbd52a91c	-0.051430807
10	0x3f906cdd	1.1283222
11	0x3fc17907	1.511506
12	0x3f81b3f9	1.0133048
13	0x3f861c8b	1.0477461
14	0x3f8d0778	1.1017904
15	0x3f8db27b	1.1070093
16	0x3f80408d	1.0019699
17	0x3f6cbb3d	0.924732
18	0x3f96bd9d	1.1776615
19	0x3f860e81	1.0473176
20	0x3f97a772	1.1847975
21	0x3f6e24fa	0.9302517
22	0x3f83bb7e	1.0291593
23	0x3d0b3dc8	0.033994466
24	0x3f8800d6	1.0625255
25	0xbece8fc8	-0.4034407
26	0x3f88559a	1.0651124
27	0x3f0dd48a	0.55402434
28	0x3fa00eb8	1.2504492
29	0x3fa4776b	1.2848943
30	0x3fa8b18c	1.3179183
31	0x3f9dd3f8	1.2330313
32	0xbe2d77f8	-0.16940296
33	0xbde369d6	-0.11104171
34	0xbe27f913	-0.16403608
35	0x3e18b9f1	0.14914681
36	0xbe269846	-0.16269025
37	0xbe2a8be3	-0.16654925
38	0x3e2455ab	0.16048305
39	0xbcde0ca8	-0.027105644
40	0x3d619968	0.05507794
41	0xbc18e1d0	-0.009331182
42	0xbd4b495c	-0.049630508
43	0x3c8e0ab0	0.01733908
44	0xbcf790a0	-0.03022033
45	0xbe030f5c	-0.12798828
46	0x3d871832	0.06596412
47	0x3bcbcb00	0.006219268
48	0x3da1a666	0.07893066
49	0x3e131b85	0.14365967
50	0xbbec1160	-0.0072042197
51	0x3dd8b7de	0.10581945
52	0xbd236ea0	-0.039900422
53	0xbcb64c08	-0.022253051
54	0xbd76b984	-0.060235515
55	0x3cb67f08	0.02227737
56	0x3dfa9192	0.122347966
57	0x3d752298	0.059847444
58	0x3d73dd0c	0.05953698
59	0x3de5ad56	0.11214702
60	0xbc564570	-0.013078079
61	0x3caeef68	0.021354392
62	0xbdc73ac0	-0.097280025
63	0xbe20d6b9	-0.1570691
64	0xbf66bb28	-0.9012933
65	0x3f53d96a	0.8275362
66	0xbf418ecd	-0.7560852
67	0x3f3943ff	0.7236938
68	0x3f9d5da6	1.2294204
69	0x3f3d3fc5	0.7392543
70	0xbfa46253	-1.2842506
71	0x3f9cf43d	1.2262036
72	0x3f9ebe3b	1.2401804
73	0x3e7856c4	0.24251848
74	0xbf8751dc	-1.0571856
75	0xbf3bf9aa	-0.7342783
76	0xbf5baf0c	-0.85813975
77	0xbf47f806	-0.7811283
78	0xbf4bcf6b	-0.7961337
79	0xbf5b3128	-0.8562188
80	0x3f51fe49	0.82028633
81	0x3f52110b	0.82057256
82	0x3f59a5fb	0.8501889
83	0x3f7af49d	0.980295
84	0x3fc894b0	1.5670376
85	0x3f672477	0.90290016
86	0x3f8d6873	1.10475
87	0x3f7a363e	0.97739017
88	0xbf80f37a	-1.0074303
89	0xbf1768a5	-0.5914405
90	0x3f41669f	0.7554721
91	0xbf44f92b	-0.769427
92	0xbf276124	-0.653826
93	0xbfacc12b	-1.349645
94	0xbf75bab6	-0.95988023
95	0xbf83d1cb	-1.0298399
96	0x3f861c04	1.04773
97	0x3f907bf4	1.1287827
98	0x3fa53b0d	1.2908646
99	0x3f76297c	0.9615705
100	0x3f725583	0.9466173
101	0x3f166256	0.587438
102	0x3f58d3ab	0.8469798
103	0x3f4f9668	0.81088877
104	0x3f6d61ea	0.9272753
105	0xbeb1b03f	-0.34704778
106	0x3f5cc79a	0.8624207
107	0x3fad4cc7	1.3539056
108	0x3f55dbfb	0.8353879
109	0x3f6a4c68	0.91522837
110	0x3f2d8594	0.6778195
111	0x3f4b43f7	0.7940058
112	0x3f9f761e	1.2457922
113	0x3f8b3f66	1.0878723
114	0x3fb474ce	1.4098146
115	0x3f7c6b11	0.9860087
116	0x3f6ea4d4	0.9322026
117	0x3f617c04	0.8807986
118	0x3f36bbb9	0.7138019
119	0x3ee54453	0.4477869
120	0x3f982243	1.1885456
121	0xbd9f305e	-0.07772897
122	0x3f870b51	1.0550328
123	0x3eff3efd	0.49852744
124	0x3f88a505	1.067536
125	0x3faa55b1	1.3307401
126	0x3f48b5aa	0.784022
127	0x3f8fb3df	1.1226767

lstm.bias_hh_l0 f4 [128]
0	0x3f83d0aa	1.0298054
1	0x3fb2ba80	1.3963165
2	0x3f9135be	1.1344526
3	0x3f335868	0.7005677
4	0x3f8c14ca	1.0943844
5	0x3f4a765e	0.79086864
6	0x3f807692	1.0036185
7	0x3f87b170	1.0601025
8	0x3f88edd2	1.0697577
9	0xbe182aef	-0.14860128
10	0x3fa0f587	1.2574929
11	0x3fb21e85	1.3915564
12	0x3fa15a95	1.2605768
13	0x3f8cdd9f	1.1005133
14	0x3fa28f5f	1.2700003
15	0x3f81b715	1.0133997
16	0x3f9e0835	1.2346255
17	0x3f8ca5ae	1.0988061
18	0x3fabfd63	1.3436702
19	0x3f76b53a	0.9637028
20	0x3f9dc845	1.2326742
21	0x3f74f5aa	0.95687354
22	0x3f585866	0.84509885
23	0x3e7b45b1	0.24538304
24	0x3f895450	1.0728855
25	0xbea51b50	-0.322474
26	0x3f77938e	0.96709526
27	0x3ed4e841	0.41583446
28	0x3fa86c9a	1.3158143
29	0x3f7fca43	0.99918
30	0x3faf8972	1.371382
31	0x3fb1afd1	1.388178
32	0xbe0869ba	-0.13321581
33	0x3de1535a	0.11002226
34	0x3dd0519a	0.10171814
35	0xbc81e738	-0.015857324
36	0xbe1bc466	-0.15211639
37	0x3da49ec6	0.08038096
38	0xbd9c6813	-0.07637038
39	0x3d81389e	0.06309627
40	0xbd05c818	-0.032661527
41	0x3da23b26	0.07921438
42	0x3dacf81a	0.08445759
43	0xbe173ee8	-0.1477009
44	0x3a411700	0.0007365793
45	0x3dbcaa2a	0.09212144
46	0x3d03f6dc	0.032217845
47	0x3e1f8e59	0.15581645
48	0xbdb2c75d	-0.08729432
49	0x3d9983ea	0.07495864
50	0xbb8854a0	-0.0041604787
51	0xbe0fb354	-0.14033252
52	0x3df94cae	0.121728286
53	0x3e0d4d25	0.1379896
54	0x3dbd1d8a	0.0923415
55	0x3e03471f	0.128201
56	0x3e14f3a3	0.14546065
57	0xbdfbb2a1	-0.1228993
58	0xbe1c7828	-0.15280211
59	0x3b3ddc00	0.0028970242
60	0xbbb39960	-0.00548093
61	0xbc838d08	-0.01605846
62	0x3e01facf	0.12693332
63	0xbe02d98a	-0.12778297
64	0xbf98d461	-1.1939813
65	0x3f8dc033	1.107428
66	0xbf8437fd	-1.0329586
67	0x3f3fbd55	0.7489827
68	0x3f98838d	1.1915146
69	0x3f207ee1	0.626936
70	0xbf801138	-1.0005255
71	0x3f8cd16e	1.1001413
72	0x3f8bee12	1.0932028
73	0x3e997759	0.29973868
74	0xbf8c1235	-1.0943056
75	0xbf24e5e7	-0.64413303
76	0xbf7f8d05	-0.99824554
77	0xbf6d9680	-0.9280777
78	0xbf2f5025	-0.68481666
79	0xbf53f05f	-0.8278865
80	0x3f8ced89	1.100999
81	0x3f6a23ae	0.9146069
82	0x3f6901c4	0.9101832
83	0x3f8f371a	1.1188691
84	0x3fbc7acc	1.4724975
85	0x3f817c76	1.0116107
86	0x3f6629e7	0.8990769
87	0x3f326e34	0.69699407
88	0xbf945a0e	-1.1589983
89	0xbed9a88d	-0.42511407
90	0x3f8ab295	1.0835749
91	0xbf840106	-1.0312812
92	0xbf28781d	-0.6580828
93	0xbfa3798f	-1.2771472
94	0xbf994e88	-1.1977091
95	0xbfa1a19d	-1.2627445
96	0x3f7f0660	0.996191
97	0x3f99a726	1.2004135
98	0x3f88935e	1.0669973
99	0x3f89aee7	1.0756501
100	0x3f990fc8	1.1957941
101	0x3f3219be	0.6957053
102	0x3f888c3b	1.0667795
103	0x3f8363d2	1.0264838
104	0x3f790397	0.972711
105	0xbe693178	-0.22772777
106	0x3f6e28a0	0.9303074
107	0x3fb7273e	1.4308851
108	0x3f776637	0.9664034
109	0x3f667841	0.9002724
110	0x3f2f52f3	0.68485945
111	0x3f31c37c	0.6943891
112	0x3f727753	0.94713324
113	0x3f5bb312	0.85820115
114	0x3fa7cb8e	1.3108995
115	0x3f717e3d	0.9433325
116	0x3f97df30	1.1864986
117	0x3f47c1fe	0.78030384
118	0x3f6ffe34	0.9374726
119	0x3e926b55	0.28597513
120	0x3f8a50c0	1.0805893
121	0xbe1c9c42	-0.15293983
122	0x3f5f867e	0.87314594
123	0x3edd6544	0.43241322
124	0x3fa764b9	1.3077613
125	0x3fa4a633	1.286322
126	0x3f553ac8	0.8329282
127	0x3f926cf3	1.1439499

fc1.weight f4 [32, 32]
0	0xbb234816	-0.0024914793
1	0x3e35a334	0.17738038
2	0x3f422302	0.7583467
3	0x3eb9e18c	0.3630489
4	0x3db18ab4	0.08669034
5	0xbe9e2fc7	-0.30895826
6	0x3e077197	0.13226925
7	0xbaab1310	-0.0013051946
8	0xbde3820f	-0.11108791
9	0x3deac077	0.11462491
10	0xbe162755	-0.14663441
11	0x3e5150f1	0.20441033
12	0x3ed55a88	0.41670632
13	0x3e94fc01	0.29098514
14	0xbeac6044	-0.33667195
15	0x3e8f1784	0.27947628
16	0xbf3e5479	-0.74347645
17	0xbef92caf	-0.48666903
18	0xbe9cf382	-0.30654532
19	0x3e016a66	0.12638244
20	0x39ef5bd3	0.00045654047
21	0xbd828046	-0.063721225
22	0x3d096d93	0.033551764
23	0x3dfecf94	0.12441936
24	0xbd2abe9c	-0.041685686
25	0xbe8cad41	-0.27475932
26	0xbecd1ffc	-0.40063465
27	0x3e99b194	0.30018294
28	0x3df235b8	0.11826652
29	0xbd9a60bf	-0.07537984
30	0xbe19de18	-0.15026128
31	0x3e8822a7	0.26588938
32	0xbf26cd9b	-0.6515748
33	0x3f419e9d	0.7563265
34	0xbf444038	-0.7666049
35	0x3f5b0d0b	0.85566777
36	0x3f49e585	0.78865844
37	0x3f182edb	0.59446496
38	0xbef8daec	-0.48604524
39	0x3f17aaa6	0.59244764
40	0x3eecce9d	0.46251383
41	0x3fc4b53a	1.5367806
42	0xbeec9b31	-0.46212152
43	0xbf409543	-0.75227755
44	0xbf424a3f	-0.7589454
45	0xbee6fbc7	-0.45113966
46	0xbf7e3d8e	-0.99312675
47	0xbf20f36b	-0.62871426
48	0x3f1a939b	0.6038148
49	0x3f2ca087	0.67432445
50	0x3f2a6f51	0.66576105
51	0x3f75944b	0.959294
52	0x3f0dc54f	0.55379194
53	0x3f3f4e8d	0.74729234
54	0x3f0bac4e	0.5455979
55	0x3f525776	0.82164705
56	0xbf53e4f4	-0.8277123
57	0xbfc7bcda	-1.5604508
58	0x3f11c295	0.56937534
59	0xbf20d788	-0.62828875
60	0xbf4e3c39	-0.8056064
61	0xbf4c018a	-0.7968985
62	0xbf53d44f	-0.8274583
63	0xbf16a629	-0.5884729
64	0x3e0ccd58	0.13750207
65	0xbe78c798	-0.24294889
66	0xbda01d01	-0.07818032
67	0x3c40295e	0.011728613
68	0x3e385673	0.18001728
69	0x3e482cad	0.19548292
70	0xbe256c28	-0.1615454
71	0x3e1a3345	0.1505862
72	0xbf0e7e13	-0.55661124
73	0xbea5aff7	-0.32360813
74	0xbd3c38f1	-0.04595274
75	0x3d2364bf	0.039891
76	0xbdd955e9	-0.10612089
77	0xbd8ffc47	-0.0703054
78	0xbdf37fc2	-0.11889602
79	0xbd2c4a16	-0.04206284
80	0x3debde52	0.115170136
81	0x3d18021b	0.037111383
82	0xbc80d8f5	-0.015728453
83	0x3e4f25bd	0.2022924
84	0x3d7d2847	0.06180599
85	0x3e1b9316	0.15192828
86	0x3d9d13c3	0.07669785
87	0xbec2f01d	-0.38073817
88	0x3e79559d	0.24349065
89	0x3eb79157	0.35853073
90	0x3d323563	0.043507945
91	0x3eccdbfc	0.40011585
92	0xbc87c497	-0.016573234
93	0x3d52f293	0.051500868
94	0x3ee8f098	0.45496058
95	0xbd41c3c2	-0.04730583
96	0xbd3d573b	-0.046225768
97	0xbcd3f9f5	-0.025876025
98	0xbdc879ea	-0.09788878
99	0xbd4d6a8e	-0.050150447
100	0xbd2c4363	-0.042056452
101	0x3c1a9016	0.009433767
102	0xbd9de735	-0.07710115
103	0x3ddfdd0c	0.10930833
104	0xbd82d1ac	-0.06387648
105	0xbd90cd27	-0.0707038
106	0x3e095422	0.13411
107	0x3debe4e6	0.11518268
108	0xbd711a1a	-0.058862783
109	0x3d68b4d2	0.05681307
110	0x3adec883	0.0016997013
111	0xbdfcea4a	-0.123493746
112	0xbd39d200	-0.045366287
113	0x3d587b0a	0.052851714
114	0xbe079349	-0.13239779
115	0x3d5cd455	0.053913433
116	0xbe8353a3	-0.25649747
117	0xbd8ee1b9	-0.06976647
118	0xbe06bb9c	-0.13157505
119	0xbe16b4bd	-0.14717384
120	0x3dd27792	0.102767125
121	0x3d79aede	0.060957782
122	0x3d76a5bb	0.060216647
123	0x3e4b70f2	0.19867304
124	0x3e32fd12	0.17479351
125	0x3e3de5a7	0.18544637
126	0x3df2da65	0.11858062
127	0xbe213f93	-0.15746908
128	0xbf2a09fe	-0.66421497
129	0x3f27bf27	0.6552605
130	0x3ef3a7bd	0.47588912
131	0x3c436adb	0.011927332
132	0xbe434d42	-0.1907244
133	0xbf14e1fa	-0.5815731
134	0x3e88f4fe	0.26749414
135	0xbe35368c	-0.17696589
136	0x3e65abb8	0.22428787
137	0xbf37ba67	-0.717688
138	0x3dacaa8a	0.08430965
139	0x3edc58cc	0.43036497
140	0x3e851fc4	0.26000798
141	0x3f0c1ca5	0.5473121
142	0xbed67539	-0.4188631
143	0x3f147f8b	0.58007115
144	0xbeec4493	-0.46146068
145	0xbf2b92a5	-0.67020637
146	0xbf0d363f	-0.551609
147	0xbe424f10	-0.18975472
148	0x3f2fc6b1	0.68662554
149	0xbe87d6af	-0.26530978
150	0xbdaff473	-0.08591547
151	0x3f28c2a4	0.65922
152	0xbee504f2	-0.44730335
153	0x3efd2348	0.4944098
154	0xbec0b767	-0.37639925
155	0xbf2c74ed	-0.67365915
156	0x3e6717e4	0.22567707
157	0x3d4d5a56	0.05013498
158	0xbe8cd9fe	-0.27510065
159	0x3e37266a	0.17885748
160	0xbf385d47	-0.7201733
161	0x3f645252	0.8918811
162	0xbf3e06bc	-0.74229026
163	0x3f3bb390	0.73320866
164	0x3f566b7a	0.83757746
165	0x3f2df51f	0.6795215
166	0xbf525746	-0.8216442
167	0x3f58b13f	0.84645456
168	0x3f521b80	0.8207321
169	0x3fac2868	1.3449831
170	0xbf339ea3	-0.70163935
171	0xbf50ac15	-0.81512576
172	0xbf282d3e	-0.65694034
173	0xbf3c7618	-0.73617697
174	0xbf709116	-0.93971384
175	0xbf29f1c1	-0.6638451
176	0x3f47e270	0.7807989
177	0x3f22be79	0.6357189
178	0x3f30c3e3	0.690489
179	0x3f3309ec	0.69937015
180	0x3f3726e2	0.71543705
181	0x3f4df400	0.8045044
182	0x3f4e7feb	0.8066394
183	0x3f77a5ca	0.9673735
184	0xbf403b7a	-0.75090754
185	0xbfc90f32	-1.5707762
186	0x3f3acd9b	0.7296998
187	0xbf198035	-0.59961253
188	0xbf7dcb7b	-0.9913861
189	0xbf2b95e4	-0.6702559
190	0xbf56ba82	-0.8387834
191	0xbf656c58	-0.89618444
192	0xbf507275	-0.8142465
193	0x3f5f9016	0.8732923
194	0xbf4f18d3	-0.80897254
195	0x3f41735f	0.7556667
196	0x3f1ba88f	0.60804075
197	0x3f118b41	0.5685311
198	0xbf2f057d	-0.6836775
199	0x3f479dcc	0.77975154
200	0x3f306900	0.6891022
201	0x3f93d9f2	1.1550887
202	0xbf2d81a9	-0.6777597
203	0xbf516084	-0.81787896
204	0xbf3a7216	-0.7283033
205	0xbf4302f6	-0.76176393
206	0xbf5089a0	-0.8146
207	0xbf42456a	-0.7588717
208	0x3f1c94c6	0.6116451
209	0x3f2036f0	0.6258383
210	0x3f5944d6	0.8487066
211	0x3f5b7cfc	0.85737586
212	0x3f43cb41	0.76482016
213	0x3f327f18	0.6972518
214	0x3f500b22	0.8126699
215	0x3f8cc892	1.0998709
216	0xbf4bcb11	-0.7960673
217	0xbfbdbb8b	-1.4822859
218	0x3f4ef293	0.8083889
219	0xbf3e3fad	-0.7431591
220	0xbf69c7f2	-0.9132072
221	0xbf3b614e	-0.7319535
222	0xbf3cb404	-0.7371218
223	0xbf43018d	-0.7617424
224	0xbdebaddf	-0.11507773
225	0x3cd56201	0.026047708
226	0xbc9ad9d2	-0.018902693
227	0xbe406b97	-0.18791042
228	0xbe099d32	-0.13438872
229	0x3da43c3f	0.080193035
230	0x3c4136c1	0.0117928395
231	0xbe3ea235	-0.18616565
232	0xbdf45c66	-0.11931686
233	0x3d33d0c6	0.043900274
234	0xbcd94dba	-0.02652632
235	0x3e253482	0.16133311
236	0xbdaecc91	-0.08535112
237	0xbd81294b	-0.06306704
238	0x3d9f3164	0.077730924
239	0x3e129ba0	0.14317179
240	0x3d1ad2a2	0.03779853
241	0x3cc7f98e	0.02441099
242	0x3d6e32e1	0.05815399
243	0x3dba59fb	0.09099194
244	0x3ceccb35	0.02890549
245	0x3c4f999c	0.012670901
246	0xbd231ac1	-0.039820436
247	0xbc97a30d	-0.018510366
248	0xbc105985	-0.008810406
249	0xbe2aaaf2	-0.16666773
250	0x3cc69f2b	0.02424582
251	0x3ddbcbef	0.107322566
252	0x3e16686f	0.14688276
253	0x3e2cc9ae	0.1687381
254	0xbdc5aba6	-0.0965188
255	0xbe20077e	-0.15627858

fc1.bias f4 [32]
0	0x3e02fedb	0.12792532
1	0x3f629279	0.8850475
2	0x3dba8002	0.09106447
3	0xbbbb6556	-0.0057188673
4	0x3f0c646e	0.54840744
5	0x3f54a5b4	0.8306534
6	0x3f75266d	0.9576176
7	0xbda67418	-0.08127612
8	0xbd8e7ee6	-0.06957798
9	0xbe75a65d	-0.23989244
10	0x3f65ac97	0.89716476
11	0x3bb766d0	0.005596973
12	0x3f11f5c5	0.5701564
13	0xbdb6a845	-0.089188136
14	0xbe236b41	-0.15958883
15	0x3f66fef0	0.90232754
16	0xbe04119d	-0.12897344
17	0xbd3f7c1f	-0.04674923
18	0xbe506610	-0.20351434
19	0x3f762d83	0.96163195
20	0xbe5529f0	-0.20816779
21	0xbdaa196b	-0.08305629
22	0x3f756fee	0.95873916
23	0xbe42ed3f	-0.19035815
24	0x3eb9d9b7	0.36298916
25	0x3e190158	0.14941919
26	0xbb91302c	-0.0044307914
27	0x3f67a051	0.90479
28	0xbdbc834a	-0.09204729
29	0xbe3b08aa	-0.18265024
30	0x3dacb893	0.08433642
31	0xbcc67e52	-0.024230156

fc2.weight f4 [3, 32]
0	0xbf1f1900	-0.6214752
1	0xbf423690	-0.75864506
2	0x3e1762b7	0.1478375
3	0x3e12e30e	0.14344427
4	0x3ecf5766	0.40496367
5	0xbf47ea40	-0.7809181
6	0xbf41f3bd	-0.7576254
7	0xbd2ff7bb	-0.042960864
8	0xbe66d265	-0.22541197
9	0x3ecdab3f	0.40169713
10	0xbf447a4a	-0.767491
11	0xbfb5e8a8	-1.4211626
12	0x3ee429fa	0.44563276
13	0x3c211a00	0.009832859
14	0xbdfa0872	-0.12208642
15	0xbf1caaea	-0.61198294
16	0x3d831506	0.06400494
17	0xbed07f80	-0.40722275
18	0xbe23166f	-0.15926526
19	0xbf1dfc24	-0.6171286
20	0xbe2c562e	-0.1682975
21	0xbe01a892	-0.1266196
22	0xbf040a82	-0.51578534
23	0x3bba11da	0.0056783976
24	0xbdc7f44e	-0.09763394
25	0xbcaaf72c	-0.020869814
26	0x3a4ef547	0.00078948255
27	0xbf2dbadf	-0.6786327
28	0x3cf7e400	0.030260086
29	0xbb9f58b7	-0.0048628706
30	0xbcf87d21	-0.030333104
31	0xbd776684	-0.0604005
32	0x3f0ebeb2	0.5575973
33	0xbf3fe34a	-0.7495619
34	0xbe7047a0	-0.23464823
35	0x3dc0a930	0.0940727
36	0xbf32e148	-0.69875
37	0xbf13f875	-0.5780099
38	0xbf4a8be6	-0.7911972
39	0xbccbfc09	-0.024900453
40	0x3da91130	0.082552314
41	0xbe395313	-0.18098097
42	0xbf321a67	-0.69571537
43	0xc00388c6	-2.055223
44	0xbf3c96d7	-0.73667663
45	0xbd88b6dc	-0.06675503
46	0xbd8355bf	-0.06412839
47	0xbf176183	-0.59133166
48	0x3d150c69	0.03638879
49	0xbe9c4bb2	-0.305265
50	0xbc9adbee	-0.018903699
51	0xbf0870f8	-0.53297377
52	0xbdcd518a	-0.10025318
53	0x3e38df60	0.18053961
54	0xbf43c845	-0.7647746
55	0xbd845085	-0.064606704
56	0xbe5ea6ea	-0.2174336
57	0xbe4062b3	-0.18787651
58	0x3ca7d0ec	0.020485364
59	0xbf343b92	-0.704034
60	0xbe2b49e5	-0.16727407
61	0xbd1ee3a8	-0.03879133
62	0x3d7082b3	0.058718394
63	0xbca0ae18	-0.019614264
64	0xbf0436c2	-0.51646054
65	0xbf32fafa	-0.6991421
66	0x3e12d45b	0.1433882
67	0x3dec5731	0.11540068
68	0x3e1e477f	0.15456961
69	0xbf481a42	-0.78165066
70	0xbf384985	-0.7198718
71	0x3def311c	0.11679289
72	0xbbcca92a	-0.006245752
73	0xbdef8c90	-0.11696732
74	0xbf04fc5a	-0.5194756
75	0xc00b0b00	-2.1725464
76	0x3d3fc580	0.04681921
77	0xbd6d853b	-0.057988387
78	0xbb66b25e	-0.003520153
79	0xbf40877e	-0.75206745
80	0xbd402155	-0.046906788
81	0xbeddc828	-0.4331677
82	0x3daaf6f5	0.083478846
83	0xbf3c42e9	-0.73539597
84	0xbdc07ea8	-0.09399158
85	0x3cb874fa	0.022516716
86	0xbf3b4833	-0.7315704
87	0xbd759864	-0.059959784
88	0xbe57a340	-0.21058369
89	0xbd2bc037	-0.041931357
90	0x3e04e74b	0.12978856
91	0xbf140bb8	-0.5783038
92	0x3d28a37c	0.041171536
93	0xbd3ac1e7	-0.045595076
94	0xbe424806	-0.18972787
95	0xb8bc0f36	-8.967372e-05

fc2.bias f4 [3]
0	0xbf7bcbb4	-0.983577
1	0xbf5b9938	-0.8578067
2	0xbf4a9d0e	-0.79145896
