saves/01022021125108_acrobot_dqn.pt (torch, 27479 bytes, 8 tensors)

lstm.weight_ih_l0 f4 [128, 6]
000000 9c f1 4c 40 a3 8f 1b 3e 37 0c b4 bf c5 a4 0e 3f
       3.2022467 0.15191512 -1.4066228 0.5572017
000010 54 88 33 bf 28 50 6b be cb 34 fe 3f 87 b6 8b be
       -0.70129895 -0.22979796 1.9859861 -0.27287695
000020 3e 5f 52 bf be e8 38 3e 03 ad af be 40 46 05 be
       -0.8217658 0.18057534 -0.34311685 -0.1301508
000030 ae 5c 66 40 ee 0b d3 3e 91 e8 9c bf 6f d3 37 3f
       3.5994067 0.4122004 -1.2258474 0.71807
000040 c0 dc d3 be ce 2c 1d be 24 3e 5b 40 dc b0 a8 3e
       -0.41379356 -0.15349123 3.4256678 0.32947433
000050 05 d7 a7 bf 9b b0 26 3f 04 45 06 bf cc f5 38 be
       -1.3112494 0.6511323 -0.5244906 -0.18062514
000060 88 fa 62 40 6d 2e 0b 3e f5 9a ab bf 91 6c f2 3e
       3.5465412 0.13591929 -1.3406664 0.47348455
000070 d2 e5 ea be ab b9 d5 bd 66 20 44 40 58 78 4a 3f
       -0.45878464 -0.10435804 3.0644774 0.7908988
000080 9d e2 80 bf d0 70 8e 3f 35 64 2d bf 4c 81 4f be
       -1.0069157 1.1128178 -0.6773103 -0.20264167
000090 a2 77 86 40 2f 3f 7d 3e d7 11 a4 bf 2b 87 37 3f
       4.2021036 0.24731134 -1.2817944 0.71690625
0000a0 bf de 99 be 52 84 81 be 3a 3e 2b 40 19 e8 96 3e
       -0.30052754 -0.25296265 2.675673 0.2947395
0000b0 37 30 8e bf de 4d 59 3f ac 4d ee be aa d0 13 be
       -1.1108464 0.8488444 -0.46543634 -0.14435068
0000c0 b2 9e 23 40 2b 7f c5 3e 4e 97 94 bf 8e f6 3f 3f
       2.556561 0.38573584 -1.1608675 0.7498559
0000d0 c7 52 38 be d2 52 be bd c5 c7 3f 40 63 b1 42 3e
       -0.18000327 -0.092931405 2.996568 0.1901298
0000e0 74 44 a2 bf c3 c6 f2 3e d9 05 19 bf f0 63 52 be
       -1.267714 0.47417268 -0.5977455 -0.20545936
0000f0 8b b8 16 40 cd e9 6b 3f 5f 9d 18 bf 2b 44 a6 3f
       2.3550136 0.92153627 -0.5961513 1.2989553
000100 d8 ab 82 3e c5 47 47 3e fe f4 40 40 06 70 a5 3e
       0.2552173 0.19460972 3.0149531 0.3231203
000110 cf 60 8c bf df ce 32 3f 5f 40 66 3e ff 23 33 3e
       -1.0967044 0.6984691 0.22485493 0.174942
000120 98 73 42 40 33 a4 06 3f 40 3c 46 bf b9 b4 3e 3f
       3.0383053 0.525943 -0.77435684 0.7449451
000130 e6 48 87 3e 82 3b 8f 3e 7c bd 46 40 f4 24 22 3c
       0.26422805 0.27975088 3.1053152 0.009896506
000140 10 ea 8c bf 51 46 b3 3e b4 1b de be 23 8f 05 be
       -1.100893 0.35014585 -0.4338051 -0.13042884
000150 4d f5 43 40 4f d5 b2 3e 8f f5 8c bf 5c f7 20 3f
       3.061847 0.34928367 -1.1012439 0.6287744
000160 35 a9 58 be 8c f2 4e bd 84 f7 71 40 40 4c 67 3e
       -0.21158297 -0.05052428 3.7807322 0.22587681
000170 5d 3c b8 bf a3 72 2a 3f f0 75 f5 be b8 a8 2b be
       -1.4393421 0.6658117 -0.47941542 -0.1676358
000180 63 8b 7b 40 ab d0 21 3f b4 d9 a6 bf 87 37 82 3f
       3.9303825 0.6320903 -1.3035188 1.0173196
000190 de e9 be be 64 d1 41 be e2 6e fa 3f b3 4d 34 3f
       -0.37287802 -0.18927532 1.9565089 0.7043106
0001a0 97 05 8f be 4c e4 b7 3f da cc 42 3f 8c b0 85 3e
       -0.27933952 1.4366546 0.7609383 0.26111257
0001b0 80 4a 51 40 c9 cc 41 3e 2a 6b 8f bf c7 90 08 3f
       3.270172 0.18925776 -1.1204579 0.5334591
0001c0 3e a7 bd be 88 6c fb bd e2 12 44 40 5e 33 a7 3d
       -0.37041658 -0.1227656 3.0636525 0.081640944
0001d0 db 9e 93 bf 5e e3 dd 3e 6d 74 04 bf 6f a6 1e be
       -1.1532854 0.4333753 -0.5174015 -0.15493177
0001e0 8d 4b 02 40 01 0f aa be 5f 0b 19 bf d0 f0 ea 3c
       2.0358613 -0.33214572 -0.59782976 0.028679281
0001f0 3b 09 e8 3d 14 50 25 3d c4 00 11 40 a6 be 3a be
       0.113298856 0.04035957 2.2656717 -0.18236789
000200 41 c0 7f bf b8 4c 81 3e ce ff a7 be 52 e1 de bd
       -0.9990273 0.25253844 -0.3281235 -0.1088282
000210 1a 09 74 40 ad 3a 97 3e 80 92 b0 bf 29 ac 2a 3f
       3.8130555 0.29536954 -1.3794708 0.66668946
000220 37 90 ef be 0e e6 3e be a3 73 30 40 97 d7 aa be
       -0.46789715 -0.18642446 2.757058 -0.33367607
000230 da 0c 83 bf 62 75 99 bd cd 59 d3 be 9d d7 00 be
       -1.0238297 -0.07493092 -0.4127945 -0.1258225
000240 a4 16 68 40 d9 3b c9 3e 18 62 b2 bf d8 57 3a 3f
       3.6263819 0.39303473 -1.3936186 0.7279029
000250 d4 12 fc be c6 db 39 be 70 70 44 40 af 2a 00 3e
       -0.49233115 -0.18150243 3.0693626 0.12516282
000260 79 d7 85 bf 32 f7 05 3f c3 17 63 3e 72 a6 22 3e
       -1.0456382 0.52330315 0.22177033 0.15883806
000270 7a f0 52 40 c4 85 18 3e 84 bb 94 bf a2 68 0a 3f
       3.2959275 0.14894778 -1.1619725 0.54065907
000280 6e 24 cd be 1b 29 11 be 1c 67 40 40 69 dc 71 3e
       -0.40066856 -0.14175837 3.0062933 0.23619236
000290 be 85 9c bf 9a 1a 14 3f 0d fc 15 bf 9e b3 65 be
       -1.2228315 0.5785309 -0.58587724 -0.224318
0002a0 c3 0b 5f 40 b8 d1 4c 3e 38 63 a7 bf ad 13 01 3f
       3.4850929 0.20001876 -1.3077154 0.5042065
0002b0 cc 56 f3 be 18 f8 2a be 91 c4 5a 40 87 5b 01 3f
       -0.47527158 -0.16696203 3.4182475 0.50530285
0002c0 6a ec 7b bf 7a 6d 56 3f 2b a9 8f be d7 d5 0c bd
       -0.98407614 0.837608 -0.28058752 -0.03438362
0002d0 69 e7 54 40 41 25 5d 3e 1f 55 a2 bf 5f dd 0e 3f
       3.3266242 0.21596242 -1.2682227 0.55806535
0002e0 a9 bc f5 be 53 3a 18 be 78 0c 6d 40 96 01 04 3f
       -0.479955 -0.14865999 3.703886 0.5156492
0002f0 eb 11 aa bf 94 57 57 3f 6b af e5 be 2e 97 3a be
       -1.3286718 0.8411801 -0.44860396 -0.18221733
000300 cc 06 23 3d c7 1c 34 3e 05 8e 15 3e e6 5a 54 bd
       0.039801404 0.17589103 0.14604957 -0.0518445
000310 80 23 37 3d 3c 7b 67 3d 54 ac 88 3d d0 4e 1c 3d
       0.04471159 0.05651401 0.06673494 0.0381611
000320 03 53 9d bd cc fc 0d bd de 50 a0 3d a4 5b 03 bd
       -0.07681849 -0.034664914 0.07827924 -0.032069817
000330 08 ab b5 bc 5a a3 ef 3d 16 af 8f 3d f0 a4 c3 bd
       -0.02217628 0.11701079 0.07015817 -0.09552944
000340 c0 2b 9e 3c 08 de dd bd e0 6f 2c bd 7f 43 20 3e
       0.019307971 -0.10833365 -0.04209888 0.15650748
000350 7c ee 3e 3d 56 2d e7 3d 7c 24 4e bd 10 53 2e bd
       0.046614155 0.11287944 -0.050327763 -0.042559683
000360 ba 03 65 bd b6 90 9f 3d 4b 70 2d 3e c0 d0 b8 3c
       -0.055911757 0.07791273 0.16937368 0.022560477
000370 c4 b5 22 bd e6 88 b1 3d 00 7f d0 3a 66 29 05 be
       -0.039724126 0.086686894 0.001590699 -0.13004074
000380 75 ef e9 bd 7f 14 2e 3e 12 a7 d9 3d e0 84 9d 3c
       -0.11422626 0.17000006 0.10627569 0.019228399
000390 78 8b f3 3c 60 9b ca bd 8b cb 1a 3e c0 e5 41 3b
       0.02972959 -0.09892917 0.15116708 0.0029586405
0003a0 8d 6c 16 3e 06 29 c7 3d a3 c9 97 bd 00 c3 ae bd
       0.14689846 0.097246215 -0.07411506 -0.08533287
0003b0 74 65 e0 bd f7 af 17 3e 12 33 a4 3d a6 11 9b 3d
       -0.10956851 0.14813219 0.080175534 0.075717255
0003c0 d2 d0 bf 3d 6e a3 70 bd 2e 38 f7 3d a5 66 2c be
       0.09366001 -0.05874961 0.12071262 -0.16836031
0003d0 bc 60 11 bd f0 26 41 bc 4e e6 c6 bd 87 a1 ea bd
       -0.035492644 -0.011789069 -0.09711896 -0.1145659
0003e0 8d d5 2c 3e 0f 5e 2f be 96 73 bf 3d 8b 46 1d 3e
       0.16878338 -0.17125724 0.09348218 0.15358941
0003f0 fe ab 89 3d 20 26 8c 3d f6 80 78 bd a0 cb 35 3d
       0.06722258 0.06843209 -0.06066986 0.044383645

lstm.weight_hh_l0 f4 [128, 32]
000000 17 6c c5 bd a0 43 ef bc 39 3b a8 bd e0 a7 73 bd
       -0.09639757 -0.02920705 -0.08214421 -0.05948627
000010 8e c0 c9 3d e0 e2 d1 3c 65 32 16 be 78 32 64 bd
       0.0985118 0.025620878 -0.14667661 -0.055712193
000020 94 d0 1a be d8 5e da 3c 0f 61 09 be 84 fc 04 3d
       -0.15118629 0.026656553 -0.13415931 0.03246738
000030 c1 fa 2b be 23 d7 0e be 1b b5 07 be 6d 1e 8b bd
       -0.16794874 -0.13949256 -0.1325268 -0.06792913
000040 b6 01 b0 3d d8 41 8e bd 74 fe f9 bd 80 40 b3 3a
       0.08594076 -0.069461524 -0.12206736 0.0013675839
000050 78 22 c0 bc 08 2c 8a 3d 40 7c 1d bc 25 16 26 3e
       -0.023453936 0.067466795 -0.009612143 0.16219385
000060 5c 05 21 be 47 c0 31 be a9 a7 11 3e 76 9c 61 bd
       -0.157247 -0.17358504 0.14224114 -0.055080853
000070 b7 7e 27 3e 10 28 0f bd d8 e1 f4 3c 20 45 8d bb
       0.16356932 -0.034950316 0.029892847 -0.004311219
000080 43 f9 10 3e a9 7c 08 be cb d2 22 3e 14 65 73 bd
       0.14157586 -0.13328804 0.15900724 -0.059422567
000090 94 f8 50 bd 22 4f c7 bd d1 4d c3 bd b0 1a 33 3d
       -0.051018313 -0.0973189 -0.09536327 0.043726623
0000a0 26 a5 d6 3d 80 cb c3 3b 58 c4 d6 3c 80 3a de 3a
       0.10480718 0.005975187 0.02621667 0.001695469
0000b0 c0 fd 9e 3b 10 1e 85 bd c0 32 5b 3c d0 41 b3 3c
       0.0048520267 -0.064998746 0.013378799 0.021881968
0000c0 2c 99 1d be b0 e2 3d bc 26 1e 33 be 4a 09 a9 bd
       -0.15390462 -0.011589691 -0.1749197 -0.08253725
0000d0 d9 d9 07 be a3 31 81 bd 6a ad 97 3d a0 bd 7d bc
       -0.13266696 -0.063082956 0.07406123 -0.015487105
0000e0 b9 46 a8 bd 98 c7 db 3c 16 af a2 3d 5d 87 31 3e
       -0.08216614 0.026828572 0.07943551 0.17336793
0000f0 a6 16 34 be 70 2c 79 3c fc 1a c5 bd ca 3a ae 3d
       -0.17586765 0.015208349 -0.096242875 0.08507307
000100 c0 da 28 be e3 3e 31 be bc 20 02 be 3d 2b 06 3e
       -0.16489697 -0.17309146 -0.127078 0.13102432
000110 62 fa a2 bd 56 d7 bc 3d d0 22 2c 3d 60 b4 c9 3c
       -0.07957913 0.092207596 0.042025387 0.024622142
000120 8b ad e9 bd 2a 9a ae bd d8 9f b5 3c a1 27 0b be
       -0.11410054 -0.08525498 0.022170946 -0.13589336
000130 f4 f7 63 bd 3f e1 a6 bd b6 ed 80 3d 20 03 5e bc
       -0.05565639 -0.08148431 0.0629534 -0.01355055
000140 eb 83 1d be 46 f6 8c 3d 06 97 ee 3d ae 58 e1 3d
       -0.15382354 0.068829104 0.11649899 0.110032424
000150 60 98 b3 3b 89 03 34 3e 68 0d b9 bc 60 52 7a 3c
       0.005480811 0.17579474 -0.0225894 0.015278429
000160 f6 4b f5 3d a0 90 f8 bd 8c 25 22 bd e0 b5 88 3b
       0.11977379 -0.1213696 -0.03958659 0.004172072
000170 cc dc ac bd b0 bc bc bc d1 64 1a be 06 90 9c 3d
       -0.08440551 -0.023039192 -0.15077521 0.07644658
000180 7b e7 27 be a5 9e 10 3e 4e c7 01 be 15 9f 9f bd
       -0.16396897 0.14123018 -0.12673685 -0.07794014
000190 ff 09 a9 bd 1e db ce bd 60 ac 25 3c e8 f2 4c 3d
       -0.0825386 -0.10100387 0.010111898 0.05003634
0001a0 a0 e6 5f 3d 5a 12 b9 bd 80 b7 ff 3c f2 36 ee 3d
       0.0546633 -0.090367034 0.03121543 0.11631574
0001b0 73 68 1f 3e b2 18 de 3d 4c 73 46 bd 3a 7c e4 bd
       0.15567188 0.10844554 -0.0484498 -0.11156507
0001c0 b3 d5 0a 3e c5 76 30 be 75 05 20 3e 32 87 ef bd
       0.13558082 -0.17232807 0.15627082 -0.11695708
0001d0 9d 1f 0b 3e 00 0a 4f 3c 1c c1 fa bd ca af c3 3d
       0.13586278 0.0126366615 -0.12243864 0.095550135
0001e0 00 73 3b ba e3 fa 0b 3e b0 45 a7 3c 3e 83 27 be
       -0.000715062 0.13669924 0.020418972 -0.16358659
0001f0 19 0b 14 3e 68 78 d3 3c 58 a6 c4 bd b8 3c c4 3c
       0.14457358 0.02581425 -0.0960204 0.023954734
000200 20 9f b7 bc 1d 6b 2a 3e 1a f0 dd 3d ea 2c be 3d
       -0.022414744 0.16642423 0.10836811 0.092859104
000210 d3 b9 07 be a7 a7 04 3e 30 df 5a 3d e4 b3 06 bd
       -0.1325448 0.1295458 0.053435504 -0.0328864
000220 af 97 06 be e2 c0 1b be 59 59 ec bd 3f 4f cd bd
       -0.131438 -0.15210298 -0.11540479 -0.100248806
000230 af 9e 1f be b1 87 00 3e 6e 85 d9 bd 68 6a e3 3c
       -0.15587877 0.12551762 -0.10621153 0.0277607
000240 83 68 20 be 90 71 3b 3c d0 e7 b8 bc 57 5d 2a 3e
       -0.15664868 0.01144065 -0.022571474 0.16637169
000250 c8 f8 1a be 77 23 af bd 46 e8 87 3d 5d 19 31 3e
       -0.15133965 -0.08551686 0.066360995 0.17294832
000260 fd 3e 26 be 8c 0c b8 bd 5c 8b 0b bd e1 59 d9 bd
       -0.16234966 -0.08986768 -0.03406845 -0.10612846
000270 d3 85 09 be e8 98 7e 3d da cd 03 be 3f 93 33 3e
       -0.13429956 0.06215754 -0.12871495 0.17536639
000280 e7 bc 23 be 02 f9 b8 3d 40 0a 05 bc 23 9c 16 3e
       -0.1599003 0.090318695 -0.00812012 0.14707999
000290 92 12 b2 3d 0a ef fb 3d ab c2 13 3e c8 9f 2a be
       0.08694948 0.123014525 0.14429729 -0.16662514
0002a0 ee 05 8c 3d 40 d2 12 bb 30 6f 4a 3d 91 f7 8f bd
       0.068370685 -0.002240315 0.049422443 -0.070296414
0002b0 d0 ab 3d bd 7e 5b 54 bd a4 6a 03 3d c8 10 20 be
       -0.04630643 -0.051845066 0.032084122 -0.15631402
0002c0 af 38 1f 3e 8d 6c 9a bd e0 7c 0b bc 06 06 e0 3d
       0.15548967 -0.07540236 -0.008513659 0.10938649
0002d0 5f 26 f0 bd 75 57 29 3e 36 13 9d 3d 9c 82 06 be
       -0.11726069 0.16537268 0.0766968 -0.13135761
0002e0 49 77 10 3e e5 fa 00 3e 0a 70 f4 3d a0 2a d3 bc
       0.14108004 0.12595709 0.11935432 -0.025777161
0002f0 80 7c e9 3c 68 98 12 be e2 01 e9 3d 5e fa fe 3d
       0.028501749 -0.14315951 0.11377312 0.124500975
000300 f7 28 29 be fb fd bc bd 62 6c a4 3d 75 00 eb bd
       -0.16519533 -0.092281304 0.08028485 -0.114746965
000310 7e 41 c5 3d 16 37 a0 bd f8 fa 36 bd 98 db 44 bd
       0.09631632 -0.07823007 -0.044672936 -0.048060983
000320 2d 8c bd bd 93 29 8b bd 00 b0 45 39 4e 3b 23 be
       -0.09255252 -0.06795039 0.00018852949 -0.15940592
000330 48 18 68 bd 10 d0 07 bd 2e 4b 9a 3d ed 8a a6 bd
       -0.05666378 -0.03315741 0.07533871 -0.08131967
000340 2b 9c 23 3e a2 fb 5c bd 80 6e 82 bd 6a 77 ca bd
       0.15977542 -0.053950913 -0.063687325 -0.09886058
000350 cd 87 1a 3e d9 f7 11 be 38 3a 42 3d b8 d8 3f bd
       0.15090866 -0.14254703 0.047418803 -0.04683754
000360 28 46 2e bd ef ad a7 bd 19 42 14 3e d8 a9 1b be
       -0.042547375 -0.08187472 0.14478339 -0.15201509
000370 90 d0 c2 bd cb 01 21 3e c8 17 9c bc 22 3e ae 3d
       -0.095124364 0.1572334 -0.019054309 0.08507945
000380 90 39 25 be 3c 09 f2 bd 11 aa 9a bd 6b 75 0f 3e
       -0.1613524 -0.118181676 -0.07551969 0.14009635
000390 02 b1 c3 3d 24 77 95 3d 10 bd 6b 3d 74 e8 84 3d
       0.09555246 0.07298115 0.05755335 0.064896494
0003a0 a0 77 62 3c 86 88 d5 bd 20 f5 d0 3b 8a ab cb 3d
       0.013822466 -0.104264304 0.0063768774 0.09944828
0003b0 60 99 aa bb 63 88 8c bd 2b 41 27 3e 59 b7 15 3e
       -0.005206272 -0.06861951 0.16333453 0.14620723
0003c0 88 18 94 3c 2c 1a 7e 3d ae c8 9d bd bd 6e d7 bd
       0.018078104 0.06203668 -0.07704292 -0.105191685
0003d0 b7 ec 1f be fe 1f a6 3d 46 13 18 be c8 a7 91 3c
       -0.15617643 0.08111571 -0.14851102 0.0177802
0003e0 c2 46 a0 3d 34 45 ec bd dc 75 9d bd d1 57 c1 bd
       0.07825996 -0.11536637 -0.076884955 -0.09440578
0003f0 ac b6 83 3d 3e e0 aa 3d e0 8d 04 bc fe 18 e6 3d
       0.06431326 0.08343552 -0.008090466 0.11235236

lstm.bias_ih_l0 f4 [128]
000000 10 0f 1f 41 31 48 15 41 f8 bc 1e 41 88 b7 1c 41
       9.941177 9.330125 9.921135 9.794807
000010 84 4e 1d 41 ea a0 1c 41 a6 36 1f 41 07 65 18 41
       9.831669 9.789286 9.950842 9.524665
000020 a5 58 1b 41 2b 5d 1c 41 da d7 1b 41 7d ca 1d 41
       9.709142 9.772746 9.740198 9.861936
000030 3a 11 1b 41 14 10 1b 41 70 1c 1d 41 27 e2 20 41
       9.691706 9.691425 9.819443 10.055213
000040 b0 e0 1f 41 5b 19 1e 41 97 7b 1c 41 1a bb 1a 41
       9.992355 9.88119 9.780173 9.670679
000050 0c d0 16 41 12 8b 17 41 27 50 1e 41 83 dc 18 41
       9.425793 9.471453 9.894568 9.553836
000060 2a e4 1d 41 30 54 1a 41 ec c6 1c 41 71 7e 1b 41
       9.868204 9.645554 9.798565 9.7183695
000070 a4 f5 1b 41 41 60 19 41 2d 60 1d 41 aa ba 1d 41
       9.747471 9.5859995 9.83598 9.858072
000080 a0 40 a3 bb a2 d1 d6 3d 60 c1 97 3b 72 5b 88 3d
       -0.004982069 0.10489203 0.0046312064 0.06658067
000090 1e f4 8b bd c6 db a8 3d 6b a3 00 3e 2d d9 b4 bd
       -0.06833671 0.082450435 0.12562339 -0.088304855
0000a0 98 ed 50 bd 2a 25 d7 bd d8 ae cb 3c a0 53 38 3d
       -0.051007837 -0.10505135 0.024863645 0.045001626
0000b0 99 e8 ae bd c8 7d 9d bd 0e 5e cc 3d 6d f7 de bd
       -0.08540458 -0.076900065 0.09978877 -0.108870365
0000c0 f2 5c b0 3d a9 18 0b 3e 2b e6 e2 bd 79 f1 8c bd
       0.08611478 0.13583626 -0.11079057 -0.06881995
0000d0 55 1e a1 bd eb 05 08 3e 35 c4 04 be 48 c6 92 3d
       -0.078671135 0.13283508 -0.12965472 0.071667254
0000e0 35 2d c4 bd 80 fd 82 bd 81 ae b4 bd 61 10 8e bd
       -0.09578935 -0.063960075 -0.088223465 -0.06936718
0000f0 45 77 06 3e 7e 76 26 be 8c a6 56 bd 30 28 d0 bc
       0.13131435 -0.16256139 -0.052404925 -0.025409788
000100 32 97 b3 40 0e 8a ae c0 91 e0 aa c0 53 a3 a8 c0
       5.6122065 -5.4543524 -5.339913 -5.269937
000110 7f 97 b5 40 eb 16 b2 c0 7d a3 a4 c0 28 58 b1 c0
       5.674743 -5.5652976 -5.144957 -5.5420113
000120 6f c0 ac c0 4f eb af 40 1a 01 ae c0 a7 d7 b1 c0
       -5.3984904 5.497474 -5.4376345 -5.5575747
000130 27 7d ab 40 de de af c0 be 24 b2 40 0f f4 af c0
       5.3590274 -5.4959555 5.566985 -5.4985423
000140 2e 95 b2 c0 30 96 ad c0 15 60 ad c0 89 b9 ac c0
       -5.5807104 -5.4245834 -5.417979 -5.3976483
000150 e9 f8 af 40 e7 24 b6 40 50 3f ad c0 8d 77 b8 40
       5.4991345 5.6920047 -5.4139786 5.7645936
000160 f3 5f b1 c0 1c 91 b2 c0 19 57 ac 40 bb 52 ae c0
       -5.5429626 -5.5802135 5.385632 -5.447599
000170 c8 ad b2 40 89 91 b2 c0 3e d8 af 40 33 a1 ae 40
       5.5837135 -5.5802655 5.4951468 5.4571776
000180 76 0c 1f 41 56 e2 17 41 8d 55 21 41 6e 4a 1f 41
       9.940542 9.492758 10.083386 9.955671
000190 de 10 1b 41 54 e9 1c 41 57 2f 1e 41 73 b8 17 41
       9.691618 9.806965 9.886558 9.482532
0001a0 83 65 1b 41 de e3 18 41 7e 8e 19 41 94 b3 1e 41
       9.712283 9.555632 9.597288 9.918842
0001b0 b3 15 1f 41 45 75 16 41 ea b1 1c 41 96 99 1a 41
       9.942798 9.40363 9.793436 9.662497
0001c0 6f f0 1d 41 5f 16 1b 41 73 79 1a 41 df a4 16 41
       9.8712 9.692962 9.654651 9.415252
0001d0 35 87 19 41 4b 63 1e 41 c6 2b 1f 41 5c 7b 1a 41
       9.59551 9.899241 9.948187 9.655117
0001e0 51 96 1d 41 83 08 20 41 95 69 1c 41 12 a0 1a 41
       9.849198 10.002078 9.775777 9.66408
0001f0 43 c7 1e 41 61 c2 1d 41 c2 78 20 41 cb ab 1f 41
       9.923648 9.859956 10.029482 9.979442

lstm.bias_hh_l0 f4 [128]
000000 8f ac 1c 41 ad 7c 17 41 d0 c7 1c 41 0c f9 1b 41
       9.792129 9.467938 9.798782 9.748302
000010 48 fa 1e 41 82 6a 18 41 eb d2 1e 41 bb f1 1a 41
       9.936104 9.526003 9.926494 9.684016
000020 89 67 19 41 9f be 1b 41 88 d1 17 41 25 dc 19 41
       9.587777 9.734038 9.488655 9.616246
000030 a2 d2 1b 41 e2 34 1a 41 92 ea 17 41 fc 8a 1d 41
       9.738924 9.637911 9.494768 9.846432
000040 36 36 1e 41 87 5c 1b 41 19 b0 1a 41 79 2d 1c 41
       9.888235 9.71009 9.667993 9.761102
000050 40 d9 15 41 b0 41 18 41 d6 e2 1f 41 8f 7b 1a 41
       9.36554 9.516037 9.99288 9.655166
000060 b3 34 1d 41 62 73 1d 41 be 03 1a 41 52 77 1c 41
       9.825366 9.84067 9.625914 9.779131
000070 f1 74 1e 41 84 e2 1d 41 33 70 1c 41 91 3e 1f 41
       9.90355 9.867802 9.777392 9.952775
000080 f5 36 1f 3e 7e 9d 9e 3d 66 29 7b bd ef 90 ce bd
       0.15548308 0.07744883 -0.061318778 -0.10086238
000090 88 dd 1e be c2 ac a9 3d 1e dd 07 be 50 be 09 3d
       -0.15514195 0.08284904 -0.13267943 0.03362876
0000a0 02 0b c1 bd 66 a6 d8 3d c8 8b ff bd 5f db 88 bd
       -0.09425928 0.10578613 -0.12477833 -0.06682467
0000b0 45 68 03 3e 70 fc bb bd a0 c4 78 3d e6 a4 a0 bd
       0.12832744 -0.09179008 0.06073439 -0.07843952
0000c0 a2 33 e9 bd 70 60 91 bc a8 c9 07 3d b4 24 8b bd
       -0.11386801 -0.01774618 0.0331513 -0.0679411
0000d0 34 76 07 be 4e 8a 99 3d 2c 59 38 bd 77 35 bb bd
       -0.13228685 0.07497083 -0.045006916 -0.09141057
0000e0 55 e6 b4 bd 2e 99 d1 3d cc 9b d6 bd 0e 9a f8 3d
       -0.08832995 0.10234295 -0.10478935 0.121387586
0000f0 70 e0 81 bc 3b fd b1 bd 60 61 6c bc 4c fd 1b be
       -0.01585409 -0.08690878 -0.014427513 -0.15233344
000100 90 f6 af 40 1f db b1 c0 45 c3 b0 c0 85 c9 ad c0
       5.498848 -5.557998 -5.5238366 -5.4308496
000110 1c ff b2 40 77 54 b0 c0 12 f4 ad c0 d8 a6 af c0
       5.5936413 -5.5103106 -5.4360437 -5.4891167
000120 a6 38 af c0 96 8d af 40 75 14 af c0 40 ba ae c0
       -5.475665 5.4860334 -5.471247 -5.4602356
000130 88 57 b2 40 7f 54 aa c0 0e 0d ad 40 73 ee ae c0
       5.573185 -5.3228145 5.4078436 -5.4666076
000140 ff 0a b2 c0 87 1d b2 c0 d3 23 b1 c0 a0 1b ac c0
       -5.5638423 -5.5661044 -5.535623 -5.378372
000150 96 c3 ab 40 29 ad ae 40 49 d9 af c0 63 72 b1 40
       5.367625 5.4586377 -5.495274 5.545213
000160 96 7c b2 c0 46 58 ac c0 32 79 a7 40 ef f2 ae c0
       -5.5777082 -5.3857756 5.2335443 -5.467155
000170 45 5c ae 40 fd 8b ae c0 9c c3 b0 40 a0 ad af 40
       5.4487634 -5.4545884 5.523878 5.4899445
000180 78 1e 1f 41 4a 2e 17 41 3f e8 20 41 f4 38 1f 41
       9.944939 9.448801 10.056701 9.951405
000190 a6 6f 1e 41 2b c3 1c 41 4e 8e 21 41 5d a4 1b 41
       9.902258 9.797648 10.097242 9.727628
0001a0 06 1b 1b 41 4c 6b 1b 41 41 38 1b 41 f3 31 1b 41
       9.6940975 9.713696 9.701234 9.699695
0001b0 6a 25 1c 41 bf 93 17 41 93 f4 1b 41 45 e4 1d 41
       9.759134 9.473571 9.7472105 9.86823
0001c0 2b 5f 1e 41 52 17 1c 41 12 4d 1c 41 8f 12 15 41
       9.898234 9.755693 9.768816 9.317031
0001d0 1a 38 1b 41 42 77 1c 41 ba d2 1e 41 85 b2 1c 41
       9.701197 9.779116 9.926447 9.793584
0001e0 f3 ca 21 41 01 c8 1e 41 33 c0 1c 41 d8 00 1d 41
       10.112048 9.923829 9.796924 9.812706
0001f0 81 59 1e 41 d5 9a 19 41 23 c7 1c 41 11 51 1e 41
       9.896852 9.600301 9.798617 9.894792

fc1.weight f4 [32, 32]
000000 69 21 7e bd 18 01 13 3e c3 9c ef 3d 78 36 3f 3e
       -0.06204358 0.14355886 0.11699822 0.18673122
000010 09 43 2a be 6f 51 fc 3d 2c 3d e9 bd 57 13 83 3d
       -0.16627134 0.1232022 -0.11388621 0.06400173
000020 a5 c1 9e 3c 9b fa 03 3c 26 cc 71 3d b5 11 6c bd
       0.019379446 0.0080553545 0.05903258 -0.057634074
000030 cb 5a 63 3c 42 21 60 3d 74 66 4a bd eb c7 9a 3e
       0.013876627 0.054719217 -0.049414113 0.3023065
000040 60 52 cf 3b d3 a0 77 3e 76 ba 2d 3e 27 47 51 bd
       0.0063269585 0.24182443 0.1696566 -0.051093247
000050 6a 67 9a 3d 4f b2 e6 3d 4d fb f4 bd e1 e2 dc bd
       0.07539256 0.112644784 -0.11961994 -0.10785461
000060 c9 49 e3 3d 50 7d 59 3d 38 6d 1f be 91 25 6a 3d
       0.11098058 0.053098023 -0.15569007 0.057164732
000070 e0 de bc bd 5b 2c ab bd ab ec c3 3d cf 0a 6b be
       -0.092221975 -0.083580695 0.09566625 -0.22953342
000080 5c b0 ae ba 15 23 cf 3d a8 d7 76 3e 51 62 ae bc
       -0.0013327706 0.10114113 0.24105704 -0.021287115
000090 c8 96 3c be 84 ec 57 3d 5c 45 d3 bd 39 d6 91 3d
       -0.18416893 0.052715793 -0.103159636 0.07120938
0000a0 c0 75 6a bd 0f f4 e1 3b e1 c4 08 3e d0 4a 7d 3d
       -0.0572412 0.006895549 0.13356353 0.061838925
0000b0 ee 6b c5 3c f6 d2 44 3e 92 33 b6 bd f3 78 94 bd
       0.024099316 0.192211 -0.08896555 -0.07249632
0000c0 be 32 79 3e 86 07 c3 bd 57 20 00 bd e1 fe 82 3d
       0.24335763 -0.09522919 -0.03128084 0.063962705
0000d0 5c 2f d0 bd 4b 8d 28 3c e7 62 17 bc 7b 6c be 3d
       -0.10165283 0.010287593 -0.009239889 0.09298035
0000e0 87 6e 20 bd 27 d4 d2 ba a5 07 96 bd ee d7 36 bb
       -0.039167907 -0.0016084955 -0.07325677 -0.00278997
0000f0 b1 6b 49 bd 57 4c e8 bc 58 e6 e4 bd e9 e1 ec bb
       -0.04917497 -0.028356714 -0.11176747 -0.007229079
000100 84 c5 6f 43 91 4b 6f c3 12 17 70 c3 b7 54 6f c3
       239.77155 -239.29518 -240.09012 -239.33092
000110 d7 bf 6f 43 d1 71 6f c3 27 c9 6f c3 af fa 6f c3
       239.74937 -239.4446 -239.78575 -239.97923
000120 ed ea 6f c3 ff f7 6f 43 13 59 6f c3 f3 98 6f c3
       -239.91768 239.96873 -239.34795 -239.59746
000130 d6 8e 6f 43 92 c7 6f c3 47 b3 6f 43 d2 b5 6f c3
       239.55795 -239.77957 239.7003 -239.71024
000140 87 7e 6f c3 b3 be 6f c3 2f 6e 6f c3 94 01 70 c3
       -239.49425 -239.74492 -239.4304 -240.00616
000150 ac 7e 6f 43 b9 64 6f 43 32 49 6f c3 06 55 70 43
       239.49481 239.39345 -239.28592 240.33212
000160 81 5c 6f c3 ab 8c 6f c3 c9 fb 6f 43 db 72 6f c3
       -239.36134 -239.54948 239.98354 -239.44865
000170 8d 34 6f 43 64 fe 6f c3 df 43 6f 43 fb 45 70 43
       239.20528 -239.99371 239.26512 240.27336
000180 90 b0 6f 43 e0 be 6f c3 42 e7 6f c3 4c 65 6f c3
       239.6897 -239.7456 -239.90335 -239.39569
000190 69 91 6f 43 86 24 6f c3 74 a9 6f c3 c0 c8 6f c3
       239.56801 -239.14267 -239.66193 -239.78418
0001a0 0a 8d 6f c3 22 f3 6f 43 d8 9c 6f c3 10 97 6f c3
       -239.55093 239.94974 -239.61267 -239.59009
0001b0 8c 4f 6f 43 32 f6 6f c3 6f 94 6f 43 d4 04 70 c3
       239.31073 -239.9617 239.57982 -240.01886
0001c0 e9 51 6f c3 5d 71 6f c3 ef 58 6f c3 13 43 70 c3
       -239.31996 -239.44283 -239.3474 -240.26201
0001d0 4a 9b 6f 43 4e 0c 70 43 cc 23 6f c3 96 ed 6f 43
       239.6066 240.04807 -239.13983 239.92807
0001e0 18 a3 6f c3 10 d3 6f c3 70 42 70 43 10 81 6f c3
       -239.63708 -239.82446 240.25952 -239.50415
0001f0 0a 2e 6f 43 f5 bc 6f c3 95 59 6f 43 20 bd 6f 43
       239.17984 -239.73811 239.34993 239.73877
000200 ef 8b 03 3e 93 5e 59 bf d8 a2 8e bf c4 f8 0c 40
       0.12846349 -0.84909934 -1.1143446 2.2026834
000210 f2 61 d6 3f 63 63 88 3f 15 19 0e 40 95 f6 3b 3d
       1.674864 1.065533 2.220281 0.045889456
000220 85 99 98 3e 45 6e 88 3f 23 f4 43 40 11 3e 79 40
       0.29804626 1.0658652 3.061776 3.8944132
000230 b6 fe 5d c0 2e 27 b9 bf 5e 46 3c 3f 61 a1 68 bf
       -3.4686713 -1.4465082 0.7354487 -0.90871245
000240 ac 15 40 40 3d 42 77 40 32 09 da 3e a6 e8 83 bf
       3.0013227 3.8634179 0.4258514 -1.0305374
000250 4c d3 41 c0 82 a1 ad 3f 22 12 95 bf 46 be e4 3f
       -3.0285215 1.3564913 -1.1646159 1.7870567
000260 b6 c7 7c bf 35 fe 1e 40 12 09 8c 3f 74 15 27 bf
       -0.98742235 2.4842656 1.0940268 -0.6526711
000270 f3 14 81 3f 04 4d b0 3f fa fc 47 bf 8d cb 77 3f
       1.0084518 1.3773503 -0.78120387 0.9679497
000280 61 b1 6e 43 12 42 6e c3 e9 92 6e c3 d5 37 6e c3
       238.69289 -238.25809 -238.57387 -238.2181
000290 da 9a 6c 43 b6 d8 6d c3 f5 4b 6e c3 a4 54 6d c3
       236.60489 -237.84653 -238.2967 -237.33063
0002a0 65 24 6e c3 29 69 6d 43 b5 d7 6d c3 a4 df 6d c3
       -238.14217 237.41078 -237.8426 -237.8736
0002b0 b1 18 6e 43 bc 31 6e c3 f5 23 6e 43 6b c1 6e c3
       238.09645 -238.19427 238.14046 -238.75554
0002c0 90 e3 6d c3 39 f8 6d c3 c0 e7 6d c3 64 95 6e c3
       -237.88892 -237.96962 -237.90527 -238.58356
0002d0 32 75 6e 43 6f df 6d 43 e7 96 6e c3 c4 39 6c 43
       238.4578 237.87279 -238.58946 236.22565
0002e0 32 94 6e c3 e9 01 6e c3 eb a3 6d 43 2c 98 6e c3
       -238.57889 -238.00746 237.6403 -238.59442
0002f0 43 0d 6e 43 e9 08 6d c3 16 6f 6e 43 4b 29 6e 43
       238.0518 -237.0348 238.43393 238.1613
000300 d6 4a 6f 43 31 88 6e c3 d7 b1 6f c3 cd 6e 6e c3
       239.29233 -238.532 -239.69469 -238.43282
000310 bf 58 6f 43 08 19 6f c3 7c 53 6f c3 f1 6d 6f c3
       239.34666 -239.09778 -239.32611 -239.42946
000320 a1 6d 6f c3 3e e4 6f 43 00 a2 6e c3 92 e3 6e c3
       -239.42824 239.89157 -238.63281 -238.88895
000330 be 22 6f 43 ce 15 6e c3 98 56 6f 43 b9 46 6f c3
       239.13571 -238.08517 239.33826 -239.27626
000340 6d 04 6f c3 ed 25 6f c3 8e fb 6e c3 3d 2b 6f c3
       -239.01729 -239.14815 -238.98264 -239.1689
000350 13 a7 6e 43 18 08 6d 43 39 cd 6e c3 6a de 6f 43
       238.65263 237.03162 -238.80165 239.8688
000360 8b b4 6e c3 21 0c 6f c3 0d e5 6e 43 15 10 6f c3
       -238.70525 -239.04738 238.89473 -239.06282
000370 e1 f3 6e 43 86 14 6f c3 8d ec 6e 43 a7 89 70 43
       238.95265 -239.08017 238.92403 240.5377
000380 17 ec 6f 43 55 59 6f c3 de db 6f c3 ce 1e 6f c3
       239.92223 -239.34895 -239.85886 -239.12033
000390 84 f5 6f 43 28 60 6f c3 aa b5 6f c3 fe f0 6f c3
       239.95905 -239.37561 -239.70963 -239.94138
0003a0 61 97 6f c3 57 ee 6f 43 0c 7f 6f c3 d4 84 6f c3
       -239.59132 239.93102 -239.49628 -239.51886
0003b0 7b 45 6f 43 02 0a 70 c3 15 b0 6f 43 98 eb 6f c3
       239.27141 -240.0391 239.68782 -239.92029
0003c0 85 87 6f c3 97 b6 6f c3 d7 6d 6f c3 a2 fa 6f c3
       -239.52937 -239.71324 -239.42906 -239.97903
0003d0 66 67 6f 43 38 db 6f 43 88 fb 6e c3 b2 36 70 43
       239.4039 239.85632 -238.98254 240.21365
0003e0 fc 79 6f c3 75 b1 6f c3 51 3c 70 43 7a 68 6f c3
       -239.4765 -239.69319 240.23561 -239.40811
0003f0 73 71 6f 43 fc d0 6f c3 b1 49 6f 43 25 f9 6f 43
       239.44316 -239.81635 239.28786 239.97322

fc1.bias f4 [32]
000000 d5 df 3e be 97 e2 81 bd 9e e3 6e 43 23 e0 6e 43
       -0.18640073 -0.06342047 238.88913 238.87553
000010 8f 65 84 3f 2b de 6d 43 53 35 6e 43 80 db 6e 43
       1.0343493 237.86784 238.2083 238.85742
000020 c9 05 6f 43 d7 fe 3f 43 a3 fd 6e 43 40 13 6f 43
       239.0226 191.99547 238.99077 239.0752
000030 08 1d 2a 43 05 bb 0e bc 71 13 6f 43 2c de 6e 43
       170.1134 -0.008711581 239.07594 238.86786
000040 5a b3 2f 43 0a ff 6e 43 9b 6f 8a 3f 30 33 6e 43
       175.70059 238.99625 1.0815309 238.19995
000050 bd 0e 05 be ec e9 6b be 20 0a 6f 43 b9 f2 6e 43
       -0.12993903 -0.23038453 239.03955 238.94814
000060 58 60 6e 43 1c e5 6e 43 7e cc 6e 43 42 13 6f 43
       238.37634 238.89496 238.7988 239.07523
000070 20 5b 5f 43 32 37 b8 3f 6d 06 6f 43 f4 b8 6e 43
       223.35596 1.4391844 239.0251 238.72247

fc2.weight f4 [3, 32]
000000 49 f4 a4 3d d5 fa f9 3d df e2 5e c3 54 dd 5e c3
       0.08054406 0.122060455 -222.88622 -222.86456
000010 38 d0 c3 3f 56 b2 5f c3 6d f2 5e c3 b0 d5 5e c3
       1.5297918 -223.69662 -222.94698 -222.83472
000020 fe a2 5e c3 15 49 34 c3 23 dc 5e c3 ea d3 5e c3
       -222.63669 -180.28548 -222.85991 -222.82779
000030 01 ba 1e c3 4d c0 1f bc e8 a5 5e c3 ec b6 5e c3
       -158.72658 -0.009750438 -222.64807 -222.71454
000040 ad a7 24 c3 60 e6 5e c3 74 a9 ea 3f 98 34 5e c3
       -164.65498 -222.8999 1.8332963 -222.20544
000050 26 4d ce 3d 15 3c ee bc 9c dc 5e c3 a8 ce 5e c3
       0.10073309 -0.029081384 -222.86176 -222.80725
000060 42 7c 5e c3 71 a2 5e c3 8a bd 5e c3 e7 c3 5e c3
       -222.48538 -222.63454 -222.74039 -222.76524
000070 37 38 51 c3 b6 c7 8f 40 83 de 5e c3 da 9f 5e c3
       -209.21959 4.493129 -222.86919 -222.62442
000080 1e 69 0e 3e ba cf 80 bd df 02 5f c3 9b ad 5e c3
       0.13907287 -0.06289621 -223.01122 -222.67815
000090 ff f3 23 40 c5 f8 5c c3 2c 0a 5f c3 40 08 5f c3
       2.5617673 -220.97176 -223.03973 -223.03223
0000a0 fc ee 5e c3 47 83 34 c3 85 e4 5e c3 59 c8 5e c3
       -222.93353 -180.5128 -222.89265 -222.78261
0000b0 71 3c 21 c3 e6 8d 83 bc 21 ed 5e c3 2b db 5e c3
       -161.2361 -0.016058873 -222.92628 -222.85612
0000c0 27 19 24 c3 8b c6 5e c3 d7 47 fb 3f 7d 36 5e c3
       -164.09825 -222.77556 1.9631299 -222.21284
0000d0 c2 09 0a be 10 e6 34 be 85 c7 5e c3 56 e6 5e c3
       -0.13480285 -0.17665887 -222.77937 -222.89975
0000e0 36 34 5e c3 b7 1a 5f c3 a5 ed 5e c3 56 e9 5e c3
       -222.20395 -223.10435 -222.9283 -222.91147
0000f0 b5 ba 51 c3 85 5e fa 3f 8b ea 5e c3 16 93 5e c3
       -209.72932 1.9560095 -222.91618 -222.57455
000100 c2 33 1d 3c aa c4 e3 3d 92 75 5e c3 03 be 5e c3
       0.00959486 0.11121495 -222.45926 -222.74223
000110 d2 28 ea bf 71 32 5e c3 b9 aa 5d c3 21 bd 5e c3
       -1.8293707 -222.19704 -221.66689 -222.73878
000120 4c a4 5e c3 ed 71 34 c3 d5 8f 5e c3 60 a8 5e c3
       -222.64178 -180.44502 -222.56184 -222.65771
000130 2c 03 23 c3 2c c3 e8 3d f1 b6 5e c3 2a b0 5e c3
       -163.01239 0.11365351 -222.71461 -222.68814
000140 19 f6 27 c3 75 89 5e c3 89 6a f9 bf b1 9e 5e c3
       -167.96132 -222.53694 -1.9485637 -222.61989
000150 c5 d2 14 3e 76 8c f8 bd 4d 92 5e c3 d4 9b 5e c3
       0.14533527 -0.12136166 -222.57149 -222.6087
000160 27 ce 5e c3 89 66 5e c3 03 59 5e c3 ab 9d 5e c3
       -222.80528 -222.40053 -222.3477 -222.61589
000170 7e 53 51 c3 f4 8e cd 3f 56 82 5e c3 c7 e3 5e c3
       -209.32614 1.6059251 -222.50912 -222.88976

fc2.bias f4 [3]
000000 e6 f8 5a c3 fa b0 5a c3 b5 d5 5a c3
       -218.97226 -218.69131 -218.8348
