saves/01022021162252_acrobot_dqn.pt (torch, 27479 bytes, 8 tensors)

lstm.weight_ih_l0 f4 [128, 6]
00000000: dcb5 03c0 d033 843f f752 03c0 a06a b63f
00000010: e717 13be a670 1a3f 4239 d7bf 8139 24bf
00000020: 2e61 91bf f59a d1bd 0c65 a8be aa29 2b3f
00000030: fe50 c63e 8c15 96be fa26 9a3f d203 9c3e
00000040: f00d f5bd b0f5 263e a9f7 d03d 5f35 8b3f
00000050: cb0a 77be e8a5 263f 867b c0be c540 45bd
00000060: 6c58 093e f1e9 cf3d 3ea1 8abd c0d7 0c3d
00000070: bf11 3cbe b1e1 863d 9e79 633f 7ee8 1d3f
00000080: cb67 fe3f e064 00bf d6f6 563e c943 5a3f
00000090: 8cae 4ebf 6190 b63e 31f6 14c0 858c 9e3e
000000a0: dacd b03c c2b4 47be e6c1 ebbe 9e60 b3be
000000b0: da6c 54bf 31d4 8bbe feeb 0cbe d960 72be
000000c0: ab2f c93f b916 0abe 14c7 bc3f dca3 9bbe
000000d0: 4c5a a63a 20e3 573e ba8f 3fc0 50b9 343d
000000e0: c407 7ebf 4aab c1bf 7f78 34be 811d c63d
000000f0: 9748 843f 9515 da3e dfbf 593e 4899 583f
00000100: 799c 07bf 4675 df3d 2fd7 113f bf51 e2be
00000110: 7e54 043f 1005 b3bd 3de6 053e 40c1 87bd
00000120: 661f 8d3f 28a4 04bf 4315 ae3f 7fc3 ca3e
00000130: c99e aabe 0ee7 1abf d745 293f 28c2 ee3e
00000140: 4837 353f 1de4 523e 2ea5 c63e 45f2 193d
00000150: 8d9a 4e3f c6dc 8b3e 7fea 903e 8e3c cf3e
00000160: a208 093e a2b5 6d3d 79c2 5a3f 1fc3 d93d
00000170: 99d5 973e 3c8b 73bc 4098 bebe e293 193e
00000180: c289 f9be 467a 94be a3cb 7c3e 5637 a63f
00000190: 3837 033d 5334 7bbd 258a 7c3f aa58 6e3e
000001a0: a92c 88be 059c a2be 6047 36be dd25 ad3d
000001b0: e74c 793f f5b1 393f 6f2a e83e af49 20bf
000001c0: 0f62 983e 8994 4fbb dd9b 153f b068 eebb
000001d0: 18ba d93d 005a 9dbe 3cf8 8a3e 9ffe dbbd
000001e0: 7f6e cfbf 0483 5040 5f76 36c0 6dc1 57be
000001f0: 7d3d 173f 05ba 8e3f 79c8 d0bf db2a a2bf
00000200: 62c3 cebf 1415 2cbe 7298 78be ba6b d83e
00000210: 4bea e23c 968b 173f 4afe 003f 8970 32bf
00000220: 03d8 b63d 0f11 893f 4122 863f 2915 903e
00000230: 4e67 1240 5128 1ebf 2c89 fc3e 2f87 ca3e
00000240: 613b 9c3f 1cc0 1b3f ca6d 5f3e ca1b 0a3e
00000250: d61f 923d 0328 b13d b586 463f 5e91 aebd
00000260: 15bf bf3c 38ff 3e3d 0403 163e 5dbe d3be
00000270: 9679 ebbf a7af 95bf cffe d4bf 9b7d c43e
00000280: 3efc 33bf f751 ebbe 9c3d 4f3f 37e8 5ebe
00000290: 0640 653f ff40 b9bc 0100 1cbe bbff 073e
000002a0: cc01 343e 9202 cdbe 868f 853e 238e 043e
000002b0: 6c71 05be 061c 073f e6b0 983f 7cbf 57be
000002c0: 19d7 393f bfaa 00be 21d1 16be f4c1 d0bd
000002d0: c40b 033f b261 d7bd 961c d33f 271f 94bf
000002e0: ee08 243f 4282 073f 092a ae3e a55c 45bf
000002f0: 244b b2bf f54e ec3e a538 5f3e 7a3c a2be
00000300: 5cfe 6d3d 6538 043e 1057 7cbc 2405 6e3d
00000310: 594f 00be 404a 2b3c 0ab2 bc3d b82a 7f3d
00000320: c343 303e 80ed bb3a 98a8 f9bd 1910 173e
00000330: e1dd 033e f19a 053e c434 743d b746 23be
00000340: 2e5d fb3d da24 d73d 5049 2f3d 30d5 96bc
00000350: 9187 21be 523b 963d 6bd9 223e 7ac3 9dbd
00000360: 649e 4abd 02ea 993d f640 aa3d 3515 053e
00000370: a71a aebd dd7e 1a3e 207a 74bc f05d 303d
00000380: 1e52 22be 0e0a e7bd 442e 57bd 1432 a5bd
00000390: 2af7 85bd c21a 1bbe 623c 9f3d 3045 123d
000003a0: c08d 9b3b da82 0fbe d6d7 f63d 72f8 ef3d
000003b0: 6ab1 87bd 56ec 833d d803 703d b4e7 34be
000003c0: 4767 313e 2c04 18bd 89ea 04be 2046 473c
000003d0: c08e 3fbc 34b3 8e3d ca34 e13d 2285 b13d
000003e0: 00f4 ac3b 1c62 683d bd7d 33be e0d6 f93b
000003f0: cc02 04be 03ea b4bd 60d8 babc f4bf 64bd
-2.0579748 1.0328312 -2.0519388 1.4251289 -0.14364587 0.6032814 -1.6814349 -0.64150244
-1.1357782 -0.10234634 -0.32889593 0.6686045 0.38733667 -0.29313314 1.2043145 0.30471665
-0.11965549 0.1630466 0.102034874 1.0875663 -0.24125211 0.650969 -0.3759424 -0.048157472
0.13412637 0.10152043 -0.06769036 0.034385443 -0.18366145 0.06586016 0.8885745 0.6168288
1.9875425 -0.50153923 0.20992598 0.8525968 -0.8073509 0.35657027 -2.3275263 0.30966583
0.021582533 -0.19502547 -0.4604637 -0.3503465 -0.82978594 -0.27310327 -0.13761899 -0.23669757
1.5717672 -0.1348523 1.4748254 -0.30398452 0.0012691705 0.21082735 -2.9931474 0.04412204
-0.992306 -1.5130398 -0.1762409 0.09673596 1.0334653 0.4259459 0.212646 0.8460889
-0.52973133 0.1091104 0.5696897 -0.44202992 0.51691425 -0.087412 0.1307611 -0.066286564
1.1025207 -0.5181298 1.3600239 0.39602277 -0.33324268 -0.6050881 0.6612219 0.46632504
0.7078748 0.20594831 0.38797897 0.03758456 0.80704576 0.27316874 0.28303906 0.40475887
0.133822 0.058034547 0.8545299 0.106329195 0.2965515 -0.014864739 -0.37225533 0.14997819
-0.48737913 -0.28999537 0.24687056 1.2985637 0.032035083 -0.061329197 0.9864829 0.2327601
-0.26596573 -0.31759658 -0.17800665 0.084544875 0.9738297 0.72537166 0.45344874 -0.6261243
0.29762313 -0.0031674227 0.58440953 -0.0072756633 0.10631198 -0.30732727 0.27142513 -0.107419245
-1.6205596 3.2579966 -2.8509748 -0.2106988 0.590782 1.1150519 -1.6311179 -1.2669328
-1.6153376 -0.16804916 -0.24276903 0.4226969 0.02769961 0.59197366 0.50388014 -0.69702965
0.0892792 1.0708331 1.0479203 0.28141144 2.2875552 -0.6178027 0.49323404 0.39556262
1.2205621 0.6084001 0.21819225 0.13487163 0.071349785 0.0865021 0.77549297 -0.0852382
0.023406545 0.046630114 0.14649588 -0.41356173 -1.839648 -1.169423 -1.6640261 0.3837708
-0.70306766 -0.45960972 0.80953383 -0.2176827 0.89550817 -0.022614 -0.15234376 0.13281147
0.1757881 -0.40041023 0.26086062 0.12944846 -0.13031548 0.52777135 1.1928985 -0.21069139
0.7259384 -0.12565134 -0.14728214 -0.101932436 0.5118983 -0.10516681 1.6493099 -1.1572007
0.64076126 0.5293313 0.34016445 -0.7709449 -1.3929181 0.4615399 0.21798952 -0.31686765
0.058103904 0.12912138 -0.015401617 0.05811037 -0.12530269 0.010454714 0.09213646 0.0622966
0.17213349 0.0014337748 -0.1219036 0.14752235 0.12877609 0.13047387 0.059620634 -0.15944944
0.12273632 0.10505076 0.042794526 -0.018412203 -0.1577437 0.07335533 0.15903251 -0.077033
-0.04946746 0.075153366 0.083131716 0.12996371 -0.08501177 0.15087457 -0.014921695 0.043058336
-0.15851638 -0.11281215 -0.052534357 -0.08066192 -0.065412834 -0.15146926 0.07775189 0.035710514
0.0047471225 -0.1401476 0.12052886 0.11717309 -0.06625636 0.06441562 0.058597416 -0.17666513
0.17324553 -0.037113354 -0.12980093 0.012162715 -0.011691749 0.06967774 0.10996397 0.08667971
0.0052781105 0.05673419 -0.17528434 0.007624492 -0.12891692 -0.08833697 -0.022808254 -0.055847123

lstm.weight_hh_l0 f4 [128, 32]
00000000: e0c7 3d3c c9ed 283e 9ae8 e33d 7e7a e93d
00000010: a8e5 633d fe44 7fbd f8e4 bfbc e7f8 203e
00000020: 29e7 083e 3064 91bc 3840 7bbd c076 673c
00000030: e072 29be a096 eabd b02f 743c 40f7 09bd
00000040: 22f4 9e3d cc47 05be ea73 a43d b2fe 9a3d
00000050: 1724 163e d07f a33c 769c edbd cd76 c0bd
00000060: d830 053d 8067 2fbe b0dc 03bd 7856 023d
00000070: b8ba dfbd 7087 1bbc 5ca7 5f3d ce10 be3d
00000080: c08b 58bb 6acb 9a3d 687d 953d 5ab7 ad3d
00000090: 0893 60bd 2960 0d3e 9208 f43d 86d1 cb3d
000000a0: aa5a 78bd daa8 853d b20f bcbd 983b 09be
000000b0: 2ed6 a33d 9a9b c03d 00a0 3e3c f224 fb3d
000000c0: 3142 103e bcaa 4dbd 727f b93d 64fd 523d
000000d0: 52d0 e63d c0e0 253c eaed 973d 52e6 c3bd
000000e0: c601 fb3d 062e efbd 1ffd e1bd eeee 843d
000000f0: d6e2 7bbd e8df 133d a057 c4bc e093 45bc
00000100: cca3 6ebd 6a07 ccbd ea15 f7bd b4d6 94bd
00000110: 4a8f ccbd 6a82 d43d a083 a4bc ceb4 be3d
00000120: 6a36 1cbe 403e b63b 6049 fdbb eed1 ec3d
00000130: a0f8 423c 361d be3d 7578 94bd 00ed 38bd
00000140: f293 5abd 6d99 2b3e ae76 a33d 3664 ad3d
00000150: ea24 fe3d a4a4 3b3d 769f d73d f056 bebd
00000160: 8f4e 18be 4315 19be 5001 97bc 0004 90bb
00000170: 48cc ff3c 02ca a73d e8d3 05be 0030 4b3a
00000180: 2832 fc3c 6872 113d 5c88 4dbd 9094 c3bd
00000190: 1ebb 9abd 0ffc 2bbe 7e14 c53d d6d1 983d
000001a0: a00d da3c e08b be3b 108b c33c 30c6 043c
000001b0: ce56 b03d 8578 0d3e 9807 513d 663a ce3d
000001c0: 9287 ec3d 682f 49bd 520b a73d 0dc4 33be
000001d0: fe6e ec3d e071 ffbd e853 573d 5ac3 ce3d
000001e0: e7e1 133e 8052 613d a8af e43c 4c14 97bd
000001f0: b41b 47bd fa35 e13d 5e49 fe3d 48ba ee3c
00000200: 8050 37bb 2602 9bbd 2dd4 cabd 5b75 d3bd
00000210: 1879 e13c 2bf8 b8bd f678 893d a9c2 01be
00000220: 0018 67bb d5e6 d3bd 8071 7f3c 10fa 7d3d
00000230: 30ab 29bc e89b 16be 8b5d 313e 9470 44bd
00000240: 80e5 7ebb 1716 97bd aff6 1ebe 4245 993d
00000250: 0079 31ba bf7d 343e 438f 92bd 14b3 303d
00000260: 59a4 8dbd 40be 023b 8d23 143e ca57 c6bd
00000270: a6e7 d03d 728f 0abe d790 153e fa8f 86bd
00000280: 18d9 0bbe 0df3 283e 2c4b 13be 9620 9bbd
00000290: 4496 11be 8a55 a33d b65c f4bd 1c7d 3fbd
000002a0: 81b7 093e dc9d 57bd 33d2 1c3e 98aa abbc
000002b0: 0e1c d33d 375d 20be 823f 7cbd 589f 053d
000002c0: acfa bfbd e8a7 38bd 6c06 913d 668f e23d
000002d0: f579 113e 20e8 25bd 8686 b43d ea48 1dbe
000002e0: 6cf5 2a3d a4f7 753d 922f c13d a8b0 533d
000002f0: c074 5c3d 1e6f 24be 6c68 99bd e2a7 f93d
00000300: c0d1 0fbb 6c28 0f3d 1018 3d3d 8069 083d
00000310: 8cd7 ebbd af82 25be 34d3 5b3d b097 14bd
00000320: aaea e63d 4010 d7bd e322 92bd 1875 803d
00000330: e958 e7bd f45f 83bd a81b 213d 6121 2f3e
00000340: 4d18 033e a020 83bd 0e6c dd3d 8063 5f3d
00000350: 485d 2ebd 7e54 a33d 8073 223b 94d6 84bd
00000360: fca2 c4bd 00c8 c23a 20ea c5bb f8a5 26bd
00000370: 8e6a 9e3d cdcf 2e3e 46be 9f3d 604e 663c
00000380: 60b0 d7bc f4e3 a2bd e52f 193e c139 2fbe
00000390: 82da c53d 954b 303e 98c1 bbbc 1063 ea3c
000003a0: 0103 eabd 6c29 e5bd f667 8a3d b470 2e3d
000003b0: 60db 92bd c414 f9bd a8b6 b83c 5741 0ebe
000003c0: b5d7 2cbe 4e3a bd3d 5f1d 31be e4b6 0abe
000003d0: 4a8f 54bd 5a12 e63d bede 5fbd 308a 853c
000003e0: 903d 51bd 94a8 51bd f1c9 2f3e d06d bfbd
000003f0: b2d5 1cbe 7604 d33d e809 a1bd d073 4fbc
0.011583298 0.16496958 0.111283496 0.11400317 0.05563894 -0.062321655 -0.02342461 0.15719949
0.1336943 -0.017747968 -0.06134054 0.014127433 -0.16547728 -0.11454511 0.014903948 -0.03368306
0.077614084 -0.1301567 0.08029921 0.075681105 0.14662205 0.019958407 -0.11602108 -0.093976595
0.032517284 -0.17129326 -0.032192886 0.031820744 -0.10924286 -0.00949274 0.054602966 0.09280549
-0.0033042282 0.075583294 0.0729931 0.08482237 -0.05482772 0.13806213 0.11915697 0.09952073
-0.06063334 0.065263465 -0.09182681 -0.1340164 0.07999836 0.09404679 0.011634827 0.12262906
0.1408775 -0.050211653 0.090575114 0.051511183 0.11270203 0.010124385 0.074184254 -0.095654145
0.12256198 -0.116787 -0.11034607 0.06490885 -0.061495624 0.036102206 -0.023967564 -0.012059182
-0.058261678 -0.099623516 -0.12064727 -0.07267514 -0.09988268 0.10376437 -0.020082295 0.093118295
-0.15255132 0.00556162 -0.0077296942 0.115634784 0.011900097 0.09282915 -0.07249538 -0.045147896
-0.053363748 0.16757746 0.07981621 0.08466379 0.124093845 0.04581131 0.10528462 -0.09293926
-0.14873718 -0.14949517 -0.018433243 -0.004395008 0.031225339 0.08192827 -0.13069117 0.0007750988
0.030785635 0.035509497 -0.05017887 -0.095498204 -0.07555221 -0.16795371 0.09623049 0.07461898
0.026617825 0.0058150142 0.023870021 0.008103892 0.08610307 0.13815506 0.051032633 0.10069732
0.115492955 -0.049117476 0.08156456 -0.17555256 0.115446076 -0.12472892 0.052570254 0.10095854
0.14441644 0.05501032 0.02791579 -0.07376918 -0.048610404 0.10996623 0.124163374 0.02914156
-0.0027971566 -0.07568769 -0.099037506 -0.10325118 0.027523562 -0.09031709 0.067125246 -0.12671913
-0.0035262108 -0.10346762 0.015591025 0.062006056 -0.010355756 -0.14707911 0.1732084 -0.047958925
-0.0038894117 -0.0737726 -0.1552379 0.07483913 -0.00067700446 0.17626093 -0.07156231 0.043139532
-0.069161125 0.0019949824 0.14466687 -0.09684713 0.102004334 -0.13531283 0.14606033 -0.0657043
-0.13657033 0.16498967 -0.14384145 -0.07574575 -0.14217478 0.079753 -0.11931746 -0.046750173
0.13448907 -0.05264078 0.1531456 -0.020955369 0.103080854 -0.15660559 -0.061584003 0.032622665
-0.09373984 -0.045082003 0.07081303 0.11062507 0.14206679 -0.040504575 0.08814721 -0.15359846
0.04173796 0.06005062 0.094329014 0.051682144 0.05382228 -0.16058013 -0.0749062 0.12190224
-0.002194509 0.03495066 0.046165526 0.033303738 -0.11515722 -0.16163133 0.053668216 -0.036277473
0.11275227 -0.10501146 -0.0713556 0.06272334 -0.11296255 -0.06414786 0.039333016 0.17102577
0.12802239 -0.06402707 0.108116254 0.05453825 -0.04256943 0.079751 0.0024788082 -0.0648624
-0.09601399 0.001486063 -0.0060398728 -0.040685624 0.077351674 0.17071457 0.07799964 0.014056772
-0.02632922 -0.07953635 0.14959677 -0.17111875 0.09660818 0.17216332 -0.022919461 0.02861169
-0.11426354 -0.11189541 0.0675811 0.04258795 -0.07170749 -0.12162164 0.022548035 -0.13892113
-0.1687916 0.09239636 -0.1729636 -0.1354633 -0.051894464 0.11233969 -0.054655783 0.016301244
-0.0510841 -0.05118616 0.17166878 -0.09347117 -0.15315893 0.10303585 -0.078632176 -0.012661889

lstm.bias_ih_l0 f4 [128]
00000000: ff44 e2bc 9998 55bf 5860 d63f c19c 813f
00000010: 79f9 933f d19a f03e 2b7e 7f3e 8fc5 be3f
00000020: 3ac5 713f 240f 17bf d095 653f dd86 733f
00000030: 5876 873f 7e8b 4f3f 7359 c63f 8482 393f
00000040: 4bd8 703f 188e 8c3f 21ab 883f bbec 543f
00000050: 8a82 3ebf d445 21bf 4c9d 93bd 2565 443f
00000060: 0b26 a03f da82 a83f ba2b 5dbf 41bb ae3f
00000070: 4c84 e83e 1865 873f 560d 193f dd02 c63e
00000080: e8de 683d 332e 8abd 8b66 0f3e 3821 94bd
00000090: 20d6 eabc d073 2d3c 9c8f 27bd 7b5b a2bd
000000a0: 40a6 403c 16ec 6cbd 8e9b 72bd c0a0 94bb
000000b0: a658 c93d 329e 9b3d a650 cf3d dfc9 153e
000000c0: 31fc 9cbd 4ea5 f13d 9962 13be a03f 743c
000000d0: a03b 70bc 5eb2 f53d d8c0 03bd 739e 18be
000000e0: 30c9 9fbc 60ef a63b c0d9 14bb 91ff 1d3e
000000f0: 5d10 043e 008e bcba 933f 113e d00e 34bd
00000100: b0a4 883f 06a6 0ebf 6200 ca3f 66d4 c8bf
00000110: a376 993f 335b b7bf d621 56bf 406c 8ebf
00000120: 243d b93f 8bf5 51bf 7e81 c93f 9dcc f13f
00000130: 27d9 953f 3e5b 993f c581 76bf 2abe cebf
00000140: 235a 933f 0406 aa3f 4f6a ae3f 733a 8f3f
00000150: bc7b 33bf 5e33 42be a871 a1bf a68e c83f
00000160: a366 a13f 77ff 963f bcde 08be c350 c43f
00000170: fdab 9f3f c3ce f43f a250 bebf 82ee 4d3f
00000180: 90f8 babe af9f 04bf 845e 7b3f 1bfb 553f
00000190: 6885 0c3f 5c97 143f 8c42 c23d 722d 133f
000001a0: cb7c 633f a183 00bf 22b4 303f af22 2d3f
000001b0: 660f 9d3f 3f86 153f 7026 573f 3ebe f53e
000001c0: d2f0 113f 2074 2e3f d4fd 873f 3731 373f
000001d0: fc1a a7bf ef0f 63be 19b0 b9bd 4fde 813f
000001e0: 8525 7b3f 3900 423f 3750 99be 9c33 3c3f
000001f0: 3595 f73e fbca 443f 75dc ee3e 8029 ba3d
-0.02762079 -0.8343597 1.6748152 1.0125962 1.1560508 0.46993116 0.24950473 1.490404
0.9444157 -0.5900748 0.8968172 0.9512766 1.0582991 0.81072223 1.5496048 0.72464776
0.94080037 1.0980864 1.0677224 0.8317372 -0.74417937 -0.62997174 -0.072077364 0.76716834
1.251161 1.3164933 -0.86394846 1.3650895 0.45413435 1.0577726 0.59785974 0.3867406
0.056853205 -0.06747093 0.14003961 -0.072328985 -0.028666556 0.010586694 -0.04090844 -0.07927605
0.011758387 -0.057842337 -0.05923038 -0.0045357645 0.098313615 0.07598533 0.10122804 0.14627789
-0.07665289 0.117991075 -0.14393081 0.0149077475 -0.014662653 0.119969115 -0.032166332 -0.14904194
-0.019505113 0.0050944537 -0.0022712797 0.15429522 0.12896867 -0.0014385581 0.14184408 -0.04395944
1.0675259 -0.5572208 1.5781367 -1.5689819 1.198933 -1.4324707 -0.8364538 -1.1126785
1.4471784 -0.82015294 1.5742643 1.8890568 1.1706895 1.198097 -0.9629176 -1.6151783
1.1511883 1.3283086 1.3626193 1.1189712 -0.7011068 -0.18964908 -1.261281 1.5668533
1.2609447 1.1796712 -0.13366216 1.5337147 1.2474362 1.9125599 -1.4868357 0.8044206
-0.36517763 -0.5180616 0.98191094 0.8358628 0.5489106 0.58043456 0.09485349 0.5749122
0.88862294 -0.5020085 0.6902486 0.6763105 1.2270324 0.5840797 0.84043026 0.47996706
0.5700809 0.6814594 1.0624337 0.7155947 -1.305511 -0.22174047 -0.09066791 1.0145968
0.98104125 0.7578159 -0.29944012 0.7351625 0.48356023 0.76872224 0.4665257 0.09089947

lstm.bias_hh_l0 f4 [128]
00000000: 7402 c33d 71f7 6abf bd3d cc3f fe30 a63f
00000010: b9ca 853f 1641 1c3f 2639 15bc a19c a53f
00000020: f17d 853f a5c7 23bf fd52 463f dee1 6b3f
00000030: 10f0 843f 4b2d 8b3f 03a6 bb3f 9e7c 5e3f
00000040: f388 593f 4c72 933f 83aa a13f e9ea 4e3f
00000050: 8194 5dbf d2d1 1bbf 386e 9b3d 6f35 383f
00000060: 55f2 a63f 7e1b a43f f0f8 24bf 9804 973f
00000070: ebc7 003f 7309 5b3f 79e2 093f bda8 9f3e
00000080: ea95 bf3d 0554 263e b037 1ebd 32b0 d53d
00000090: 48b4 933c 922e f13d c7ce 22be e0cc 953d
000000a0: 2e00 9dbd f81f 0ebe 86aa a8bd f8b2 ebbc
000000b0: 2249 bb3d 21ad 123e 437a 023e 8a03 d13d
000000c0: 826b a73d 3435 47bd fa78 29be 37ac acbd
000000d0: a020 8b3c f0e8 303c 6475 d0bd c0c2 98bc
000000e0: 108e 803d 83a6 023e 805f 9cbd d826 87bd
000000f0: 9e8d 00be 4090 69bc 1acf f93d 0365 053e
00000100: 47f0 883f 42ec dfbe 678f cc3f 9b81 cebf
00000110: f93f 823f a4b4 a2bf b3f8 83bf 0985 b1bf
00000120: ac3a b73f c270 71bf 077d c33f 2947 e83f
00000130: 8a1b 7b3f 88d1 793f 86c5 40bf 8468 e7bf
00000140: 74e4 943f f8c0 c43f 34db b03f a7c7 a83f
00000150: 9ac7 e1be 6ff3 193c e67d c3bf e9f9 ce3f
00000160: 9d49 a53f d18c a23f 679e 80be 9810 c53f
00000170: 08e5 993f 5fda f23f f962 aebf a92d 4d3f
00000180: c86a cabe 7553 dabe 092a 6c3f 7404 183f
00000190: 0491 1b3f 5211 b03e 2dc3 213e 31fb ea3e
000001a0: af2e 393f fbd1 0dbf 2ccb d13e 81d0 2c3f
000001b0: e72c 953f 90fe f43e 66ca 743f 2b84 b03e
000001c0: 318d 073f 9211 513f a9e3 8f3f 4705 583f
000001d0: 4879 bebf de9e 71be 24df 85be 9146 843f
000001e0: 5c62 5a3f 6183 573f acb8 debe 0282 643f
000001f0: a746 c93e 150b 6a3f 8146 ad3e 9d5a c73d
0.09521952 -0.91783816 1.5956341 1.2983701 1.0452491 0.61036813 -0.0091078635 1.2938424
1.0429059 -0.6397651 0.7747038 0.9214152 1.0385761 1.0873197 1.4660038 0.869089
0.8497459 1.1519256 1.2630161 0.80827194 -0.86554724 -0.60867035 0.07589382 0.71956533
1.3042704 1.282089 -0.6444235 1.1798277 0.5030505 0.85561293 0.53861195 0.31183425
0.09354766 0.16242988 -0.038627326 0.10433997 0.0180303 0.11776461 -0.15899192 0.073144674
-0.0766605 -0.13879383 -0.0823565 -0.028771862 0.09144808 0.14323856 0.12741952 0.10205753
0.08174802 -0.048634723 -0.16550055 -0.08431285 0.01698333 0.010797724 -0.101786405 -0.018647552
0.06277096 0.12758832 -0.07635403 -0.06599206 -0.12554023 -0.014255583 0.121977046 0.13026814
1.0698327 -0.43734938 1.5981263 -1.6133302 1.0175773 -1.2711377 -1.0310272 -1.3868724
1.431478 -0.9431268 1.527253 1.8146716 0.98088896 0.97585344 -0.75301397 -1.8078771
1.1632218 1.5371389 1.3816895 1.3185929 -0.44097596 0.009396418 -1.5272796 1.6170017
1.291309 1.2699224 -0.2512085 1.5395689 1.202302 1.8972892 -1.3623954 0.80147797
-0.39534593 -0.42641798 0.9225164 0.59381795 0.6076815 0.34388214 0.1579711 0.4589477
0.7233686 -0.5539853 0.4097532 0.6750565 1.1654328 0.47850466 0.95621336 0.34475836
0.52949816 0.81667435 1.1241351 0.8438305 -1.4880762 -0.2359576 -0.26146805 1.0334035
0.85306334 0.84184843 -0.43500268 0.89260876 0.39311716 0.9142316 0.33842853 0.0973408

fc1.weight f4 [32, 32]
00000000: 0346 2d40 15bc 0ac0 ea89 dfbd 9abc 91be
00000010: 24d7 233f f6dd c13e 2351 9cbf 5eec bbbf
00000020: 11e1 09be 9af3 0ac0 5ca5 96bf a443 f2be
00000030: 6167 13bf 80c8 2bbf 5885 8d3f ff36 233f
00000040: 11e5 6bbe 12e6 2bbe 90fb 193d a62d 85bf
00000050: 2c82 22c0 3cb4 9cbf 1daa b4bd 4cf3 b13e
00000060: 0a5a 25bf f3c3 66bd bf3e ccbf 32de 90be
00000070: fd71 26bf 2ba0 d0be 40ed c33e d060 f43e
00000080: f8a8 573f de1a adbe 8f42 8a3f 93aa 99be
00000090: bb74 b43e 11a2 1dbf 8d0c efbe ebb8 3bbf
000000a0: 8e3b 843e 3618 8fbf 9e43 79bd 26c3 12bd
000000b0: 4ed2 1a3f ac38 543e 2606 debe cdfb 5fbe
000000c0: be7c f03e 37a2 f43d 73fb 123f af48 c13e
000000d0: 7e21 2bc0 193b 4fbf b456 eebe 3e33 bb3e
000000e0: 9640 1f3f a2d4 b23e 5fa6 abbf a2ee 183f
000000f0: 3f42 b9bd 47b9 8a3d 70d8 60bf 1bd9 b73e
00000100: c4b6 6cbf 2bda b0be 59c7 65bf 820d c8bd
00000110: 96d0 c43d aff6 b23f 99a3 f33e dfa0 bb3f
00000120: a159 4abf 73bd edbd 7438 98bf 9d49 173e
00000130: 149e 5c3e 49f3 123e d16c 19bf 1b04 9a3f
00000140: 737a e63c cfb6 333e eb6b 893e bba8 863e
00000150: 6699 003f 4950 cdbe d342 bb3f a2fb 9fbf
00000160: 4712 b73e 1e32 dd3e 6320 5c3f 39bf 8cbe
00000170: 424b 4b3f 9abf c0bf 2cae b23f d1e7 9cbe
00000180: 5cd2 afbf d224 9d3e f037 1d3c 2955 f43e
00000190: 3df2 9b3e bcfc c5bd 6985 8bba b12a f9be
000001a0: 9292 e4bc ba88 ef3e f7d7 bf3e 1bc6 74b9
000001b0: c159 54bf 47cf bfbf 4001 463f 187a 963e
000001c0: 4318 76be 5529 c63e adc5 e9ba 5f57 063f
000001d0: b661 f93f 8b1b 7bbe dc70 e23e d9a2 273e
000001e0: ee9d 35bf fedd 22bf 3eb5 88bf 3aff 553e
000001f0: 0e6c 67be bb1a 233e df1a 84be aa49 b4be
00000200: 32de 8b3f 60e5 d5be 13dd 733f e378 40bf
00000210: ebd7 e63e 4540 3abf 738c bfbe ca17 b2be
00000220: 71c0 203f 7894 85bf 4121 0e3e d7d9 dc3e
00000230: 152d 4e3f c6df 3a3f ff5d 34bf e1e8 74be
00000240: ca40 2b3f 390a 013f 0cc8 313f 2424 df3e
00000250: 49e6 4cc0 2e62 20bf df44 4fbf ec02 003f
00000260: cdaa 683f 4ec7 073f 1477 a8bf b15a 263f
00000270: 7e4c be3e 88ce 923e 55d1 37bf 021e af3e
00000280: 308f 7c3f ffa8 32bf 9e1c 5e3f a8d7 1ebf
00000290: dcf4 e43e 0496 c0be 7bc9 abbe fae8 ecbe
000002a0: 45ab 5c3e 6a54 87bf e66d 973e 7782 dc3e
000002b0: a0f6 2b3f 1e59 233f 929c 53bf 7927 a8be
000002c0: 5f73 243f f316 3f3e 5c24 0c3f beab 403e
000002d0: 2792 4ec0 8f1e 4cbf b78a 28bf f773 d63e
000002e0: b0a1 723f 1d16 f93e 499c aabf b54b e43e
000002f0: 37eb 033e d727 f33e 4c8a 30bf 0dcf 0e3f
00000300: 3671 5b3f da43 0cbf cd49 753f ede4 9ebe
00000310: e88d 9e3e 075e 71be 678e a7be fc86 b0be
00000320: a1a6 073f 4528 9fbf 142f c23d dd6e 9e3e
00000330: 6e13 3d3f bde3 c43e 6a6b 40bf 7634 4cbe
00000340: 7a7c 123f d6c5 903e 0722 323f 8366 ca3e
00000350: fc2d 32c0 2d20 54bf be93 d6be fa81 e73e
00000360: aa71 6c3f 3553 2c3f d42c a7bf 0463 c23e
00000370: 792c fb3e 6ee6 e13e b7e9 3cbf 6e4b cb3e
00000380: 2fac 6e3f b53b 08bf 25d3 8f3f 413d 87be
00000390: 0a01 b33e 7a96 f0be 5f76 d6be 06ea 6ebf
000003a0: c468 183f d208 87bf a54e b9bc a988 3e3c
000003b0: efad 603f 6cdb 843e a4b7 e0be b0b6 e4be
000003c0: d870 263f bb42 093f dd43 023f 9766 f83e
000003d0: fa0d 17c0 b2ff 31bf 72ef 47bf 04c4 063f
000003e0: c5c3 483f 192c e33e 0e36 b5bf 597d 233f
000003f0: 708f 723e 6970 ab3e 321f 61bf 0eea 083f
2.7073982 -2.1677296 -0.10914977 -0.28464204 0.64000154 0.37864655 -1.2212261 -1.4681509
-0.13464762 -2.1711183 -1.1769214 -0.4731723 -0.5757962 -0.67102814 1.1056318 0.6375579
-0.230366 -0.16786984 0.037593424 -1.0404556 -2.539195 -1.2242503 -0.08821509 0.34755933
-0.64590514 -0.056339215 -1.5956649 -0.28294522 -0.6501768 -0.40747198 0.38266945 0.47730112
0.842422 -0.3380956 1.0801562 -0.3001295 0.35245308 -0.6157542 -0.46689263 -0.7332904
0.25826687 -1.1179264 -0.0608555 -0.03583064 0.6047715 0.20724744 -0.43364066 -0.21873398
0.4697017 0.119450025 0.5741493 0.37750766 -2.6739192 -0.8094955 -0.46550524 0.36562532
0.62207925 0.3492785 -1.3410147 0.59739125 -0.090458386 0.0677362 -0.8783026 0.35907826
-0.9246638 -0.3454145 -0.89757305 -0.097682014 0.09610097 1.3981532 0.47585753 1.4658469
-0.7904301 -0.116084 -1.1892228 0.14774175 0.21544677 0.14350618 -0.59931666 1.2032503
0.02813456 0.17550205 0.26840147 0.26300606 0.5023407 -0.40100315 1.4629768 -1.2498667
0.35756132 0.432023 0.8598692 -0.2748964 0.7941171 -1.5058472 1.3959403 -0.30645612
-1.3736072 0.30692154 0.009595856 0.47721222 0.3045825 -0.09667346 -0.0010644618 -0.48665383
-0.027901921 0.46784002 0.37469456 -0.00023343453 -0.82949454 -1.4985131 0.7734566 0.29390025
-0.24032693 0.3870341 -0.0017835401 0.5247707 1.9482944 -0.24522226 0.4422673 0.16370715
-0.70944107 -0.63619983 -1.0680311 0.20898142 -0.22599813 0.15928166 -0.2580175 -0.3521245
1.0927184 -0.41776562 0.9525921 -0.7518446 0.45086607 -0.7275432 -0.37411842 -0.34783775
0.6279364 -1.0435934 0.13879873 0.4313495 0.8053754 0.729977 -0.70455927 -0.23916961
0.66895735 0.50406224 0.6944587 0.4358226 -3.2015555 -0.6264981 -0.80964464 0.5000446
0.9088562 0.5303849 -1.316134 0.64982134 0.37167734 0.28673196 -0.7180379 0.34202582
0.98655987 -0.6978912 0.86762416 -0.62047815 0.44718063 -0.37614453 -0.33552155 -0.46271497
0.21549709 -1.0572636 0.29576033 0.43068287 0.67173195 0.6380786 -0.8266078 -0.32842615
0.6423854 0.18661098 0.5474298 0.18815514 -3.2276704 -0.7973413 -0.6583666 0.4188535
0.94777966 0.48649684 -1.3328944 0.4458901 0.12882696 0.47491333 -0.68961024 0.55784684
0.8571962 -0.54791033 0.95815736 -0.31034032 0.3096764 -0.23571025 -0.32725832 -0.34477985
0.5298863 -1.2434164 0.09481636 0.30943957 0.7385777 0.38455 -0.751639 -0.19941887
0.57221186 0.28275937 0.6958317 0.39531335 -2.7840567 -0.82861596 -0.41909593 0.45216352
0.9236094 0.67314464 -1.3060555 0.37966168 0.49057367 0.44121116 -0.7379412 0.39705986
0.9323148 -0.53216106 1.1236311 -0.2641392 0.3496173 -0.46989805 -0.41887185 -0.9332584
0.5953486 -1.0549567 -0.022620508 0.011629262 0.877654 0.25948656 -0.43890107 -0.4467063
0.65015936 0.5361745 0.508848 0.4851577 -2.360228 -0.69530785 -0.7809974 0.52642846
0.7842372 0.4436958 -1.4157121 0.6386314 0.2368753 0.334842 -0.87938225 0.5348214

fc1.bias f4 [32]
00000000: 608c 973e 53c3 253f 6cbc 063e dca2 8f3e
00000010: f024 443f 44bc 343f be88 293f a2c3 213f
00000020: acda 353f 602c f53e 29f2 e33e 5a46 313f
00000030: cd6a a73e 67a0 603e e30c 1abe 7b42 a93d
00000040: 8567 1c3f 5cdb 353f f581 c23e 5a37 413e
00000050: dc49 493f 6151 2d3f c993 f9bd ffd0 8d3e
00000060: a71d 13be 63bc 3f3f aa3e 273f 4c1a 223d
00000070: 099f 2d3f 2281 143f 87d0 bc3e 1f6c 313f
0.29599285 0.64751166 0.13157815 0.2805394 0.7661886 0.7059977 0.66224277 0.63189137
0.7103679 0.47885418 0.4452069 0.6924797 0.3269867 0.21936189 -0.15043978 0.08264633
0.6109546 0.7103784 0.37989774 0.18868771 0.78628325 0.677023 -0.12186391 0.27698514
-0.1436678 0.7489683 0.6532999 0.03957586 0.67820793 0.5800954 0.36877844 0.69305605

fc2.weight f4 [3, 32]
00000000: 9abc 68c0 c52e f2be c3f7 5f3f 8050 963f
00000010: 42d4 40bf ab0e 41bf 839b 29bf b58f 0cbf
00000020: 247a 1dbf 4808 20bf 8ea0 e63e bc8a 25bf
00000030: da80 35bf cba0 01be 77f9 2dbe 994d 0f3f
00000040: 8b11 2bbf 66a8 f4be a5d3 1fbf 1bc5 aebd
00000050: 64e4 14bf c630 16bf fe28 083e 1f04 8ebe
00000060: fc18 fcbd 23da 24bf c100 0dbf 53f1 1dbe
00000070: a5fb 1bbf dce8 bc3f f320 b23e a529 10bf
00000080: cb64 2fc0 4b8e 28bf 1d2d 4d3f 7073 91bc
00000090: fc0a 17bf e36e f1be b44b e9be 04e2 3dbf
000000a0: cd32 37bf 011e 19bf 9a8a ac3f 0b14 23bf
000000b0: 4184 9a3e fc5f a13d 4a4c 803e 5ad5 573f
000000c0: 0ac0 36bf 8585 36bf 508c 43bf 7ac2 c5be
000000d0: 7ec6 0bbf 3461 d6be a15c b3bb 8ba6 7ebe
000000e0: c068 16bd f3cf 27bf 9865 2cbf 82ac 8e3e
000000f0: 2439 40bf cae0 b23f 7592 d23f fa18 ecbe
00000100: d1eb 06c0 61b1 00bf b659 0d3c 1ec5 353f
00000110: 71b2 1dbf 60ba 0dbf 68e7 29bf 596b 2fbf
00000120: b531 28bf f790 c6be 7eea 3f3e e214 00bf
00000130: 4ec4 6f3f 1372 233f 7059 0abe ba4a aabd
00000140: 7374 0cbf 4963 3abf 9674 4e3f d1c3 f93e
00000150: 6e35 23bf ba98 2abf db99 debd 7a02 43be
00000160: a696 13bd 1088 1cbf 6476 0dbf 7fc9 96bf
00000170: c5c2 3bbf e62c 6dbd a71d 053f 1583 38bf
-3.6365113 -0.47301307 0.8748743 1.1743317 -0.7532388 -0.75413007 -0.6625292 -0.5490678
-0.61514497 -0.62512636 0.45044369 -0.64664817 -0.70899737 -0.12658994 -0.16989695 0.5597778
-0.66823643 -0.47784728 -0.6243232 -0.08533689 -0.58160996 -0.5866817 0.13296887 -0.2773752
-0.12309453 -0.6439535 -0.55079275 -0.15424089 -0.60930854 1.4758563 0.34790763 -0.56313545
-2.740527 -0.6584212 0.8014696 -0.01775524 -0.59001136 -0.47154912 -0.4556557 -0.74173
-0.7156189 -0.5981141 1.3479798 -0.6370246 0.30179027 0.07879636 0.25058204 0.84309924
-0.7138678 -0.71297485 -0.76385975 -0.38624936 -0.5459975 -0.41871035 -0.0054736887 -0.24868219
-0.03672099 -0.6555168 -0.6734252 0.27865988 -0.7508719 1.397485 1.6450945 -0.46112806
-2.108143 -0.5027066 0.008627346 0.710039 -0.61600405 -0.5536251 -0.6636872 -0.68523175
-0.65700847 -0.38782474 0.18741795 -0.50031865 0.9365891 0.6384594 -0.1351068 -0.08315034
-0.5486519 -0.7280775 0.80646646 0.4878221 -0.637534 -0.6663929 -0.10869189 -0.19043913
-0.03603234 -0.61145115 -0.55258775 -1.1780242 -0.7334407 -0.057904147 0.5199837 -0.72075015

fc2.bias f4 [3]
00000000: 446d 47bf 104b 14bf a8af 66bf
-0.779011 -0.57927036 -0.9011178
