saves/01022021151429_acrobot_dqn.pt (torch, 27479 bytes, 8 tensors)

lstm.weight_ih_l0 f4 [128, 6]
00000000: e87b 403e b1ae 803f 0ae6 cebf f2f2 703c
00000010: 7a87 0abf 4681 d5bd dd8f 7b3f 4640 a23f
00000020: db2e a63f 4627 83bf 8b70 9e3e 833c 803e
00000030: 78c9 d23e aa5f 5a3f b25d 82bf eac9 cfbe
00000040: 5378 4bbf 8be1 b83d 7816 efbe 38ee d8bf
00000050: ed59 8c3f 606c 343f 836d 5abf 2e4e 51bf
00000060: a99a 6a3f 1b21 f63e b75a 353f 54b3 9cbf
00000070: 47f0 87bf 27b2 a03e 0056 7e3f 1655 e33d
00000080: 205a 9e3f cf6c 4abd fd6c d1bc 38e5 0bbf
00000090: 18af c03e 8d77 8d3f 5433 e93e 1974 c73e
000000a0: 9309 8f3d 10e5 433d f0fe 14be 0195 f33f
000000b0: 1684 3dbf 6c64 e53c 3835 de3e 98ad ea3d
000000c0: 218a a63f 867b 32bf 0859 0c3f 8a48 9a3e
000000d0: 2ad2 203f 02f0 a8be d08e 1f3f e5e7 d7bf
000000e0: 4dd1 903e cb07 c2bf fb4b fa3d b925 71bc
000000f0: 8508 533f f7fd 2fbe 7cca fe3e 8c71 a93f
00000100: 0b0f 80bf 280c ccbe 4b5d 583f 7774 13be
00000110: 437b 82bb 1ed1 02bc 96a1 043f 6f6c cb3d
00000120: 7872 c43f 4eca 0b3f a2c3 26bf 6c48 8b3f
00000130: 9174 5b3e e6ed 003f 0486 87bf a550 7d3e
00000140: 3b4f 173f 3ec0 4dbf 5649 f1bd 420e aabe
00000150: 5762 7b3f be77 173f e77c ee3f 6590 263f
00000160: ca0a 46be 3a93 803e 12bb 7f3f 6d2a 013f
00000170: 3155 c63f ec7c 7bbf ec84 33be ae18 ccbe
00000180: ad84 a9bf d3b5 49bf cc69 843e 312b 243f
00000190: d9c7 293f 1165 e0be 3bd1 4b3f f3b3 a2bf
000001a0: 229d 3abf 0a13 e73f 5afd e93e 1a4c 263e
000001b0: f1a3 bebf 5222 05bf f0c1 643f 43a3 773e
000001c0: 4124 8e3c 4f74 cb3e ebf8 0140 5e26 6dbf
000001d0: 3207 9f3f 449d ffbd 3110 223f 4862 08be
000001e0: 5167 a4be e61d 3dbe 9a49 e53d 3510 6ebe
000001f0: 7891 5abd 613a 80bd d18c d13e 5e73 1a3f
00000200: b562 d5be afce 713d 3ce8 b6bf 3e43 9abe
00000210: 8d7d f23e 0b40 07bf e864 54bf 8037 48bf
00000220: a745 55be ee92 75be 84c2 043f 9e22 923f
00000230: 2258 42bf d21f eebf be02 55be 9374 a43d
00000240: 2998 81be f03e ffbf cc39 ec3e 1e40 dd3f
00000250: 1ecf b03e cc2e 3bbf 2802 1f3f 78e5 dc3e
00000260: a9e8 3d3f 8ef3 583f d1cd 13bf a6b3 e8bc
00000270: af92 00c0 87bf 8b3f e638 a3be 7221 0c3f
00000280: 43b1 84bd fee7 a83e 7d1a 963f 64e3 163f
00000290: bc00 61bd e84b ac3f 9a91 fb3e 9063 44be
000002a0: 3e9a 0b3e 1dcd 3a3e e49e 37be f290 60bf
000002b0: df98 e6be 1d9b c6be 2dc7 0ebf b884 853f
000002c0: b5f5 acbf 58f8 efbf b448 1dbf 00a3 eb3d
000002d0: 203f dd3e bac0 5c3e 6e64 0c3f 9624 1a3e
000002e0: 10ee 7a3f aa4a ac3b c1ba 853f 06ad 95be
000002f0: 71ac af3f 4a88 45bf 3c1f de3e d9bf 39be
00000300: 8008 013d 30fe a1bc 1840 383d ca57 eabd
00000310: 00ae eeb9 dc1b 2d3d d487 083d 9c8a 0abe
00000320: c74b 073e 54dc 293d f49c d3bd 35d4 d9bd
00000330: 4c4b a2bd f0b4 2ebd 7c23 07bd 4f55 bdbd
00000340: 32a5 d63d f23b 29be a151 343e 3911 2b3e
00000350: 359d 1fbe 1e96 c33d a3ce 1d3e f82f 3ebd
00000360: 0c5e 313d 3ea8 bc3d d260 82bd ec30 b1bd
00000370: ba47 ac3d 46ab ef3d 5cff a5bd a09a a2bc
00000380: c98f 113e d21d fc3d 13d5 e5bd 11f1 b1bd
00000390: 2a25 873d 2408 013d 6a76 01be 0261 823d
000003a0: f29f f33d 8028 b13c 22a4 2ebe 7d64 313e
000003b0: 37e0 313e c6ca a13d b643 b53d d08d eabc
000003c0: 4f26 97bd 14d6 5ebd 8461 8c3d b165 2f3e
000003d0: 00df 803a 8496 43bd 490c 263e 30c5 48bc
000003e0: 6789 243e a06d ae3c d2fe b03d eba4 04be
000003f0: 4551 d9bd 7734 01be 3bd6 293e 83a1 073e
0.18797266 1.0053312 -1.6163952 0.01470636 -0.5411297 -0.104250476 0.9826639 1.2675865
1.2983049 -1.024636 0.30945238 0.25046167 0.41169333 0.8530222 -1.0184844 -0.40583736
-0.79480475 0.09027394 -0.4669683 -1.6947699 1.0964943 0.7047787 -0.8532335 -0.8175992
0.9164224 0.48072132 0.70841545 -1.2242227 -1.0620202 0.3138592 0.99349976 0.11100213
1.2371254 -0.049420174 -0.025564665 -0.54646635 0.37633586 1.1052109 0.45546973 0.38955763
0.06984248 0.047825873 -0.14550376 1.9029847 -0.7402967 0.028001986 0.43399978 0.11458892
1.3010904 -0.6971973 0.5482335 0.30133468 0.62820685 -0.3299561 0.6232729 -1.6867644
0.28284684 -1.5158628 0.122215234 -0.014718466 0.82434875 -0.17186724 0.49763858 1.3237777
-1.0004591 -0.39853024 0.84517354 -0.14399897 -0.003981979 -0.007984428 0.5180906 0.099327914
1.5347433 0.5460557 -0.6514226 1.0881476 0.21431185 0.50363004 -1.0587773 0.24737795
0.5910527 -0.80371463 -0.11781566 -0.33214003 0.9819693 0.5916709 1.8631867 0.6506408
-0.19340053 0.25112325 0.9989482 0.5045536 1.5494748 -0.9823749 -0.17531174 -0.3986258
-1.3243614 -0.78793067 0.25861967 0.64128405 0.6632057 -0.43827108 0.79616135 -1.2711166
-0.72896016 1.8052685 0.45701104 0.16239968 -1.4893781 -0.52005494 0.89358425 0.24183373
0.017351272 0.39737174 2.0308177 -0.9263667 1.2424071 -0.12481168 0.63305956 -0.13318741
-0.32110074 -0.18468437 0.11195679 -0.2324837 -0.053361386 -0.06261135 0.40927747 0.60332286
-0.4167687 0.059035 -1.4289622 -0.30129427 0.47361413 -0.52832097 -0.8296647 -0.78209686
-0.20827352 -0.2398183 0.5185931 1.1416814 -0.7591573 -1.8603461 -0.20801827 0.08030047
-0.253114 -1.9941082 0.46137846 1.7285192 0.34533018 -0.7311828 0.62112665 0.4314382
0.74183136 0.84746635 -0.57735926 -0.028405976 -2.0089529 1.0917825 -0.31879348 0.54738533
-0.064791225 0.32989496 1.1726834 0.5894072 -0.05493234 1.3460665 0.49134523 -0.19178605
0.13633057 0.18242307 -0.17931706 -0.8772117 -0.45038506 -0.38790217 -0.5577267 1.0431128
-1.3512484 -1.8747663 -0.6143906 0.11505699 0.43212223 0.21557894 0.54840744 0.15053019
0.98019505 0.005257924 1.0447618 -0.2923357 1.37245 -0.77161086 0.43383205 -0.1813959
0.031502247 -0.019774526 0.044983 -0.11442526 -0.00045524538 0.042262897 0.03333266 -0.13529438
0.132125 0.041469887 -0.10332671 -0.106361784 -0.07924518 -0.042653024 -0.032992825 -0.09244787
0.10480727 -0.16526774 0.17609264 0.16705789 -0.15587313 0.09550117 0.15410857 -0.046432465
0.04330258 0.09211777 -0.06366123 -0.08651909 0.08412118 0.1170259 -0.081053466 -0.019849122
0.14215006 0.12310375 -0.11222281 -0.08688558 0.06598885 0.031501904 -0.12642828 0.06366159
0.118957415 0.021625757 -0.17054799 0.1732349 0.17370687 0.07900004 0.088508055 -0.028632075
-0.07380354 -0.05440338 0.06854537 0.17128636 0.0009832084 -0.047750965 0.16215624 -0.012254044
0.1606804 0.021292508 0.08642353 -0.12953536 -0.10611204 -0.1261767 0.16585629 0.13245206

lstm.weight_hh_l0 f4 [128, 32]
00000000: 86e4 a7bd 7030 25bc 3aa3 17be 3482 013d
00000010: 6e6c d33d 2ec6 8f3d a0d8 cb3b 660c 1cbe
00000020: f0ad a53c cad2 f73d 9b0b a5bd f8f1 b2bd
00000030: 0ae1 b33d ce1f df3d 9b47 093e 0422 8c3d
00000040: 781b aabc 11ee 093e 43a4 34be 28cd 503d
00000050: e3ca 05be 1865 ffbc 640e 25be 0449 92bd
00000060: 358b 053e 5c39 52bd f806 7c3d 5c55 2d3d
00000070: 63cf 013e 9c08 7ebd 086b 4f3d 9490 afbd
00000080: 96a9 883d 4c7e 00be 00d2 bf3c a62f b33d
00000090: 9267 95bd 368f cc3d 8299 a23d 7a09 00be
000000a0: 1c51 16bd 268e c93d 699a f7bd fbfe 333e
000000b0: 95b3 293e fed5 b23d 7937 163e d47b 79bd
000000c0: 6a58 9e3d 5f6c 323e f0ea 533d 4300 1c3e
000000d0: 4dfa 0c3e 5d31 18be 00df e13c e2a8 cfbd
000000e0: bef5 a63d cc62 e3bd 9048 c83c 0e20 d53d
000000f0: 6076 01be 008b 30bd 2f96 073e 78c7 04be
00000100: 26b0 c03d 0063 cdbb 091e 30be 9470 e2bd
00000110: 2414 653d a16c a8bd 462a 30be c2b4 31be
00000120: 7415 153d 5682 55bd f275 973d ccaa 303d
00000130: 4b30 0bbe d8b3 893c 0888 633d bb13 123e
00000140: c265 05be 85dc 103e 38f1 6f3d a40a 7fbd
00000150: f44b 373d d435 1f3d bdcc eebd 86b2 93bd
00000160: 5859 fd3c 705b b03c b3ea 303e 2a82 a8bd
00000170: f9da fabd 02b4 d63d bde3 193e 2f41 15be
00000180: 057f 213e d606 d33d 207c 00bd e2fa 9e3d
00000190: 0e2f d13d 8a1d b63d 848a 193d 6188 00be
000001a0: 4b44 a6bd 52ee 13be 6e11 9fbd 9dae 2a3e
000001b0: 5f56 053e 1a8e 03be 497a 2e3e 8713 113e
000001c0: 2652 f73d e8c5 e0bc 8960 1bbe d024 57bd
000001d0: e176 193e b865 4abd 0a5b 08be 4057 4bbc
000001e0: 8093 d63a 46f4 71bd 3e9c 34be 142a 823d
000001f0: 95c2 1b3e 03fe 9dbd daa0 1abe b646 10be
00000200: 3822 ac3c ec7e 8e3d 0860 dcbc 8855 36bd
00000210: 48fc 5c3d 7b95 283e 4bd0 2f3e e63a da3d
00000220: e2ad be3d da61 0fbe 8cde d3bd 70d6 17bd
00000230: 204c 4a3d 4eb1 f9bd b86c 57bd 0cb0 073d
00000240: 4bdb 12be 2973 2f3e 1c88 09bd 6cc5 18be
00000250: 9ef9 c23d 90af 403d de33 0abe 1640 f33d
00000260: b680 bf3d 84aa 823d ec6d 373d 68f7 1fbd
00000270: a0ec 08be 6abf 9d3d b341 0cbe 00c5 b43c
00000280: 0fec 323e 794b 303e b6f4 923d 2653 f93d
00000290: 79c3 f8bd 3043 bbbc 001b 9abd 0cc9 2abd
000002a0: b0ca 4cbd dc84 e5bd b8c5 9bbc 82a5 10be
000002b0: 04d9 08bd 17f0 23be 1840 c0bc 05ec 173e
000002c0: 00d8 ab3a 145a 193d 3a40 27be 64d2 30be
000002d0: f443 62bd 2482 14be 80aa eebb 04b6 2bbe
000002e0: 404e 7c3c 5a82 ec3d 8fd1 aabd 169f a33d
000002f0: 8a0c bc3d 1d38 08be 7ae6 84bd ba85 e83d
00000300: 6455 2fbd 22f0 e03d e118 01be c87d 033d
00000310: 368a cb3d 9e36 58bd 4c95 093d 83f4 a5bd
00000320: 7d84 2fbe 608d 853c c911 303e ba48 88bd
00000330: 7741 1abe 72c9 ef3d 26ed a43d 9c3c 3f3d
00000340: 03bb 063e 5699 bd3d 0054 4139 38f8 e1bc
00000350: 4626 e1bd 3547 223e 98b0 fb3c 4042 643c
00000360: 743b 16bd d317 333e 987f a33c 6bf9 1d3e
00000370: e6bb bcbd 8a93 853d c440 23be 4c74 16bd
00000380: 286b b93c 3039 ca3c 820e df3d 3899 0fbd
00000390: ea07 d93d 58fd 4d3d a40b 02be 30d4 a1bc
000003a0: c681 c93d 4898 49bd ee8d 993d 58ad 86bc
000003b0: c7f5 273e 9289 ed3d 245d 603d 05b6 0a3e
000003c0: 8711 1b3e 3abc b53d c399 89bd a3f0 283e
000003d0: 9caf 2ebe f1fc 223e 2231 9b3d 0e09 9b3d
000003e0: d822 7a3d a665 d2bd 00c1 9bbb aefa cebd
000003f0: ca61 bd3d 0d33 bebd e439 1cbe c6b4 db3d
-0.08197884 -0.010082349 -0.1480836 0.031618312 0.10323416 0.07020222 0.006220892 -0.15239105
0.020224541 0.12100752 -0.08058854 -0.08737558 0.08783157 0.10894738 0.13406222 0.068424255
-0.020765051 0.13469721 -0.17640786 0.050976902 -0.13065676 -0.031176135 -0.16118771 -0.07142833
0.13041385 -0.051324233 0.061530083 0.042317733 0.12676768 -0.06201993 0.050639182 -0.08572498
0.06672971 -0.12548178 0.023415565 0.087493226 -0.07295145 0.09988253 0.079394355 -0.12503615
-0.036698446 0.09841566 -0.12089998 0.17577736 0.16572411 0.08732222 0.14669599 -0.060909107
0.077317074 0.17424153 0.051737726 0.15234475 0.13767357 -0.1486258 0.027572155 -0.10139634
0.0815234 -0.111028284 0.024448663 0.104065046 -0.12642813 -0.04310131 0.13240884 -0.12966716
0.09408598 -0.0062679052 -0.17198958 -0.11056629 0.05592741 -0.08223844 -0.17203626 -0.1735411
0.036397412 -0.05212625 0.07395543 0.043131635 -0.13592641 0.016809389 0.05554965 0.14265339
-0.13027099 0.14146622 0.058579654 -0.062266007 0.04475017 0.038869694 -0.116601445 -0.07211785
0.030926391 0.021527976 0.1727703 -0.08227952 -0.12248797 0.104835525 0.15028282 -0.14575647
0.1577111 0.10304038 -0.031368375 0.07762696 0.10214053 0.08892353 0.037485614 -0.12552024
-0.081184946 -0.1444638 -0.07766996 0.16668172 0.13021229 -0.12847176 0.17038836 0.14167605
0.120762154 -0.027438119 -0.15173544 -0.05252534 0.14986755 -0.049413413 -0.13315979 -0.012410939
0.0016370863 -0.059070848 -0.17637727 0.06355682 0.15210946 -0.077144645 -0.15100423 -0.14089474
0.02101241 0.06957802 -0.02690126 -0.044515163 0.05395153 0.16463272 0.17169301 0.10655765
0.09310509 -0.14002171 -0.10345182 -0.037069738 0.049389005 -0.12192021 -0.052593917 0.033126876
-0.14341466 0.17133774 -0.03357707 -0.1491906 0.09520267 0.04704243 -0.13496348 0.11877458
0.093507215 0.063801795 0.044782564 -0.039054304 -0.13371515 0.07702525 -0.13696937 0.022066593
0.17472862 0.1721629 0.07175581 0.121740624 -0.121466585 -0.022859186 -0.07524681 -0.04169564
-0.049997985 -0.112069815 -0.019015178 -0.14125636 -0.033410087 -0.16009556 -0.023468062 0.14836128
0.0013110638 0.03743942 -0.16333094 -0.17267758 -0.055240586 -0.1450277 -0.007283509 -0.16768652
0.015399516 0.115483 -0.083407514 0.079893276 0.09182079 -0.13302656 -0.064892724 0.11353631
-0.042806044 0.10983302 -0.12607147 0.032102376 0.09938471 -0.052786462 0.033589646 -0.081032775
-0.17140384 0.016302764 0.17194284 -0.066544965 -0.15064035 0.117083445 0.08053045 0.04668866
0.13157277 0.09257762 0.00018437207 -0.02758418 -0.10993628 0.15847476 0.030723855 0.013931811
-0.036677793 0.17489557 0.019958302 0.15427177 -0.09215526 0.065222815 -0.15942675 -0.036732003
0.022634104 0.024685472 0.10891439 -0.03505823 0.105972126 0.050290436 -0.12699753 -0.0197545
0.098392054 -0.049217492 0.07497774 -0.016440079 0.1640235 0.11598505 0.054776326 0.13545997
0.15143405 0.08873792 -0.06718781 0.16498046 -0.17059177 0.15916802 0.07577731 0.075700864
0.061068386 -0.10273294 -0.004753232 -0.10106407 0.092471674 -0.09287081 -0.15256459 0.10727839

lstm.bias_ih_l0 f4 [128]
00000000: 151d b8be 8929 c23e 4ed9 dd3e ae9c 4e3d
00000010: fa73 0f3e 74e7 c23e 7b0b 4a3f 8e73 eb3e
00000020: 4caf 013f 2fd7 183f 8eb5 a83e 72c3 c5bd
00000030: 28ec 383d f2b6 093f 2f37 fabc 0260 b03e
00000040: dc5f 223f 0a5a 54bd 5368 7c3e 30b4 f93e
00000050: d208 a33f 74d0 a33e 52ce 363f 6862 113f
00000060: 0696 ea3e 3cb6 313f 9221 0c3e 3172 cc3e
00000070: 05f5 b7be 61b2 373f 8862 7b3f 495a c63e
00000080: 9212 06be 8075 973c 1cc9 ebbd d978 23be
00000090: 2483 8c3d 50ca 06be 68f6 28bd eced 51bd
000000a0: bec0 f43d aba2 1d3e 0884 45bd 7674 e73d
000000b0: e9fc 05be a83e 8b3c a1ad 00be 4a0f d3bd
000000c0: c158 82bd 5482 eabd b8d0 2b3d f09a 1e3d
000000d0: 41fb 273e 4eb2 a03d 5c05 803d 8e4f e53d
000000e0: 62b3 f53d 71a0 0ebe 7085 25be 765d aa3d
000000f0: 5209 ecbd 0685 d5bd ae51 f93d 2524 173e
00000100: 0db8 5cbe 7bf2 0b3f d2f7 91bf 2e69 1e3e
00000110: b3c1 1cbf ca04 d3be 49fa 40bf 8663 fbbe
00000120: 5f26 673e 3676 963d 70b5 083f ea42 7cbf
00000130: eda5 25bf 4f30 fbbe 4f2a c03e 3d55 27bf
00000140: b79d babe 9c7e db3d 3207 913e 6f12 26be
00000150: 7ae0 6c3f 6525 2a3f 163c 7a3f 24e9 c6be
00000160: f3ef 3b3f 95eb 1fbf a99f ccbc ab64 14bf
00000170: bac3 1abc 712d a1bb 4689 b3be 1304 033f
00000180: 74b3 d5bd 9e58 183f d45b 03be 98ac 0d3f
00000190: 8ea7 ee3d bddf b83e c7ac 223f 6044 2e3f
000001a0: 6fb7 82be 06d0 083f c8cd 203f 30a7 8a3b
000001b0: 29a2 843e a5c3 363f 2e2f 41bf 028a 613e
000001c0: 5639 5f3f d684 ab3e b46a 333e 189b 003f
000001d0: a12c 443f fbaf 453d 4465 903e a22c de3e
000001e0: b76f 993e bf66 e93e b745 b73e afb4 493d
000001f0: 9107 02bf 53b6 7a3e f745 f5bd e7f2 09be
-0.35959688 0.37922314 0.43329853 0.05044239 0.14009085 0.3806721 0.7892377 0.459866
0.50658107 0.59703344 0.32951015 -0.09656419 0.04514709 0.5379478 -0.030543892 0.34448248
0.6342752 -0.05184368 0.24649172 0.48770285 1.2737067 0.31994975 0.7140857 0.5679078
0.45817584 0.6941869 0.13684681 0.3993087 -0.35929123 0.7175656 0.9819722 0.38740757
-0.13093022 0.018488646 -0.11512968 -0.15964068 0.068609506 -0.13163114 -0.041250616 -0.05125229
0.11950825 0.15394084 -0.048221618 0.1130151 -0.13084759 0.01699765 -0.12566234 -0.103056505
-0.06364585 -0.11450639 0.041947097 0.03872198 0.1640444 0.07846509 0.06251022 0.111968145
0.11997105 -0.13928391 -0.16164184 0.083186075 -0.11525215 -0.10425763 0.12173782 0.14759882
-0.21554585 0.5466687 -1.1403754 0.1546981 -0.6123306 -0.4121459 -0.75381905 -0.49099368
0.22573231 0.07346766 0.5340185 -0.985396 -0.6470631 -0.49060294 0.3753228 -0.6536444
-0.36448452 0.10717508 0.28325802 -0.1621797 0.92530024 0.6646331 0.97747934 -0.38849747
0.7341301 -0.62468845 -0.024978476 -0.5796611 -0.009446079 -0.004918747 -0.3506567 0.5117809
-0.104346186 0.5951022 -0.12827998 0.5534148 0.11653052 0.361082 0.6354489 0.6807308
-0.25530574 0.5344242 0.62814 0.004231356 0.25904968 0.7139228 -0.75462615 0.22025302
0.8719686 0.33499783 0.17521173 0.50236654 0.766306 0.04826353 0.2820226 0.43393427
0.29968044 0.45586202 0.35795376 0.04924458 -0.50792795 0.24483614 -0.11976235 -0.13471566

lstm.bias_hh_l0 f4 [128]
00000000: 9211 72be ad72 4e3e 0086 d43e fc05 b73d
00000010: c774 613d 45b1 0a3f 3af2 313f dc24 863e
00000020: 31ff e23e 5151 293f 9f61 8b3e b07b 87be
00000030: 62b5 ecbb 4b88 0f3f 0537 44bd e7f3 a23d
00000040: c551 203f 8a29 92bd 379d 803e cab0 123f
00000050: f30e 7b3f 3928 bb3e 9460 213f bde6 7a3e
00000060: 7ba6 903e 18f8 553f b4e9 36bd 0f12 fd3e
00000070: 1b17 e6be 730b 3d3f d8d8 4e3f 7466 1a3f
00000080: ef28 333e 879b 32be 4897 a1bc 50c5 323d
00000090: a840 603d 2066 983c 38bf 44bd e6bb c13d
000000a0: a2c4 d03d 40a4 c3bc 71e0 27be b8c2 343d
000000b0: 0a15 f1bd 4810 673d 1cce 47bd 3ae5 a53d
000000c0: 76a2 0bbe a66b bdbd 8a64 b43d 4cdc 20be
000000d0: f025 04be a68e 24be 5a69 aebd 4ee2 b83d
000000e0: 06d3 0cbe 263f d33d 2664 983d c56c 2bbe
000000f0: 1c6f d1bd 3afa f33d 988f 0bbd 200d 33be
00000100: af78 30be 0ff8 043f 3e73 6fbf fe22 4c3e
00000110: 493b 4fbf 6c76 a1be 58c6 1bbf 3f56 0ebf
00000120: 28d0 753e b4c6 af3d 29d1 243f 65d7 8abf
00000130: a2f3 d2be 573f febe ab9e d23e cec1 2dbf
00000140: 17fb a1be 9580 3e3e 4d7a b93e 266d cebe
00000150: 7d98 703f 5058 683f 76a3 663f a7cd dabe
00000160: 964e 293f 35d0 0abf 34a3 553e 15b8 15bf
00000170: c61b 4cbe b8d1 b3bd 6da0 9ebe f116 eb3e
00000180: 2257 b6bd d361 e93e f914 a4be 6429 143f
00000190: df48 913d c979 c43e db52 2d3f 20ad 1c3f
000001a0: 8bf6 79be bdf7 2d3f 44fc f53e 02cf 8a3d
000001b0: 672c ef3e 309a 0e3f 3f64 38bf 0752 b53d
000001c0: b0e0 273f 640f e23d 9b8e 323d a3b8 153f
000001d0: 680b 193f b4a1 533d 50e7 033f 6eac 353e
000001e0: e50c 783e b7a4 0c3f 14e2 0f3e fb60 b13e
000001f0: dffa 94be b94a ef3d 1da5 2bbd b74d 0abe
-0.23639515 0.20160933 0.41508484 0.08936688 0.05504301 0.5417674 0.69510233 0.26199996
0.4433532 0.66139704 0.27222916 -0.26461554 -0.007223771 0.5606734 -0.047904033 0.07956677
0.6262477 -0.07136829 0.25119945 0.5730101 0.98069686 0.36554125 0.6303799 0.24502082
0.28252015 0.83581686 -0.04465647 0.4942784 -0.44939503 0.73845595 0.8079963 0.6031258
0.17496084 -0.17442141 -0.019725457 0.043645203 0.05474916 0.018603384 -0.048033923 0.09459667
0.10193755 -0.023882031 -0.16394211 0.04413101 -0.11771591 0.05641201 -0.048780546 0.08100362
-0.13636193 -0.09249048 0.08808239 -0.15709037 -0.12905097 -0.16070041 -0.08516188 0.09027539
-0.13752374 0.10314779 0.07440977 -0.16740711 -0.102262706 0.11912961 -0.03407249 -0.17485476
-0.17233537 0.5194101 -0.9353522 0.19935223 -0.80949837 -0.3153566 -0.60849524 -0.5560035
0.24005187 0.085828215 0.64381653 -1.0846983 -0.41201502 -0.496577 0.4113668 -0.6787385
-0.3163688 0.18603738 0.3622612 -0.4031765 0.9398268 0.90759754 0.9009317 -0.42735025
0.6613554 -0.5422395 0.20863038 -0.5848401 -0.1993247 -0.08780235 -0.3098177 0.4591594
-0.08903338 0.45582446 -0.3204725 0.5787566 0.07093977 0.38374165 0.6770455 0.6120167
-0.24410455 0.67956144 0.48044026 0.06777765 0.46713564 0.5570402 -0.72027963 0.08853536
0.6557722 0.11038092 0.04359303 0.5848486 0.5978303 0.051667884 0.5152483 0.17741558
0.24223669 0.54938835 0.14051086 0.34644303 -0.2909765 0.11684174 -0.04190551 -0.13506208

fc1.weight f4 [32, 32]
00000000: dd62 ccbf 802b 1b3e 994a 9cbe fafc 2ebf
00000010: 6628 10be 5195 02bf 7157 85bf 3448 4dbf
00000020: 7503 4a3f 2465 37bf 66c7 53bd e4ea bdbe
00000030: 2ba2 65bf f918 c4be aedf bfbc ba3b 73bf
00000040: d672 213f 7b73 6b3f b786 1b3f c919 ecbe
00000050: 9f3a 213e d243 0b3f 5eed 103f 92ad 2cbf
00000060: 1ee0 e4bc a0bf 79be b83f b0bd 95d8 7dbe
00000070: 85ef d8be 8c3f 423f 63c5 1fbf 47f6 563f
00000080: 663b b3bd 369c fbbd 8df9 253e d5a1 a43c
00000090: dc87 063e cd37 55bd 2547 ce3d 0db0 11bc
000000a0: 261c 44bd 8e9f 7d3d c54b dbbc e2ad 063d
000000b0: 849f 4a3c abaa c63d cdec 07be c58b 113e
000000c0: d49e 513e d88b dcbc cb10 06be 10c7 933e
000000d0: e04a 17be 6b5f 59be 3c0a 00be b440 19bd
000000e0: 1dc8 03be debd 27bd 2475 ffbd ce31 a43d
000000f0: f9f9 41bc 2d1b 553d eab4 e43d 49fd 5abe
00000100: eea1 03c0 cf9d c83e 2d02 92be 7059 71bf
00000110: 1004 35bd 30a4 1abf a701 92bf 0749 8dbf
00000120: 3a0b 3a3f 1028 57bf fe22 c6bd 4d21 2bbe
00000130: 4ce2 07bf 61fc 37bf 7b2b 97bd 660c eebe
00000140: 5377 123f af35 f23c 9669 a2bd ac87 f9bd
00000150: 8780 b83e 7fb7 2e3f da6b 8d3e e6ca 3abf
00000160: fa94 22bc 1ae9 c1ba b809 c4be 2786 47be
00000170: ca99 f8be f969 c23d bda2 cabe df3f 123f
00000180: 512c fcbe 5978 9a3e a7bf a0be 3a3a 30bf
00000190: 171e 493f 2668 593f 1af6 e6bc 69f2 17be
000001a0: 0942 ac3e ef5d 34be d8d8 a3be f232 fdbe
000001b0: a9a9 9cbe fb34 6cbe 5d83 cf3e 333f 553d
000001c0: 0a6a 133f 786d 12bf 864a 54bf 7ea3 9dbe
000001d0: 9a38 003f 6773 e33e 6146 853e 9af9 99bd
000001e0: 3869 8dbe 6f55 bb3e d8d8 4dbe 4307 8c3e
000001f0: 0308 1cbf 4c95 0ebe 1ea0 c3be 35ab aebc
00000200: d373 90bf 3a31 1e3f aa37 16bf 524d 0abf
00000210: 8f5d 43bf d24b 85bf 89c5 1fbf 5158 54be
00000220: aa23 d23e ac69 02bf 5617 2e3f 487a dcbe
00000230: 488c 68bf b4d1 3fbf ba7f 2f3f b7d7 d5be
00000240: a63c 51bf 7de4 763f d4c7 8e3f dbd9 25be
00000250: c307 2c3f 93b1 cc3e c723 893e 6abb d7be
00000260: fdb8 0a3f 8a95 2ebf 9645 a13e f2a8 0abf
00000270: 88b2 57bf c41f 723f c33f 3fbf d6ac cb3e
00000280: 97a3 40bf eeab 3cbf 925a d73c 3783 053f
00000290: a784 43be 9c34 4d3f bcf6 aebe d6cd f7be
000002a0: de13 8c3d 8c68 e9be b893 f0be 2fe3 1e3f
000002b0: 40b5 72be 55c0 a6bc 100d adbf 9a88 0dbf
000002c0: 7a6a 223e d465 12bf b7c3 8abe 3742 023f
000002d0: 1e8f 0cbf 1f6e 7a3e bb81 503f 8b42 103f
000002e0: 822b 603f ab5b 88be c54d 903f 148c 2a3f
000002f0: 95a7 1b3b acee d3be 0ea4 fd3e 4a67 76be
00000300: ab95 2dbf 2483 2a3f 28b4 79bf c5f1 0cbf
00000310: 3166 33bf e91e 2fbf 79f0 d5be 3db5 fdbe
00000320: 4900 58bd 7523 acbe be99 5a3f a4d5 a5be
00000330: a009 c4bc 0c48 14bf ad63 873f dea7 9cbe
00000340: a508 40bf 4c71 8d3f e50d 4c3f 6473 8ebe
00000350: 5891 133f 89c5 f33d a5bb a63d 2a87 44bf
00000360: cf0e 883f b4df ffbe dd4e 07bf 012c 8abe
00000370: 7dae 90bf bfbf 813f b64e d9be 9a8a b43e
00000380: 120c 643f b191 86be 5243 6dbe 376b 0b3c
00000390: 2993 39bf 1427 bebe 95a3 ccbd 4dea 633e
000003a0: 6253 893f 594e a23e 0a3c 0f3f 803c 493f
000003b0: 3037 8dbf 283b d63c 184f 393e 873b c33f
000003c0: 83b6 2f3d 3e0d be3e 24be e23e fc86 32be
000003d0: a793 a53e c0f2 cfbe 1145 943e 87c4 cc3f
000003e0: 245a 44bd 0296 92be f7bd b3bf 2b8e a33e
000003f0: 06a7 423e eb53 91be e08f 2abf 297f 24bf
-1.5967671 0.15153313 -0.30525663 -0.6835476 -0.14077911 -0.5100909 -1.041731 -0.801883
0.78911525 -0.71638703 -0.051703833 -0.3709327 -0.89700574 -0.38300303 -0.023422088 -0.9501301
0.6306585 0.91973084 0.60752434 -0.46113423 0.15745018 0.5440036 0.56612194 -0.6745235
-0.027938899 -0.24389505 -0.086059034 -0.2478965 -0.4237024 0.75878215 -0.62410563 0.8396954
-0.08751564 -0.12285654 0.16208477 0.020096699 0.13137764 -0.05205517 0.100721635 -0.008892071
-0.047878407 0.06191974 -0.026769528 0.03288067 0.012367133 0.09700521 -0.13273926 0.14213474
0.20470744 -0.026922151 -0.13092344 0.2886281 -0.14774656 -0.21227805 -0.12503904 -0.03741522
-0.12869306 -0.040952556 -0.12473515 0.08017312 -0.011839383 0.05202787 0.11167319 -0.21385683
-2.0567584 0.39182898 -0.28517285 -0.94277096 -0.044193327 -0.6040678 -1.1406754 -1.1037911
0.7267338 -0.84045506 -0.09674643 -0.16711922 -0.53079677 -0.71869475 -0.0738134 -0.46493834
0.57213324 0.029566614 -0.07930295 -0.121840805 0.3603556 0.6824874 0.27621347 -0.7296585
-0.009923214 -0.0014794201 -0.38288665 -0.19484769 -0.48554832 0.09492869 -0.39577284 0.5712871
-0.4925256 0.30169943 -0.3139622 -0.68838847 0.7856154 0.8492454 -0.028193522 -0.14838566
0.3364413 -0.17613958 -0.32001376 -0.4945293 -0.3059819 -0.23067085 0.4052991 0.052062225
0.5758368 -0.57198286 -0.82926214 -0.30788797 0.5008637 0.44423983 0.26030257 -0.07518311
-0.27619338 0.36588618 -0.2010225 0.2734929 -0.60949725 -0.1392414 -0.38208097 -0.021321872
-1.1285347 0.61793864 -0.58678687 -0.5402423 -0.76314634 -1.0413764 -0.6241079 -0.20736815
0.41042835 -0.5094249 0.6800436 -0.43062043 -0.9083905 -0.74929357 0.6855427 -0.4176614
-0.8173317 0.96442395 1.1154733 -0.16196387 0.67199343 0.39979228 0.26785108 -0.42135173
0.5418852 -0.6819693 0.31498402 -0.5416404 -0.8425679 0.9457972 -0.7470667 0.397803
-0.7524962 -0.73699844 0.026288304 0.5215334 -0.19093572 0.801584 -0.34172618 -0.48399228
0.06839727 -0.45587575 -0.469877 0.62065405 -0.23701954 -0.020355383 -1.3519611 -0.5528656
0.1586093 -0.5718663 -0.27102444 0.50882286 -0.5490588 0.2445607 0.81447953 0.56351537
0.8756639 -0.26632437 1.1273733 0.6661999 0.002375101 -0.4139303 0.49539226 -0.24062839
-0.678065 0.66606355 -0.9754052 -0.5505641 -0.70077807 -0.6840654 -0.4178503 -0.49552336
-0.052734647 -0.33620802 0.8539084 -0.32389557 -0.02393037 -0.57922435 1.0577294 -0.30596823
-0.7501319 1.10502 0.797087 -0.2782241 0.5764365 0.11902911 0.08141259 -0.76768744
1.0629519 -0.4997536 -0.5285471 -0.26986697 -1.130325 1.0136641 -0.42442864 0.35261995
0.8908092 -0.2628303 -0.23170212 0.008509449 -0.72490174 -0.3713919 -0.09992138 0.22257347
1.0728571 0.317004 0.5595099 0.7860794 -1.1032467 0.026151255 0.18096578 1.5252541
0.042898666 0.37119478 0.4428569 -0.17434305 0.32339212 -0.4061489 0.28958943 1.5997475
-0.047937527 -0.28630072 -1.4042348 0.31944403 0.19009027 -0.28384337 -0.66625786 -0.6425653

fc1.bias f4 [32]
00000000: 4aca dc3c 0995 69be 9981 1cbe 6989 c0be
00000010: 7ed5 363e f0e4 d3bd ad52 08be 8bb2 503d
00000020: 6c9e 443c 1895 00bc 3f4c e53e 7674 243f
00000030: 8703 c33e 8eee 6abd 613f c13e bfdc d9bd
00000040: 1db3 f73d 70a0 0d3f 1648 933e b2f6 d5be
00000050: 658e 8f3e bc8a 0bbe 5670 2c3e c403 f9bc
00000060: bfc1 c23d d04a ac3a 2e75 9c3e b0e4 053e
00000070: 3386 b53e 5445 10bd 8a57 703e bdc9 513d
0.026951928 -0.22810759 -0.15283813 -0.37604836 0.17854878 -0.10346401 -0.13312788 0.05095152
0.012000661 -0.007848047 0.44784734 0.64240205 0.3808863 -0.05735641 0.37743667 -0.10637807
0.1209471 0.55322933 0.28765935 -0.41789776 0.28038326 -0.13627142 0.16839728 -0.030397303
0.095096104 0.0013144854 0.3055815 0.13075519 0.35453948 -0.035222366 0.23470894 0.051217783

fc2.weight f4 [3, 32]
00000000: a5fc 32bf 6b4e 163d 9007 3fbf e220 033f
00000010: aab3 1fbf ccfe e03f 6487 c6be 9c67 223f
00000020: 586a 12c0 ddd9 46bf c50d e7be 7970 00bf
00000030: 6d9c 4c3f 7a4f d4be 19d3 813e f0e9 f5be
00000040: c25d 02bf d034 27bf cc5f f9be 89d0 323e
00000050: ae14 52bf c65e d93f 3787 04bf 0eb5 09bf
00000060: baa1 2bbf 40b5 3dbf b5fa b2be 2063 37bf
00000070: 87f5 14bf af08 35bf 1154 e03f c16a a43f
00000080: 9c07 0bbf 8a29 a33d d2e6 03bf ddac 5ebd
00000090: 6153 30bf 4daa b13f 3c1f 2bbf 20d4 613f
000000a0: e070 0ac0 99e1 22bf 3da8 febe b731 983e
000000b0: 0888 7d3f 6a4c 1bbf 9d26 123f a666 02bf
000000c0: 4bae d8be 77e1 04bf 53d2 3dbf bb95 603f
000000d0: 3469 30bf 7a6a b83f 8d8f 03bf b387 f2be
000000e0: c6b4 0fbf ebe0 9fbf 1461 28bf 4ac0 25bf
000000f0: a7bd 23bf 23a6 0dbf a555 8a3f d673 693f
00000100: 3087 f1be dde1 f1bc 61b1 03bf 7eac 33bf
00000110: 7398 2bbf 0893 443f cd04 34bf 6fa0 843f
00000120: 1053 09c0 6a99 7bbe 9251 3dbf be2e 843f
00000130: 6db4 833f 4699 36bf b4a8 a43f 9c55 0cbf
00000140: c20c fabe 6db4 10bf ca27 09bf 4277 d23f
00000150: 9836 e1be f17b 843f 29e0 20bf de1f 13bf
00000160: 2ffd 21bf 0189 cabf a6c5 44bf 8750 1fbf
00000170: cc57 febe 1fad 19bf eca8 493f e9a7 eb3e
-0.69916755 0.03669588 -0.74620914 0.5122205 -0.6238352 1.7577758 -0.3877517 0.63439345
-2.2877407 -0.77676183 -0.45127693 -0.5017162 0.79926187 -0.41466886 0.25356367 -0.48030043
-0.50924313 -0.6531496 -0.487059 0.17462362 -0.82062805 1.6982048 -0.5176882 -0.5379189
-0.6704365 -0.7410469 -0.349569 -0.7163563 -0.58187145 -0.70716375 1.7525655 1.2845079
-0.54308486 0.07966907 -0.5152408 -0.054364074 -0.68877226 1.3880097 -0.66844535 0.882143
-2.1631393 -0.63625485 -0.4973773 0.2972543 0.9903569 -0.60663474 0.5709017 -0.5093788
-0.42320475 -0.5190653 -0.74149054 0.8772847 -0.6891053 1.4407494 -0.51390916 -0.47369155
-0.56135213 -1.2490515 -0.6577313 -0.64746535 -0.6396126 -0.5533163 1.0807387 0.91192377
-0.47173452 -0.029526645 -0.51442534 -0.7018508 -0.67029494 0.7678685 -0.70319825 1.036146
-2.1456947 -0.24570242 -0.7395259 1.0326765 1.0289437 -0.71327627 1.2863984 -0.5481813
-0.48837858 -0.5652531 -0.5357634 1.6442645 -0.43986964 1.0350324 -0.6284204 -0.574705
-0.6327695 -1.582306 -0.7686409 -0.6223225 -0.4967636 -0.60029787 0.7877338 0.46026543

fc2.bias f4 [3]
00000000: 1605 34bf 8b2e 1ebf 5a9e d0be
-0.7032026 -0.6178977 -0.40745813
