saves/07022021122109_acrobot_dqn.pt (torch, 27479 bytes, 8 tensors)

lstm.weight_ih_l0 f4 [128, 6]
000000 e0 c8 65 40 e1 d5 b9 3d 80 6b e5 bf ba a3 bf be
       3.5903854 0.09073997 -1.7923431 -0.374296
000010 42 f8 49 bf 47 48 df bd 53 9d 63 40 ec b5 85 3d
       -0.78894436 -0.10902458 3.5564773 0.065288395
000020 7a fc e1 bf 1b ef c5 be 80 df 46 bf e4 e1 f0 bd
       -1.7655175 -0.38658985 -0.77684784 -0.11761835
000030 a7 f1 60 40 77 ab f7 3d 7f 9b e2 bf 52 49 bc be
       3.5147493 0.12093251 -1.7703704 -0.3677469
000040 e5 6a 4b bf 3a f2 d5 bd 2a c3 67 40 86 0c 24 3e
       -0.79459983 -0.10446592 3.6212869 0.16020402
000050 40 3d e5 bf ee 50 a6 be 94 57 49 bf a3 40 e5 bd
       -1.7909317 -0.3248362 -0.7864926 -0.11193969
000060 6e 92 5b 40 2f d9 ca 3d 6b 52 e0 bf 82 71 c6 be
       3.4308124 0.09904706 -1.7525152 -0.38758475
000070 1c ac 43 bf 4a 6c f3 bd 1d 3b 5f 40 57 63 98 3d
       -0.76434493 -0.11885889 3.487983 0.074408226
000080 36 f2 df bf 3c 4c d3 be fb 69 46 bf 81 ab f6 bd
       -1.7495792 -0.412691 -0.77505463 -0.120444305
000090 d3 c4 63 40 5a 11 f6 3d 43 d8 e1 bf 9d 88 c0 be
       3.5588882 0.12015028 -1.7644123 -0.37604228
0000a0 63 b6 47 bf 50 c0 f2 bd 3e 16 67 40 f6 58 e7 3d
       -0.78012675 -0.11853087 3.6107326 0.11296265
0000b0 41 4c e5 bf 89 fe c9 be ed 26 45 bf ab 95 ed bd
       -1.7913896 -0.39452007 -0.7701252 -0.116008125
0000c0 3e d3 65 40 c4 74 90 3e 40 2b dd bf 8a c1 8f be
       3.5910182 0.28214085 -1.7278824 -0.28077346
0000d0 fd 53 43 bf 0a ee b6 bd 95 e3 68 40 d9 c1 ca 3d
       -0.7630003 -0.08932121 3.6388905 0.09900255
0000e0 85 c2 e8 bf 03 a5 cd be 94 94 49 bf 27 1c e1 bd
       -1.8184363 -0.40164956 -0.7874234 -0.10991698
0000f0 4d c6 64 40 02 d0 31 3e ff f6 e1 bf c0 15 ab be
       3.5746033 0.17364505 -1.7653502 -0.3341503
000100 1a 24 49 bf f3 3c d3 bd 7f b2 69 40 4b 07 46 3e
       -0.7857071 -0.103143595 3.6515195 0.1933872
000110 10 29 e5 bf 99 19 9d be ee cd 44 bf 5d 32 03 be
       -1.7903156 -0.30683592 -0.76876724 -0.12812181
000120 51 50 5f 40 35 96 f2 3d a8 19 e1 bf 77 77 b5 be
       3.4892771 0.11845056 -1.7585955 -0.35442707
000130 37 f1 4a bf 97 c3 d5 bd 41 8d 61 40 58 a2 9e 3d
       -0.79274315 -0.104376964 3.5242465 0.07745808
000140 a1 88 df bf 43 56 cf be dc b6 46 bf 9c 0d f2 bd
       -1.7463571 -0.404955 -0.7762277 -0.11819002
000150 a9 bc 67 40 46 0b b1 3d 09 f9 e6 bf b7 22 d7 be
       3.62089 0.08644728 -1.804475 -0.42018673
000160 65 7b 4a bf 81 de e6 bd 4f 00 5d 40 e4 81 31 3e
       -0.79094535 -0.11272908 3.4531438 0.17334706
000170 82 02 dd bf b1 ca 9f be a6 2d 41 bf f0 5b ce bd
       -1.726639 -0.3120933 -0.7546028 -0.100761294
000180 7e 15 6a 40 b7 f9 02 3e 6b a5 ec bf 64 e3 b6 be
       3.6575618 0.12790571 -1.8487982 -0.3572036
000190 6f f8 48 bf 36 ef f3 bd 50 10 62 40 4d 59 e2 3d
       -0.7850408 -0.1191086 3.5322456 0.11052189
0001a0 5c 00 e0 bf 31 a9 e5 be 54 3d 48 bf 3d 45 bd bd
       -1.750011 -0.44855645 -0.7821858 -0.09241722
0001b0 b4 1d 69 40 1d 27 f2 3d 36 f0 e6 bf 9e 16 d7 be
       3.642438 0.118238665 -1.8042057 -0.42009443
0001c0 7e 76 46 bf 8e c6 ea bd 33 bf 64 40 41 ef 14 3e
       -0.77524555 -0.114636526 3.5741699 0.14544393
0001d0 e0 30 e2 bf f6 60 c3 be fd 28 45 bf 8e 53 dc bd
       -1.7671165 -0.38159913 -0.7701567 -0.10758124
0001e0 e7 33 5e 40 1a 49 87 3d 83 51 e3 bf eb 9b d8 be
       3.4719179 0.0660574 -1.775925 -0.42306456
0001f0 19 f1 4b bf 4a fd 04 be d6 e1 67 40 20 69 79 3e
       -0.7966476 -0.12987247 3.623159 0.24356508
000200 01 10 db bf 12 9a 93 be d1 db 42 bf dc 59 d1 bd
       -1.7114259 -0.28828484 -0.76116663 -0.102222174
000210 98 8a 66 40 e9 5d 4f 3e 4c a3 df bf ac f0 a2 be
       3.602209 0.20250668 -1.7471709 -0.31824243
000220 bc 36 46 bf cb 17 ec bd eb ee 6a 40 47 67 5a 3e
       -0.7742727 -0.11527976 3.6708324 0.2132846
000230 1e f7 e4 bf 5b d5 ad be 4c 30 46 bf e2 d2 c8 bd
       -1.7887914 -0.3395184 -0.77417445 -0.09805848
000240 53 b4 61 40 a9 9d 04 3e 0c b8 e1 bf f8 bf a2 be
       3.526631 0.12950768 -1.7634292 -0.31787086
000250 09 a1 47 bf 2f 11 f3 bd 92 2d 69 40 a2 97 53 3e
       -0.77980095 -0.11868512 3.6434064 0.20663312
000260 2a b3 e2 bf af ea a7 be 40 41 49 bf 07 67 e1 bd
       -1.7710927 -0.32796237 -0.7861519 -0.11005979
000270 8c dd 64 40 b8 c7 b5 3d 1b 58 e4 bf 58 b6 d9 be
       3.5760221 0.08875984 -1.7839388 -0.4252193
000280 57 58 49 bf c2 d9 f5 bd 47 a6 68 40 10 af 5b 3e
       -0.7865042 -0.12004425 3.6351488 0.214535
000290 e8 c3 df bf 44 02 8c be 7e 62 46 bf b8 65 f1 bd
       -1.7481661 -0.2734548 -0.7749404 -0.117869794
0002a0 8a dc 63 40 5e a4 17 3e 54 71 e1 bf 7b 5c b0 be
       3.5603356 0.14808795 -1.761271 -0.34445557
0002b0 e5 84 47 bf c8 15 e7 bd 8a 25 67 40 2c 52 dd 3d
       -0.77937156 -0.11283451 3.6116662 0.10806689
0002c0 1b 83 e4 bf 35 1e cb be 19 5c 4a bf f0 f7 d3 bd
       -1.785251 -0.39671484 -0.7904678 -0.10350025
0002d0 1e f4 68 40 bd 94 4e 3e 1f c6 de bf d7 b8 97 be
       3.6398997 0.20173927 -1.7404212 -0.2963321
0002e0 85 54 47 bf 15 54 ef bd de 35 63 40 dd 56 70 3e
       -0.7786334 -0.11685959 3.5501628 0.23470636
0002f0 1a fd db bf 8f 0f 8e be 90 47 43 bf a1 58 dc bd
       -1.7186615 -0.27746245 -0.7628107 -0.10759092
000300 ea cb 19 be a0 cd 00 3c 54 08 5f 3d 3c 6a 2c be
       -0.15019193 0.007861525 0.0544513 -0.168374
000310 b0 fc 74 3d 78 9b 31 3d 50 e0 7d bc 00 6b 3f 3c
       0.059811294 0.043361157 -0.015495375 0.011683226
000320 44 4f 31 bd b6 fa 17 be da 07 0d be d0 ba 02 bd
       -0.043288484 -0.14841732 -0.13772526 -0.03191644
000330 0e e8 9e 3d 33 dd 03 3e 28 02 f4 bd 77 c6 b1 bd
       0.07759105 0.1287735 -0.11914474 -0.08680432
000340 49 12 c8 bd a3 ec 08 be 20 ab cd bb 22 85 ef 3d
       -0.097691126 -0.1337152 -0.006276503 0.11695315
000350 40 a5 a0 bc 41 c3 25 3e 2c 18 1f 3d 30 ed 4a bc
       -0.019610047 0.16187765 0.03884141 -0.0123856515
000360 c0 01 22 be 46 cc a7 3d 60 98 b5 3b a8 57 cb bc
       -0.1582098 0.08193259 0.005541846 -0.024822071
000370 50 25 c5 bc a9 12 9e bd 5d 40 18 3e f0 b0 48 3c
       -0.024065644 -0.07718403 0.14868303 0.012249216
000380 50 0b 89 bc 58 05 b2 bc 08 00 73 3d 6f c3 30 3e
       -0.016729027 -0.021731064 0.0593262 0.17262052
000390 05 ff 2c be cc 8a 73 3d 16 d3 30 be 38 1f c5 bc
       -0.16894157 0.05945854 -0.17268023 -0.024062738
0003a0 54 57 27 3d 00 33 97 ba 19 04 e8 bd e8 ce 34 3d
       0.040854767 -0.0011535585 -0.113289066 0.044142634
0003b0 ff e4 08 be 31 5d 21 3e 8f 13 0a 3e 40 11 0d be
       -0.13368605 0.15758206 0.13484024 -0.13776112
0003c0 22 6b be 3d 76 51 d4 3d cc 2d 19 bd 3c e1 ca bd
       0.09297778 0.103671 -0.03739719 -0.09906241
0003d0 7b 3c 2d 3e 76 4f 05 be c4 89 f0 bd 98 60 fd bc
       0.16917603 -0.13018593 -0.11745027 -0.030929849
0003e0 c0 6b 6e bb cf 60 08 3e e0 01 dd bc a2 3c ed 3d
       -0.0036380142 0.1331818 -0.026978433 0.115838304
0003f0 00 48 1e 3d 99 26 12 be 34 7c 46 bd 13 de 85 bd
       0.038642883 -0.14272536 -0.048458293 -0.06536498

lstm.weight_hh_l0 f4 [128, 32]
000000 32 55 bd 3d 7b 64 0f 3e f5 b1 2b 3e 62 7b 58 bd
       0.09244765 0.14003174 0.16767104 -0.052852042
000010 20 c0 a9 3c 52 02 80 3d d0 43 47 bd 69 64 b9 bd
       0.020721495 0.062504426 -0.048648655 -0.09052355
000020 b0 e1 4d bd c8 d1 44 bd 17 81 00 3e 68 af d9 3c
       -0.05026406 -0.048051625 0.12549244 0.026572898
000030 d9 c5 2c 3e e2 dd 04 be c0 3e a8 3c 6d b5 a9 bd
       0.16872348 -0.12975267 0.020537734 -0.08286557
000040 01 97 20 be 78 30 45 bd da c4 f7 3d 1d c3 e4 bd
       -0.15682603 -0.048141927 0.12098093 -0.111700274
000050 bb 1b 16 3e 42 d8 07 be 0b 2f 2b 3e 1e 72 f3 3d
       0.14659016 -0.1326609 0.16717164 0.118870005
000060 88 e5 b3 bd 68 83 c6 3c 0a e0 c2 3d b6 f7 a2 3d
       -0.08784014 0.024232581 0.09515388 0.07957403
000070 15 56 e7 bd 3e da bd 3d d0 52 f6 3c 29 43 1d 3e
       -0.11295716 0.09270142 0.030068785 0.15357651
000080 60 90 d6 3b 9d 0d 21 3e d8 bc 2b be 20 2c c5 3c
       0.0065479726 0.1572785 -0.16771257 0.024068892
000090 c0 99 89 3b e5 7a e9 bd b0 c7 b8 3c c2 37 c4 3d
       0.0041992366 -0.114003934 0.022556156 0.095809475
0000a0 e4 3c cc bd 64 7c 61 3d 52 28 fa bd 18 57 d3 3c
       -0.099725515 0.05505027 -0.12214722 0.025798365
0000b0 1f 0d 1e 3e 94 ad 5e bd 2f 23 01 3e 60 20 6b bc
       0.15434693 -0.054364756 0.12611078 -0.0143509805
0000c0 00 56 f7 b9 00 6f 9c 3b 6e 0b 97 3d cf 6e 28 3e
       -0.00047175586 0.0047739744 0.07375227 0.1644852
0000d0 64 fd 1e be 77 04 2a be 93 bb d2 bd 9c 1e 05 bd
       -0.15526348 -0.16603266 -0.10289683 -0.032499894
0000e0 40 39 a9 bb 28 34 cd bc d3 a9 16 3e 60 e8 06 3d
       -0.0051642954 -0.025049284 0.1471322 0.032936454
0000f0 bf 1c c6 bd a5 2b 29 3e 58 8e e4 bc 72 18 be bd
       -0.09673452 0.16520555 -0.027899906 -0.09282006
000100 76 91 21 be 93 f0 09 3e c8 ea 6b bd d0 d1 80 3c
       -0.15778145 0.13470678 -0.05759695 0.015725046
000110 b0 a6 15 bc 45 1a 2e be 38 04 1a be c5 d5 84 bd
       -0.00913398 -0.17002209 -0.15040672 -0.06486086
000120 17 a9 1f be 60 68 09 3d a9 82 95 bd 9b 49 95 bd
       -0.15591846 0.033546805 -0.07300312 -0.0728943
000130 f0 11 73 bc 04 8c 66 3d 30 ef 28 3c 7c c5 03 be
       -0.01483582 0.056285873 0.010310933 -0.12868303
000140 0b 2d 26 3e 1c 2b dd bd 60 db 22 be a7 3c 04 3e
       0.1622812 -0.10799238 -0.15903997 0.12913762
000150 c5 9e 97 bd 58 94 80 3c e8 04 ea bc 1e b8 ce 3d
       -0.0740333 0.015695736 -0.028566793 0.10093711
000160 be 43 2f be b1 fb 27 be 90 cc 9a bd b7 36 e9 bd
       -0.17115685 -0.16404606 -0.075585485 -0.11387389
000170 c0 fb 06 be 14 de 1b be d7 a3 17 be 82 bd 9d bd
       -0.13181973 -0.15221435 -0.14808594 -0.07702161
000180 a8 47 fa 3c 78 38 6d 3d 85 c9 01 3e 78 af 81 bd
       0.030551746 0.05791518 0.1267453 -0.06332296
000190 22 8e 19 be b6 59 d2 3d a2 47 cc 3d 4a 64 a9 3d
       -0.14995626 0.10271017 0.099746004 0.08271082
0001a0 4f 1e 1b be c0 81 de 3b fa 1a d9 3d 6c 7c 04 be
       -0.1514828 0.0067903697 0.106008485 -0.12938088
0001b0 b8 fb ec bd 1d cb 26 be 28 b4 74 3d 4d 29 2a 3e
       -0.11571449 -0.16288419 0.059742123 0.16617317
0001c0 68 a7 c0 bd b2 d4 c4 bd a3 ce 02 be 80 ff c5 bb
       -0.0940693 -0.09610881 -0.12774138 -0.006042421
0001d0 4e 11 e4 3d 60 87 bd bc 89 b4 05 3e c8 bd 17 be
       0.11136113 -0.02313584 0.1305715 -0.1481849
0001e0 5e 9a ea bd e7 cd 1a 3e b5 3f 34 3e 00 29 87 ba
       -0.114552245 0.15117608 0.17602427 -0.0010311902
0001f0 00 f3 4b bd 40 72 6b 3c f6 11 ae 3d 46 54 c5 3d
       -0.04979229 0.014370501 0.084995195 0.096352145
000200 94 04 13 3d 87 f6 02 3e 48 a2 d8 3c 80 3b 97 bb
       0.035893038 0.12789355 0.02644457 -0.0046152472
000210 58 1c e7 3c 30 a8 d4 3c 20 72 69 bc 20 4d bb 3b
       0.028211758 0.025959104 -0.014248401 0.005715981
000220 f6 27 f6 3d fd 80 22 3e 85 7d 2c 3e bf 89 25 3e
       0.12019341 0.15869518 0.16844757 0.16165827
000230 37 b8 2c 3e 03 14 23 3e 3d ac a8 bd 80 bc c7 ba
       0.16867147 0.15925603 -0.08235977 -0.0015238672
000240 b3 9a 30 3e e6 50 7c bd e6 5a 1e be 04 47 52 bd
       0.17246513 -0.06160059 -0.15464363 -0.051337257
000250 70 c3 ba bc b0 fd 88 3d 46 d0 bc bd 1f 6b 1d be
       -0.02279827 0.06689012 -0.092194125 -0.15372895
000260 b6 7a dd 3d 00 74 04 39 60 4a 2b be 03 1f 21 be
       0.10814421 0.00012631714 -0.1672759 -0.15734486
000270 7e 5c 65 bd 19 ca 0e 3e 95 a7 2c be 97 af 14 be
       -0.05599641 0.13944282 -0.16860802 -0.14520107
000280 1e cc ae 3d 8e b3 5c bd d0 be 70 bc ab 1a ba bd
       0.08535026 -0.053882174 -0.014693931 -0.09087118
000290 7b 09 d4 bd b0 1d 79 bc dc f5 72 bd 57 a6 02 3e
       -0.10353371 -0.015204832 -0.0593165 0.12758766
0002a0 86 82 dc 3d 4a 08 2b be e0 08 e4 bc 80 6e 3f bd
       0.10767083 -0.16702381 -0.027836263 -0.04673624
0002b0 1b 93 31 3e a0 d2 a6 bb 50 72 ac bc 82 0d 97 3d
       0.17341273 -0.0050910264 -0.021050602 0.07375623
0002c0 86 f3 b0 bd f0 18 25 be 0e d2 0e be f6 86 ca 3d
       -0.086401984 -0.16122794 -0.13947317 0.09889023
0002d0 c3 ff d5 bd aa 60 cd 3d c4 21 20 3d a0 c3 b6 3c
       -0.10449173 0.10028203 0.0390947 0.022310078
0002e0 da 96 f5 3d f0 0a 3e 3d ac 5e 85 bd 80 64 d8 bc
       0.11991663 0.04639715 -0.06512198 -0.02641511
0002f0 70 f4 aa 3c a3 95 24 be 92 0f c6 3d 15 5f 34 3e
       0.02086851 -0.16072707 0.096709386 0.17614396
000300 63 25 04 3e d0 4b d3 bc 00 f0 83 bb f3 5b 31 be
       0.12904887 -0.025792986 -0.004026413 -0.17320232
000310 05 6f 0e 3e 80 56 fb 3a 08 f4 ca 3c 30 d4 5e 3c
       0.13909538 0.0019175559 0.024774566 0.013600394
000320 98 c3 91 3d a9 ee aa bd 14 82 97 bd 86 3e b7 3d
       0.07117385 -0.08346302 -0.07397857 0.08947472
000330 20 7f 0a 3d 5f 60 2b 3e b6 d5 d2 3d 24 23 00 be
       0.033812642 0.16735981 0.102946684 -0.12513405
000340 30 6f 26 be cd a9 f5 bd 8e b6 1e be 51 5e 1f be
       -0.16253352 -0.119952776 -0.15499327 -0.15563323
000350 55 91 8f bd 80 84 89 3c b0 59 1d 3c 80 f7 f4 bd
       -0.07010142 0.016786814 0.009603903 -0.119612694
000360 16 92 e5 bd a2 08 c2 3d 76 9a 05 be f3 de 16 3e
       -0.11209504 0.09474303 -0.13047203 0.14733486
000370 b3 93 02 be 22 e0 ad 3d 68 91 12 be b1 e5 1f be
       -0.12751655 0.084900156 -0.1431328 -0.15614964
000380 73 bf 31 be 3c 05 31 be 73 22 28 3e 47 e6 01 3e
       -0.17358188 -0.17287153 0.16419391 0.126855
000390 d4 50 f5 bd 98 13 8a bd 78 d6 d9 3c 10 45 77 bd
       -0.11978307 -0.067420185 0.026591524 -0.060368598
0003a0 c1 b5 2b 3e 21 21 17 3e 84 f2 93 3d f4 a2 60 3d
       0.16768552 0.14758731 0.072239906 0.054842904
0003b0 b0 1f 50 3c d7 b1 1d be 9f 0f 07 be 97 67 9a bd
       0.012702867 -0.15399872 -0.13189553 -0.075392894
0003c0 f0 f1 81 3d 30 a2 27 be b0 8e a2 3c bb 65 1f 3e
       0.06344974 -0.16370463 0.01984343 0.15566151
0003d0 f1 a6 23 3e d5 1d e9 bd 3b 8a 28 be fb 8c 31 3e
       0.15981652 -0.11382643 -0.1645898 0.17338936
0003e0 47 ba 07 3e b0 16 92 bd b8 c0 e7 3c ba f9 f0 bd
       0.13254653 -0.071332335 0.028290138 -0.117663816
0003f0 62 5c 23 be 1a 7e f9 bd c8 9e f3 3c d8 26 20 3d
       -0.1595321 -0.12182255 0.029738799 0.039099544

lstm.bias_ih_l0 f4 [128]
000000 fd f9 20 41 6b cc 1e 41 3d 4f 1f 41 35 68 21 41
       10.061032 9.924907 9.956845 10.087941
000010 e6 0e 21 41 33 7a 20 41 ed 96 1f 41 67 c3 1f 41
       10.066137 10.029834 9.974347 9.985206
000020 89 e5 1f 41 d6 8c 20 41 e9 8f 20 41 1e e9 21 41
       9.993539 10.034384 10.035134 10.119413
000030 8d 6b 20 41 60 36 1f 41 50 7e 22 41 09 68 20 41
       10.0262575 9.950775 10.155838 10.025399
000040 5a 96 21 41 95 60 1f 41 8c e5 1e 41 df 32 21 41
       10.099207 9.96108 9.931042 10.07492
000050 14 38 20 41 62 2e 1f 41 c4 61 1f 41 2e 8c 20 41
       10.013691 9.948824 9.961369 10.034224
000060 f9 f1 20 41 2d 8d 21 41 81 5f 21 41 52 bf 1f 41
       10.059075 10.096967 10.085816 9.984209
000070 b6 30 20 41 2b 15 1f 41 e9 8c 20 41 dc b2 1f 41
       10.011892 9.942668 10.034402 9.981167
000080 10 37 45 bd 48 fd 70 3d 6a 80 08 be e5 9e 15 3e
       -0.048148215 0.058835298 -0.13330236 0.14611395
000090 d2 c4 12 be 68 a5 f0 bd 72 f4 f1 bd 44 e6 84 bd
       -0.14332893 -0.11750299 -0.11814202 -0.06489232
0000a0 01 fb 09 be a2 2d f8 3d c8 86 b3 bd b2 06 e2 3d
       -0.13474657 0.12118079 -0.08765942 0.11036433
0000b0 1c fc 2c be 90 72 4c bd cc 46 29 be 01 4c 1e 3e
       -0.16893047 -0.049913943 -0.16530913 0.1545868
0000c0 84 73 08 be 49 f1 d3 bd df b7 2a be 30 b1 6d 3d
       -0.13325316 -0.10348756 -0.16671704 0.058030307
0000d0 84 3b 94 bd f9 d0 c8 bd e8 4b ba bc 9d 14 27 be
       -0.07237914 -0.09805483 -0.022741273 -0.16316457
0000e0 ac 3e 63 3d f4 60 16 bd 0c 83 3f bd 00 fe bb 3b
       0.05547969 -0.036713555 -0.046755835 0.0057370663
0000f0 b3 45 23 be fe 80 2a be c9 06 00 be d8 db 3a 3d
       -0.15944557 -0.16650769 -0.12502588 0.045619816
000100 f7 b9 b4 40 c9 4a b3 c0 b1 96 b3 40 59 7f b2 c0
       5.647701 -5.602879 5.612145 -5.5780454
000110 9a e9 af c0 b0 e3 b1 c0 78 0b b4 c0 e9 92 ae c0
       -5.497266 -5.559044 -5.6264 -5.4554334
000120 ad b1 b1 c0 7d ff b3 40 bd 7a b4 40 a1 75 b3 c0
       -5.552939 5.6249375 5.6399827 -5.608109
000130 9b 58 b2 40 27 5c b4 c0 63 cf b4 c0 88 c9 ae c0
       5.573316 -5.636249 -5.6503158 -5.462101
000140 0a 47 b1 c0 46 f9 b3 c0 0b 11 b1 c0 8d 70 b2 40
       -5.5399218 -5.624179 -5.5333304 5.576239
000150 93 c6 b0 40 f3 13 b2 c0 90 61 b3 c0 6d d8 b4 40
       5.52424 -5.564935 -5.6056595 5.651419
000160 d5 02 b6 40 d5 9b b3 c0 db 01 b7 40 47 b3 b6 40
       5.6878457 -5.6127725 5.7189765 5.7093844
000170 c9 1d b3 40 ca 82 b3 c0 a5 36 b7 40 59 a1 ae 40
       5.597386 -5.6097155 5.7254205 5.4571958
000180 d1 ed 1f 41 65 ee 1f 41 b7 6c 22 41 28 9e 21 41
       9.995561 9.995702 10.151542 10.101112
000190 4b d8 21 41 9e 4c 20 41 df c8 1e 41 f7 0c 22 41
       10.115306 10.018705 9.924041 10.128165
0001a0 fc d6 1f 41 c8 1b 22 41 fe c5 21 41 ed 9c 1d 41
       9.989986 10.131783 10.110838 9.850812
0001b0 d3 d1 20 41 96 ef 21 41 b6 33 20 41 e0 8b 1f 41
       10.051227 10.120993 10.012625 9.971649
0001c0 7f 29 21 41 d3 17 20 41 18 27 20 41 06 cd 1f 41
       10.072631 10.005816 10.009544 9.987555
0001d0 63 5d 21 41 5d 31 21 41 01 82 20 41 35 8f 21 41
       10.0852995 10.074552 10.031739 10.097463
0001e0 22 27 21 41 f9 e9 20 41 a6 ff 20 41 38 d5 1f 41
       10.072054 10.057122 10.062414 9.989555
0001f0 78 14 21 41 20 1a 1f 41 77 e5 1e 41 8f ec 1f 41
       10.067497 9.943878 9.931022 9.995254

lstm.bias_hh_l0 f4 [128]
000000 a4 fc 1f 41 86 8a 22 41 63 b0 20 41 d1 24 20 41
       9.99918 10.158819 10.043063 10.008988
000010 72 5a 1e 41 49 69 20 41 5b a9 21 41 87 68 21 41
       9.897081 10.025704 10.103847 10.088019
000020 d0 ce 20 41 e1 b1 20 41 a0 ad 1f 41 2c 79 20 41
       10.050491 10.043427 9.979889 10.029583
000030 cc 00 1f 41 40 61 21 41 4c 57 1f 41 30 cb 1e 41
       9.937695 10.086243 9.958813 9.924606
000040 90 51 20 41 af 78 20 41 26 21 23 41 ab 3f 1f 41
       10.019913 10.029464 10.195593 9.953044
000050 77 33 20 41 4e df 21 41 61 ac 21 41 10 7f 21 41
       10.012565 10.117018 10.104585 10.093521
000060 16 d1 1f 41 2b d2 1f 41 2a 9e 20 41 df 62 22 41
       9.988546 9.988811 10.038614 10.149138
000070 5c f9 1f 41 90 42 22 41 77 a6 21 41 5a 7f 20 41
       9.998379 10.141251 10.103141 10.031092
000080 00 d6 b2 3b 00 c1 f1 bb a0 d7 89 3c 69 5e e5 bd
       0.0054576397 -0.0073777437 0.01682645 -0.11199648
000090 5b 71 94 bd 24 95 2c bd 57 ee 19 3e 33 f1 1f 3e
       -0.07248183 -0.04213442 0.15032326 0.15619354
0000a0 a2 87 56 bd 93 e4 06 3e c0 d1 0d bd c5 d9 09 be
       -0.052375443 0.13173132 -0.03462386 -0.13461979
0000b0 73 5f 26 3e d6 82 04 be 66 65 eb bd 29 1b 1b be
       0.16247348 -0.12940535 -0.114939496 -0.1514708
0000c0 f0 7f b4 3c 33 3e 17 be 27 42 c7 bd 06 4c 66 bd
       0.022033662 -0.14769821 -0.097294144 -0.056224845
0000d0 21 e4 09 be 44 85 f9 bd 80 8a 72 3d 1c 3f 23 be
       -0.1346593 -0.121836215 0.059214115 -0.15942043
0000e0 48 46 ae bd 2e 44 c8 3d ac c4 83 bd 12 ac 26 be
       -0.08509499 0.09778629 -0.064339966 -0.16276577
0000f0 c0 ca 4c bc 1a 57 22 be 26 da 20 be cc 96 ed bd
       -0.012499511 -0.15853539 -0.15708217 -0.11601028
000100 65 5c ae 40 fa c8 ac c0 35 7a b5 40 38 13 b7 c0
       5.4487786 -5.3995333 5.671168 -5.721096
000110 f6 21 ab c0 10 09 b6 c0 b9 61 b2 c0 30 aa b1 c0
       -5.3478956 -5.6886063 -5.574429 -5.552025
000120 3d d3 b1 c0 9c eb b1 40 a3 dc b3 40 bd f7 af c0
       -5.557036 5.560011 5.620683 -5.4989915
000130 f1 94 b1 40 90 9c ac c0 bb f4 ae c0 02 76 b0 c0
       5.5494313 -5.3941116 -5.4673743 -5.5144053
000140 75 1c b2 c0 b3 4b b3 c0 48 27 ad c0 cb 72 b7 40
       -5.5659738 -5.6029906 -5.411045 5.732763
000150 a2 8e b4 40 a9 d8 b3 c0 f1 91 ae c0 b3 ce b0 40
       5.642411 -5.620198 -5.455315 5.525232
000160 3b ba b5 40 59 6b af c0 dc 8c b2 40 cc 8d b0 40
       5.678983 -5.481854 5.5796947 5.517309
000170 92 9b af 40 29 26 b7 c0 80 91 ad 40 49 0d b2 40
       5.4877405 -5.723408 5.424011 5.5641217
000180 bb 73 21 41 12 8f 20 41 2d 00 1d 41 a2 48 21 41
       10.0907545 10.034929 9.812543 10.080233
000190 bd f8 1d 41 82 38 20 41 6a 1d 22 41 f9 7a 1e 41
       9.873227 10.013796 10.132181 9.905023
0001a0 6b 81 21 41 f9 46 1f 41 46 51 20 41 63 85 21 41
       10.094096 9.954827 10.019842 10.095065
0001b0 7d 5d 1f 41 ca 45 1f 41 80 5a 20 41 c0 72 21 41
       9.960324 9.954538 10.022095 10.090515
0001c0 0b 85 1f 41 7f b2 1f 41 4c 70 21 41 d0 be 21 41
       9.969981 9.981078 10.089916 10.109085
0001d0 46 f6 1e 41 af cc 20 41 0a 6a 20 41 f2 cd 1f 41
       9.935125 10.049972 10.025888 9.98778
0001e0 50 9b 1e 41 58 4a 1f 41 b7 b8 20 41 ff 07 21 41
       9.912918 9.95565 10.045096 10.064452
0001f0 28 03 21 41 bc 0d 21 41 87 aa 21 41 bb 14 21 41
       10.063271 10.065853 10.104133 10.067561

fc1.weight f4 [32, 32]
000000 b7 82 f3 43 00 ab f3 c3 e3 a0 f3 43 7d 84 f3 c3
       487.0212 -487.33594 487.25693 -487.03506
000010 57 8a f3 c3 ef 9e f3 c3 b6 9a f3 c3 31 c3 f3 c3
       -487.08078 -487.24167 -487.20868 -487.52493
000020 ad 85 f3 c3 bd 82 f3 43 ce 83 f3 43 64 7d f3 c3
       -487.04434 487.0214 487.02972 -486.9796
000030 c2 b8 f3 43 a9 ab f3 c3 4c 9f f3 c3 a6 b7 f3 c3
       487.44342 -487.3411 -487.2445 -487.43475
000040 67 79 f3 c3 44 97 f3 c3 21 9f f3 c3 71 82 f3 43
       -486.94846 -487.18176 -487.2432 487.01907
000050 6e 9e f3 43 48 73 f3 c3 8f 98 f3 c3 37 81 f3 43
       487.23773 -486.90063 -487.19186 487.0095
000060 df 6f f3 43 42 8b f3 c3 4b 9e f3 43 60 97 f3 43
       486.874 -487.08795 487.23666 487.18262
000070 16 9c f3 43 f9 8f f3 c3 cd 85 f3 43 59 91 f3 43
       487.21942 -487.1248 487.04532 487.13553
000080 7c 87 09 3c b2 03 35 3e 83 e0 03 3e 4d 51 c8 3d
       0.008394118 0.17677191 0.12878613 0.09781132
000090 f6 fe c7 3b f8 90 27 3e 79 1c 43 3e ab 79 18 3c
       0.0061033918 0.16363895 0.1905383 0.009306352
0000a0 1e 38 c4 bd 33 4f 96 bd cb 17 c0 3d e5 a4 eb 3c
       -0.09581016 -0.07339325 0.09379538 0.028765151
0000b0 1c 11 f0 bd 48 ec 1c 3e 4c 29 51 3b 7c a5 2e 3d
       -0.11722013 0.15324509 0.0031915484 0.042638287
0000c0 da c7 c7 bd c3 26 23 bc 92 12 c9 3c d1 27 23 bc
       -0.097549155 -0.009957972 0.024544988 -0.009958223
0000d0 4b ca df 3d ca 0a a1 3d aa cc 0c be 33 0e b6 bd
       0.10927256 0.07863386 -0.13749948 -0.08889427
0000e0 5d 9f 1d 3d 7d 2a 4c 3e 51 06 08 be ca 3d 2d be
       0.03848206 0.19938083 -0.1328366 -0.16918102
0000f0 f3 c4 d2 3d 71 de a7 bd 40 28 1b bd 1a 85 b6 bc
       0.10291471 -0.08196724 -0.037880182 -0.022280265
000100 3d ce a7 bd af 86 9d bd b4 7c 06 bd ba 4c 2b 3e
       -0.08193634 -0.076917045 -0.03283377 0.16728488
000110 29 94 17 be a7 91 67 3c e3 d4 2c 3c ae 44 18 3e
       -0.14802612 0.014133847 0.010548803 0.14869949
000120 16 78 95 bd 6d 59 db 3c 51 96 cf bb af e2 9d bd
       -0.07298295 0.02677604 -0.006335058 -0.07709252
000130 0a 48 0a 3e 51 bb f4 bd 02 2a a6 bd 9a d9 3f 3e
       0.13504043 -0.1194979 -0.08113481 0.18735352
000140 65 3d 1d 3e c2 b4 e9 3d cd c7 e6 3b 0b 48 47 be
       0.15355451 0.1141143 0.007042861 -0.19461076
000150 8a d1 7e bd 99 b9 07 be 0d 01 4c 3d 48 b4 4a 3b
       -0.06221155 -0.13254394 0.04980569 0.003093021
000160 20 59 4b be a6 ca c1 3b 93 73 6d bc 05 46 0d be
       -0.19858217 0.00591405 -0.014492887 -0.13796242
000170 aa 49 8e bd 92 cf 08 3e 3d 52 18 be 8a 51 08 3e
       -0.06947644 0.13360432 -0.14875121 0.13312355
000180 95 83 f3 43 f1 ab f3 c3 fc 85 f3 43 83 8d f3 c3
       487.02798 -487.3433 487.04675 -487.10556
000190 31 9f f3 c3 71 99 f3 c3 18 7f f3 c3 0b c3 f3 c3
       -487.24368 -487.19876 -486.99292 -487.52377
0001a0 ee 88 f3 c3 cc a0 f3 43 61 7c f3 43 77 9f f3 c3
       -487.06976 487.25623 486.9717 -487.24582
0001b0 99 b4 f3 43 b6 b7 f3 c3 78 9b f3 c3 f4 bc f3 c3
       487.41092 -487.43524 -487.2146 -487.4762
0001c0 d1 94 f3 c3 c5 9d f3 c3 5c c1 f3 c3 8e 9d f3 43
       -487.16263 -487.23257 -487.51062 487.2309
0001d0 2c a1 f3 43 b4 8b f3 c3 62 85 f3 c3 a4 78 f3 43
       487.25916 -487.09143 -487.04205 486.9425
0001e0 87 95 f3 43 c3 84 f3 c3 58 97 f3 43 59 88 f3 43
       487.16818 -487.0372 487.18237 487.06522
0001f0 84 9d f3 43 5e 9c f3 c3 97 7b f3 43 0f 9a f3 43
       487.2306 -487.22162 486.96555 487.20358
000200 64 53 4e 3d e8 de eb bc 46 02 ad 3d b2 1d e5 3d
       0.050372496 -0.028792813 0.08447699 0.111873046
000210 12 e5 69 bd 2f 5f 24 3e cf 7c 34 be c3 32 17 3e
       -0.057103224 0.16051935 -0.17625736 0.14765458
000220 38 bc 8c 3d 51 66 1b 3e 7e fc b8 3d 06 87 f1 3d
       0.068718374 0.1517575 0.09032534 0.11793332
000230 ec 47 18 be 40 29 ec 3b ef dc 92 bd e6 ca d5 3d
       -0.14871186 0.007207066 -0.07171046 0.104390904
000240 b0 9e 45 bd ac 88 34 3d fe 8c b8 3d 84 e3 05 bd
       -0.04824704 0.044075653 0.09011267 -0.03268768
000250 82 2d f0 bd 4f 8e 05 be 37 b1 06 3e bf 36 05 3e
       -0.1172743 -0.13042568 0.1315354 0.13009165
000260 c4 c6 05 be 92 ad ff 3d c1 8e 11 be 60 4b bd bd
       -0.13064104 0.12484278 -0.14214613 -0.09242892
000270 58 f9 85 3d df 95 1c 3e 74 93 45 bd e6 03 fa 3d
       0.06541699 0.15291546 -0.048236325 0.12207775
000280 dc 74 f3 43 c5 92 f3 c3 31 9b f3 43 66 89 f3 c3
       486.91296 -487.14664 487.21243 -487.07343
000290 e7 8d f3 c3 ab 85 f3 c3 18 78 f3 c3 15 97 f3 c3
       -487.1086 -487.04428 -486.93823 -487.18033
0002a0 ba 88 f3 c3 d0 84 f3 43 95 93 f3 43 80 85 f3 c3
       -487.06818 487.0376 487.15298 -487.04297
0002b0 55 a9 f3 43 63 9f f3 c3 46 9b f3 c3 98 b2 f3 c3
       487.3229 -487.2452 -487.21307 -487.39526
0002c0 03 80 f3 c3 5e b4 f3 c3 93 b5 f3 c3 29 83 f3 43
       -487.0001 -487.40912 -487.41855 487.0247
0002d0 60 7d f3 43 4a 90 f3 c3 5f 9c f3 c3 c3 98 f3 43
       486.9795 -487.12726 -487.22165 487.19345
0002e0 cd 94 f3 43 8b 81 f3 c3 19 9a f3 43 e4 7b f3 43
       487.1625 -487.01205 487.2039 486.9679
0002f0 3f 80 f3 43 95 7e f3 c3 e2 9a f3 43 5b 9f f3 43
       487.00192 -486.98892 487.21002 487.24496
000300 66 9b f3 43 9e 9f f3 c3 60 97 f3 43 de 82 f3 c3
       487.21405 -487.247 487.18262 -487.0224
000310 7d 82 f3 c3 69 8c f3 c3 11 8b f3 c3 57 98 f3 c3
       -487.01944 -487.09695 -487.08646 -487.19016
000320 ae 96 f3 c3 3f 84 f3 43 31 9f f3 43 86 7c f3 c3
       -487.1772 487.03317 487.24368 -486.97284
000330 b7 a6 f3 43 0b a8 f3 c3 4d bf f3 c3 3f a8 f3 c3
       487.30246 -487.31284 -487.49454 -487.31442
000340 b5 8a f3 c3 24 9f f3 c3 5a b8 f3 c3 82 99 f3 43
       -487.08365 -487.2433 -487.44025 487.19928
000350 e9 9f f3 43 36 71 f3 c3 d8 86 f3 c3 cf 84 f3 43
       487.2493 -486.88446 -487.05347 487.03757
000360 bb 69 f3 43 ac 84 f3 c3 48 84 f3 43 dd 8e f3 43
       486.82602 -487.0365 487.03345 487.11612
000370 a3 80 f3 43 1b 87 f3 c3 1a 72 f3 43 a5 6c f3 43
       487.00497 -487.0555 486.89142 486.8488
000380 9f 77 f3 43 b2 82 f3 c3 be 8b f3 43 da 89 f3 c3
       486.93454 -487.02106 487.09174 -487.07697
000390 68 88 f3 c3 c3 72 f3 c3 ed 85 f3 c3 df 90 f3 c3
       -487.06567 -486.89658 -487.0463 -487.1318
0003a0 13 7f f3 c3 e6 92 f3 43 cf 68 f3 43 77 62 f3 c3
       -486.99277 487.14764 486.81882 -486.76926
0003b0 30 a4 f3 43 28 86 f3 c3 c8 9b f3 c3 53 9d f3 c3
       487.2827 -487.0481 -487.21704 -487.2291
0003c0 86 80 f3 c3 1d 82 f3 c3 97 81 f3 c3 6e 94 f3 43
       -487.0041 -487.0165 -487.01242 487.1596
0003d0 bf 97 f3 43 57 63 f3 c3 6b 79 f3 c3 6a 68 f3 43
       487.18552 -486.7761 -486.94858 486.81573
0003e0 ff 74 f3 43 7a 77 f3 c3 54 78 f3 43 1b 6b f3 43
       486.91403 -486.9334 486.94006 486.83676
0003f0 da 83 f3 43 4f 80 f3 c3 66 7a f3 43 1c 7e f3 43
       487.0301 -487.0024 486.95624 486.98523

fc1.bias f4 [32]
000000 41 84 f3 43 3e b5 ab 3c 36 c0 ae 3c 33 88 f3 43
       487.03323 0.020960446 0.021331888 487.06406
000010 73 f2 33 be 4f 97 f3 43 70 8a f3 43 29 59 f3 43
       -0.17572956 487.1821 487.08154 486.69656
000020 1a 02 6c bb 42 94 f3 43 7b 84 f3 43 a7 9c 9f 3c
       -0.0036011995 487.15826 487.035 0.019483877
000030 e4 94 f3 43 c9 8b f3 43 1e 78 f3 43 72 9c f3 43
       487.1632 487.09207 486.93842 487.22223
000040 e2 97 f3 43 b7 89 f3 43 42 1c 1e 3e d4 44 14 bd
       487.18658 487.0759 0.15440467 -0.036198452
000050 c7 98 f3 43 93 8d f3 43 d7 df 3b 3d 71 94 f3 43
       487.19357 487.10605 0.045867767 487.1597
000060 6b 10 6e 3d 11 84 f3 43 59 8e f3 43 c0 9b f3 43
       0.058121126 487.03177 487.1121 487.2168
000070 5c 86 f3 43 d1 85 f3 43 d2 80 f3 43 fb 95 f3 43
       487.04968 487.04544 487.0064 487.17172

fc2.weight f4 [3, 32]
000000 33 49 e6 c3 98 33 2c be 33 6a 88 bd f0 4c e6 c3
       -460.57187 -0.16816556 -0.06660881 -460.60107
000010 70 9c 80 3c b0 2d e6 c3 44 4b e6 c3 48 39 e6 c3
       0.015699595 -460.35693 -460.588 -460.4475
000020 de a0 2c bd 68 1e e6 c3 3a 44 e6 c3 51 65 bc 3c
       -0.042145602 -460.23755 -460.53302 0.02299753
000030 b5 24 e6 c3 a7 35 e6 c3 7e 16 e6 c3 1a 43 e6 c3
       -460.28677 -460.41916 -460.17572 -460.52423
000040 0f 36 e6 c3 35 30 e6 c3 f2 7c 83 3e e0 eb d6 3d
       -460.42233 -460.37662 0.25681263 0.10494208
000050 a7 3a e6 c3 6b 2e e6 c3 a7 ff 3b bd ec 23 e6 c3
       -460.45822 -460.36264 -0.045898106 -460.28064
000060 46 66 c9 bc a4 48 e6 c3 e4 43 e6 c3 94 1b e6 c3
       -0.0245849 -460.5675 -460.5304 -460.21545
000070 39 37 e6 c3 14 4b e6 c3 59 24 e6 c3 8f 20 e6 c3
       -460.43143 -460.58655 -460.28397 -460.25436
000080 28 16 e6 c3 3a 35 13 3e ff 38 f0 3b 9f 2c e6 c3
       -460.1731 0.14375773 0.007331013 -460.3486
000090 4a 74 bf 3d a7 23 e6 c3 89 1a e6 c3 f1 02 e6 c3
       0.09348352 -460.27853 -460.2073 -460.02298
0000a0 82 1a 16 3d a2 3a e6 c3 7e 3f e6 c3 b4 bc 8e 3d
       0.036646374 -460.45807 -460.49603 0.06969586
0000b0 a3 2a e6 c3 39 35 e6 c3 78 08 e6 c3 6a 31 e6 c3
       -460.3331 -460.4158 -460.06616 -460.38605
0000c0 fb 28 e6 c3 18 20 e6 c3 38 92 8a bc 20 6c 09 be
       -460.32016 -460.25073 -0.016915426 -0.13420153
0000d0 3a 3c e6 c3 c2 3c e6 c3 77 20 40 3d 8f 37 e6 c3
       -460.47052 -460.47467 0.04690596 -460.43405
0000e0 25 79 c4 3d 60 3d e6 c3 10 30 e6 c3 9d 2e e6 c3
       0.09593419 -460.4795 -460.3755 -460.36417
0000f0 af 37 e6 c3 94 2d e6 c3 55 39 e6 c3 49 32 e6 c3
       -460.43503 -460.35608 -460.4479 -460.39285
000100 88 52 e6 c3 a9 ce 0d 3e 9b 87 0e 3e 3e 46 e6 c3
       -460.64478 0.13848366 0.13918917 -460.54877
000110 c1 4a 1b be cd 3f e6 c3 92 4f e6 c3 41 19 e6 c3
       -0.15165235 -460.49844 -460.62164 -460.1973
000120 f6 da b4 3d ca 34 e6 c3 67 32 e6 c3 b9 82 10 3c
       0.08830826 -460.4124 -460.39377 0.008820229
000130 4e 37 e6 c3 01 3a e6 c3 8e 38 e6 c3 29 24 e6 c3
       -460.43207 -460.45316 -460.44183 -460.2825
000140 77 2c e6 c3 7b 4a e6 c3 57 cf a5 3c 77 e6 0a 3e
       -460.34738 -460.58188 0.020240469 0.13564478
000150 4d 3d e6 c3 4f 2f e6 c3 ca 64 76 3d 88 48 e6 c3
       -460.4789 -460.3696 0.060154714 -460.56665
000160 a1 05 16 be 9b 4c e6 c3 d8 31 e6 c3 42 40 e6 c3
       -0.14650585 -460.59848 -460.3894 -460.502
000170 aa 31 e6 c3 e1 3a e6 c3 de 3c e6 c3 f8 22 e6 c3
       -460.388 -460.46 -460.47552 -460.2732

fc2.bias f4 [3]
000000 3f f0 e4 c3 bc f4 e4 c3 6a f5 e4 c3
       -457.87692 -457.912 -457.9173
