saves/07022021114419_acrobot_dqn.pt (torch, 27479 bytes, 8 tensors)

lstm.weight_ih_l0 f4 [128, 6]
00000000: ab3a da40 f37e babe 4f75 9ebf b665 a3bd
00000010: cbf8 993e 4239 f33d 7db9 d340 0c1d 7bbe
00000020: f1e1 8ebf 3a40 783d faf9 323e b893 d83d
00000030: 684d e240 dc7b 0abe d9a5 93bf eb2a 163e
00000040: c7fe 493e 4c90 e33d 1317 a240 a8c7 06bf
00000050: ad2a 52bf b112 9ebe 027d 433d e3cb b13d
00000060: 98ec cf40 2f29 cfbe 32e9 77bf d267 16be
00000070: a398 c53d 1146 d53d adde d840 2fbf 17be
00000080: 67a5 81bf 7c7a 183e 9d38 493e e095 e43d
00000090: 3f65 9b40 3f41 01bf 5408 47bf 8747 a7be
000000a0: 3bd8 ae3d 2e6a 8e3d 1fc6 bc40 0dab 3ebe
000000b0: 662c 6cbf a060 b539 48db 2e3e 0364 bd3d
000000c0: 9abf e040 f321 72be 3829 8cbf b899 233d
000000d0: 20fd 823e 21ab c43d 26d5 ac40 a949 d7bd
000000e0: 10da 43bf d300 9e3d 8601 963d 7c4d 8b3d
000000f0: 6ade bd40 5ed0 51be 9107 5bbf 5d19 8d3b
00000100: 4632 a43b 4dd0 9a3d 6823 d540 b6a3 f7be
00000110: cb0e 86bf 3d5f 25be b28b e73d ddeb cd3d
00000120: ed80 d440 44c1 abbe 3cee 83bf f30c 86bd
00000130: c3cd 253e df44 e73d 8885 e140 d15e 96be
00000140: cc9f 93bf b91c 22bd 9d3f 8f3e 17f0 f13d
00000150: 22c5 da40 4a41 e1be 63f3 b4bf ab53 1ebd
00000160: a151 913e 077d c83d 2429 d640 d4c7 30be
00000170: daa7 8cbf 2e0f f33d 66b3 2b3e 2632 8e3d
00000180: b4b0 be40 8c5c 54be 4eac 64bf 176c 1fbc
00000190: ea2b e83d 35a9 af3d 72f8 d140 9651 b4be
000001a0: 4285 80bf 080e bebd 1181 063e 49b8 8e3d
000001b0: c955 e240 aef9 7bbe 6fd1 92bf 016c 2e3d
000001c0: 6c11 733e a3d5 dd3d 3773 b940 8c4d 70be
000001d0: f6de 6ebf 48b6 773d 98ad 2e3e 890c ad3d
000001e0: 45aa e240 1e53 97be d9b2 8abf ac8d aebb
000001f0: 5d55 613e cffc cd3d 88b0 af40 f1ec d5be
00000200: abc6 5bbf d810 56be 0563 ee3d 9d9c 923d
00000210: 24e7 bb40 5793 4bbe 38bc 6bbf f03f 3dbc
00000220: d8b0 d03d f452 a93d ff10 e040 549f 8fbe
00000230: b0bf 92bf a2fb d93d 5ee9 833e ae32 013e
00000240: ab19 d340 a652 7abe 10e7 7fbf dfb5 123d
00000250: 2247 273e 4c2e e53d aa71 bf40 56dc b7be
00000260: e407 5dbf d756 85bd 8b48 c03d f418 cc3d
00000270: 6fac c240 8333 32be f48f 6dbf f45b 29bb
00000280: aa51 fb3d 5bdd cc3d 9a29 db40 a4ef e8be
00000290: e846 9ebf 8219 00be 52d2 8a3e 74af 0a3e
000002a0: 6cba df40 bbfa febd efe3 8ebf a9ad dc3d
000002b0: 36a6 4c3e 6f1e 003e 579f af40 a562 01bf
000002c0: 07d9 5dbf a97b 73be ebeb 6b3e 82be b13d
000002d0: c218 b640 b42a 453e 698a 68bf 9933 cb3e
000002e0: ea42 be3d 05dd 8c3d 1a70 9c40 c610 ffbe
000002f0: 46f9 2fbf 1da8 9cbe 72d2 d93d 694e 693d
00000300: fec9 2fbe 3ec1 2abe 31e4 183e 566c 20be
00000310: 89a9 29be aaea dd3d 00f4 6e3d e2f5 db3d
00000320: 6e06 8f3d b2e3 8a3d c388 123e 3046 373d
00000330: 3e8d 32be c737 05be be1c f43d 6e63 2cbe
00000340: 2801 28bd 6476 1bbe 69ba 283e 80bd bbba
00000350: ce72 813d 9898 19bd eadd 32be 1ce5 373d
00000360: 60fc 87bc 45d3 083e 9357 84bd 8602 c03d
00000370: 70c1 93bd 4000 f33b 982f 2abd 389b b0bc
00000380: adb4 173e 0410 4abd 342e 19be 889c 503d
00000390: 72f8 ac3d f822 823d 5746 0cbe 8434 f2bd
000003a0: 195c a9bd b830 4f3d b0d1 29be 43f7 24be
000003b0: 2932 203e 8bca cabd 0f1e 1e3e 8faa 093e
000003c0: 0051 f73c 54c4 853d 4fce 123e 63d9 f9bd
000003d0: e1a6 f8bd 1d9e 09be 2022 fe3b 40aa ee3b
000003e0: fe5d a4bd b038 06bc 8bd1 003e d2d4 fe3d
000003f0: 3876 1abe f202 6ebd 8c64 2b3d 6b19 0a3e
6.8196616 -0.3642498 -1.237955 -0.07978384 0.30072626 0.118761554 6.6163926 -0.24522799
-1.1162702 0.060608126 0.17478171 0.1057505 7.071949 -0.13523811 -1.1534988 0.1466481
0.19726096 0.11111507 5.0653167 -0.526484 -0.8209637 -0.30873635 0.04772664 0.086814664
6.497631 -0.40461108 -0.968402 -0.14688042 0.09648254 0.10413755 6.777182 -0.14819025
-1.0128602 0.14890474 0.19650503 0.11161399 4.856109 -0.5049018 -0.7774708 -0.3267176
0.085373364 0.06953846 5.8991847 -0.18619938 -0.92255247 0.00034595001 0.17075837 0.09247591
7.023389 -0.23645763 -1.0950079 0.03994152 0.25583744 0.09602953 5.401019 -0.105120964
-0.7650461 0.07715001 0.07324509 0.06801888 5.9334 -0.20489642 -0.8555842 0.004306002
0.005010876 0.075592615 6.660572 -0.4836709 -1.0473264 -0.16149612 0.11305942 0.10054753
6.640738 -0.33545887 -1.0307078 -0.065454386 0.16191773 0.11292433 7.04755 -0.29369214
-1.1533141 -0.039578173 0.2797822 0.11813372 6.836564 -0.43995124 -1.4136776 -0.03865401
0.2838259 0.09789472 6.692522 -0.17263728 -1.0988724 0.1186813 0.16767654 0.06943159
5.95907 -0.20738429 -0.89325416 -0.0097303605 0.11336501 0.085771956 6.561578 -0.35218495
-1.0040667 -0.0928002 0.13135172 0.06968743 7.072972 -0.24606964 -1.1470164 0.04258347
0.23737115 0.108317636 5.7953143 -0.23467082 -0.9330896 0.06047657 0.17058408 0.084496565
7.083285 -0.295556 -1.083583 -0.005326947 0.2200522 0.10057985 5.490299 -0.41782334
-0.8585002 -0.20904863 0.1163998 0.07158778 5.8719654 -0.19880424 -0.92084074 -0.011550888
0.1018998 0.08267775 7.0020747 -0.28051245 -1.1464748 0.10643698 0.25763983 0.12616989
6.5968833 -0.2444559 -0.9996195 0.035817977 0.16335729 0.11190471 5.982625 -0.3591029
-0.86340165 -0.06510704 0.093888365 0.09965697 6.083549 -0.17402463 -0.9279778 -0.0025842162
0.122714356 0.10003158 6.8488283 -0.4549533 -1.2365389 -0.1250973 0.27113587 0.13543493
6.9915066 -0.12450167 -1.116331 0.107753105 0.1998528 0.1251161 5.4882007 -0.50541145
-0.8665928 -0.23777641 0.23039214 0.086789146 5.690522 0.19254571 -0.908362 0.39687803
0.092901066 0.06878094 4.8886843 -0.49817485 -0.68739736 -0.3059701 0.106358424 0.056959543
-0.17166898 -0.16675279 0.14930798 -0.15666327 -0.16568579 0.10835774 0.058338165 0.10740258
0.06983648 0.06781711 0.14309983 0.04474467 -0.17436692 -0.13009559 0.11919545 -0.16834804
-0.041016728 -0.15181881 0.1647736 -0.0014323443 0.063207254 -0.03749904 -0.17467466 0.04489623
-0.016599834 0.13361843 -0.06462016 0.09375481 -0.0721463 0.0074158013 -0.041549295 -0.021558389
0.14815016 -0.04933168 -0.14959031 0.05093053 0.08445825 0.06354326 -0.13698708 -0.11826423
-0.08269519 0.05058357 -0.16583896 -0.16109948 0.15644135 -0.09901913 0.15441154 0.13443969
0.030189991 0.06531587 0.14336513 -0.12199666 -0.121412046 -0.13439222 0.007755533 0.007283479
-0.0802574 -0.008192226 0.12579934 0.12442936 -0.1508416 -0.058108278 0.041843936 0.13486259

lstm.weight_hh_l0 f4 [128, 32]
00000000: f249 ed3d 72d6 ad3d 82dd fb3d 1680 c33d
00000010: b6aa eabd 3ea5 963d f6aa 993d 77e1 0b3e
00000020: 6a38 823d 1ff5 233e c097 cbbc af7c bdbd
00000030: c02c 4e3c cce8 5d3d 63e9 09be 9562 10be
00000040: c5e5 0bbe 202d 903c 207e 27be 9c0a 2cbd
00000050: 605b fb3c 575f aabd dc4c ffbd 8058 963b
00000060: 808b b3ba 0077 a9bb 4830 34bd b8cd b8bc
00000070: 4d07 153e fed1 fc3d 55d2 0dbe 4c7b 243d
00000080: 0628 7fbd 088e 99bd 8988 073e 948e 1d3d
00000090: 4ea4 58bd 06b9 f63d 5628 b03d 8065 22bd
000000a0: becb 25be 884b c3bd eb67 c0bd 4bc3 2b3e
000000b0: c0db ce3b fbfb cfbd 76ec b33d 88c7 0fbd
000000c0: a02d 8cbc c04e d23c b006 5cbd acb1 303d
000000d0: 220b e03d 23a9 b4bd 80e6 523b b787 c7bd
000000e0: f9b1 1dbe 00ca 41bd 1846 0ebe 9a34 ddbd
000000f0: c130 e2bd b955 0a3e e413 313d aa79 c93d
00000100: 7be3 2d3e 1daf 043e 40b5 1f3d a8cd 11be
00000110: 4778 013e 8a13 813d 3501 03be 7dd9 143e
00000120: 6da9 92bd fe38 eb3d 044a 7f3d 89b8 203e
00000130: 8e19 9f3d 04fe 9cbd 9238 67bd 8230 ad3d
00000140: 8b13 afbd b042 473c 2e43 bd3d 6ce6 fabd
00000150: fef0 a4bd ac9c 6f3d 7ebd a43d 95ea 8bbd
00000160: 8220 2abe 42e5 57bd 1065 ccbd a260 d93d
00000170: 7302 303e 1a75 833d ed48 09be e013 973c
00000180: e274 b63d 24fe 27bd bd33 133e 5558 173e
00000190: d728 173e 9638 f03d d583 213e e0c9 613d
000001a0: 083d fdbd 12c6 c63d 6223 d23d 3ca4 12bd
000001b0: 5547 a8bd c059 1abc 8039 93ba c606 f53d
000001c0: ef09 b7bd c655 c73d 43b7 21be f9ab 1c3e
000001d0: 90ed e6bd a438 3bbd 6a5f ffbd 2595 053e
000001e0: 1575 93bd d196 c7bd 3c93 2b3d fea1 aa3d
000001f0: 6487 2abe a4c8 64bd ba09 1ebe e00e 0bbc
00000200: 8863 aabc 2094 85bc f105 e8bd e8c6 7b3d
00000210: 5393 c3bd 6da4 a4bd a84d 903d 45c5 18be
00000220: e045 0fbd 6d96 0dbe c44b 1c3d 1e98 a83d
00000230: 346f b5bd 0097 143c 3867 22bd c01d 7ebb
00000240: 18ed 07bd 91c7 103e e45c 90bd 65ee f2bd
00000250: 86dc c63d d0a6 3abc 69a0 0d3e 6cc5 943d
00000260: c0b7 683b 927c e23d a0e0 48bd 1874 223d
00000270: 96c5 f13d 66a4 fa3d 2a80 953d 36cc 2bbe
00000280: 2680 ac3d dac8 cb3d 600b 22be 364b 8a3d
00000290: e41f 0e3d bed3 12be 717d cbbd 54ae 0bbe
000002a0: d063 fe3c 0b62 243e 4ad5 9a3d 9caf 8ebd
000002b0: c0ba 043c 06b1 a13d d2a1 9e3d ba22 de3d
000002c0: a8df afbc 94cc 0cbe 28c8 febc 3944 273e
000002d0: 0068 613c 03b4 b3bd 5439 12be 4bd9 263e
000002e0: a16b c9bd 2a8d dd3d a571 1ebe a024 0c3d
000002f0: 7ea0 2bbe d8b3 4cbd 00f0 5dba a6a0 5ebd
00000300: 7967 82bd 149b 273d 70a2 25be 725c b33d
00000310: 0abb d83d 4048 8e3d 4396 083e 34e3 bdbd
00000320: 9bcf 003e 2f82 1cbe c0e5 1b3b 3435 b8bd
00000330: 2f06 afbd 3c43 b4bd fac4 b43d b602 f5bd
00000340: 10fe 233c f037 90bc 7662 a63d 1e7b 9d3d
00000350: a673 acbd cee6 b13d 80a4 f7ba c864 17be
00000360: 127a 6abd 903f a8bc fd6d 153e c02a 27bd
00000370: b766 083e 40da bebc f9b7 febd 9b50 1d3e
00000380: e65f f13d 2045 553d 7732 b4bd d9ca 26be
00000390: c41f 04be 28a7 263d 8a8a cf3d a818 2cbd
000003a0: dd06 243e 864b d13d 454c 0b3e df38 003e
000003b0: 0a77 05be 22c6 b03d 75b2 34be ae00 af3d
000003c0: ca2b c43d b741 1d3e 121d fd3d 1838 643d
000003d0: 596f 163e 7a8a efbd 03d4 82bd e8f2 e53c
000003e0: 5fe7 113e 7994 05be 60d4 82bc 8026 8cbc
000003f0: 3d74 04be 9423 283d 7a61 94bd b0fa 69bc
0.115863696 0.08488168 0.12298109 0.09545915 -0.11458342 0.07355736 0.07503311 0.13660227
0.063584164 0.16011475 -0.024852633 -0.09252297 0.012583911 0.05417709 -0.13467936 -0.14100106
-0.13661869 0.017599642 -0.16356707 -0.042002305 0.03068322 -0.08318966 -0.12465832 0.0045881867
-0.001369819 -0.0051716566 -0.043991357 -0.022559032 0.14553566 0.1234474 -0.13849767 0.040156648
-0.06229403 -0.074977934 0.13235678 0.03846605 -0.05289107 0.12047009 0.086014435 -0.03964758
-0.16191003 -0.09535891 -0.09394821 0.16773717 0.0063128173 -0.10155483 0.08785336 -0.035102397
-0.0171116 0.025672317 -0.053717315 0.04313819 0.109396234 -0.08821323 0.0032180846 -0.097426824
-0.15399922 -0.047311783 -0.13893926 -0.108010486 -0.11044455 0.13509263 0.04323186 0.09837659
0.16981308 0.12957425 0.038991213 -0.14238608 0.12643538 0.06302555 -0.12793429 0.1453609
-0.07161222 0.1148548 0.062326446 0.15695395 0.07768546 -0.07665637 -0.056450434 0.08456518
-0.085486494 0.012161896 0.09241329 -0.12250981 -0.08053778 0.058499023 0.08043955 -0.06831852
-0.16613963 -0.05270887 -0.09980214 0.10614134 0.17188434 0.0641882 -0.13406725 0.018442094
0.089090124 -0.04101385 0.14375205 0.1477979 0.14761673 0.11729543 0.15772946 0.055124164
-0.123651564 0.09705748 0.10260655 -0.035801157 -0.082167305 -0.009420812 -0.0011232346 0.119641826
-0.089374416 0.09733157 -0.15792565 0.15299977 -0.1127578 -0.045708314 -0.12469371 0.13045175
-0.07200066 -0.09745563 0.04188846 0.08331679 -0.1665321 -0.05585541 -0.15433398 -0.008487433
-0.020799413 -0.016305983 -0.11329258 0.06146899 -0.09549584 -0.08039174 0.07046062 -0.14919002
-0.034978747 -0.13826914 0.038158193 0.08232139 -0.08859101 0.009069204 -0.03964922 -0.0038775057
-0.033185095 0.14138629 -0.070489675 -0.118618764 0.0971003 -0.01139231 0.13830723 0.07264218
0.0035509914 0.11058916 -0.049042344 0.039661497 0.11805265 0.12238388 0.07299836 -0.16777119
0.0842288 0.09950419 -0.15824652 0.067526266 0.034698382 -0.14338586 -0.099360354 -0.1364072
0.031053454 0.16053025 0.07560213 -0.069670886 0.008101165 0.07895093 0.077457085 0.10846467
-0.021468952 -0.13749915 -0.031101301 0.16334619 0.013757706 -0.08774569 -0.14279681 0.16293828
-0.09834982 0.108179405 -0.1547304 0.034214616 -0.16760442 -0.0499762 -0.0008466244 -0.054352425
-0.06367392 0.04091938 -0.16175246 0.08757867 0.1058255 0.06947374 0.1333857 -0.09271851
0.12579195 -0.15284036 0.0023788065 -0.08994523 -0.08546101 -0.088018864 0.08826633 -0.11963408
0.010009304 -0.017604798 0.08124249 0.07689498 -0.08420496 0.086866006 -0.0018893629 -0.14784539
-0.05724532 -0.020538121 0.14592738 -0.040812254 0.13320433 -0.02329743 -0.12437434 0.1536278
0.11785869 0.052067876 -0.08798688 -0.16288318 -0.12902743 0.040686756 0.10133846 -0.0420157
0.16018243 0.10219483 0.13603313 0.12521695 -0.13033691 0.08631541 -0.17646201 0.085450515
0.095786646 0.153571 0.1235906 0.055717558 0.14690913 -0.11696334 -0.06388094 0.028069928
0.14248417 -0.13044919 -0.015970409 -0.017108202 -0.12934966 0.041049555 -0.07245155 -0.01428096

lstm.bias_ih_l0 f4 [128]
00000000: cd1d 2741 e033 2541 5130 2941 6dd0 1c41
00000010: b086 2541 2c59 2641 bebb 1d41 f8dd 2241
00000020: 5ae6 2641 89ec 1f41 8c05 2341 d90d 2641
00000030: 7c5d 2541 30d4 2841 2539 2541 0445 2441
00000040: c384 2341 60d7 2541 20fc 2541 03da 2041
00000050: c77f 2741 9e34 1f41 4b90 2441 7e97 2741
00000060: 2e6f 2541 6e4a 2341 32aa 2241 cf94 2541
00000070: 7454 2741 73a2 2141 0e8c 1f41 08f3 1b41
00000080: cfeb 293e dcfd 393d a716 c7bd 19b6 92bd
00000090: 770d 343e 0960 223e 8619 26be 72b0 913d
000000a0: 8713 2a3e 5c00 353d a673 0bbe a098 08bc
000000b0: cbdf 9bbd d825 32bd 9750 093e 03f6 d6bd
000000c0: bd7c 0c3e 00eb 0bbe 2085 1dbc 56f8 1fbe
000000d0: 7883 4cbd 468d f5bd 8244 813d fcba 833d
000000e0: 942d 533d 60c6 b5bc 60dc 3ebd 6eb2 e53d
000000f0: 4e36 ba3d 2065 6f3c f7ee 2cbe 80f5 7e3c
00000100: ae28 abc0 26b8 ad40 ffde a2c0 8ad3 a2c0
00000110: 8a9b b0c0 f5b5 a3c0 3b8b b340 22cb aec0
00000120: a315 adc0 0573 b1c0 8503 b540 ea2a a6c0
00000130: 767c a640 5b78 ab40 b078 a2c0 b39d afc0
00000140: 0d66 b6c0 8dd9 adc0 8367 af40 b534 a1c0
00000150: 7643 a640 3977 a140 5931 ab40 77c0 b140
00000160: 3b9f adc0 bd7a b540 ec38 b340 d089 b040
00000170: 55cd b2c0 e2cf a5c0 d2b3 a4c0 995e b440
00000180: 6161 2841 8b67 2941 248b 2441 9be5 2441
00000190: d346 2841 9619 2341 e57c 2541 51dc 2141
000001a0: 4e5a 2a41 9e07 2141 052b 2241 07f0 2441
000001b0: f1b9 2541 66f9 2341 eb68 2541 7a6e 2741
000001c0: 9d75 2141 bbb7 2541 4335 2541 93a9 2241
000001d0: ddcc 2341 790e 2141 66d1 2441 74da 2341
000001e0: 6044 2341 5769 2141 b348 2341 62a2 1c41
000001f0: 796e 2641 8749 1c41 3112 2841 cb32 2441
10.444776 10.325165 10.574296 9.800885 10.345383 10.3967705 9.8583355 10.179192
10.431238 9.995248 10.188854 10.378381 10.335323 10.551804 10.326451 10.2668495
10.219913 10.365082 10.374054 10.0532255 10.468696 9.950346 10.285228 10.474485
10.3396435 10.205671 10.166552 10.34883 10.458118 10.10216 9.971693 9.746834
0.1659386 0.045408115 -0.097211175 -0.071636386 0.17583261 0.15856947 -0.16220674 0.071137324
0.16609012 0.044189796 -0.13618335 -0.00833717 -0.076110445 -0.04349312 0.13409649 -0.10496142
0.13719459 -0.13663864 -0.009614259 -0.15622076 -0.049930066 -0.119898364 0.06311895 0.06432149
0.05155714 -0.02218932 -0.046596885 0.112156734 0.09092389 0.014611512 -0.16888033 0.015561461
-5.348716 5.428729 -5.089721 -5.0883226 -5.5189867 -5.1159616 5.610746 -5.4622965
-5.408891 -5.5452905 5.6566796 -5.1927385 5.202693 5.358442 -5.0772324 -5.4880004
-5.6999574 -5.4328065 5.4813857 -5.037684 5.195735 5.0458035 5.349774 5.5547442
-5.4256873 5.6712327 5.6006985 5.516823 -5.587565 -5.1816263 -5.1469507 5.6365476
10.523774 10.587779 10.28397 10.306056 10.517291 10.193747 10.342992 10.116288
10.647047 10.06436 10.135503 10.3086 10.357896 10.248388 10.338115 10.464472
10.091214 10.357356 10.325503 10.1664 10.237515 10.066033 10.301123 10.240833
10.204193 10.088218 10.205249 9.789644 10.401971 9.767951 10.504441 10.262401

lstm.bias_hh_l0 f4 [128]
00000000: 90f8 2441 e28c 2541 7c54 2641 f351 2041
00000010: 3d4b 2541 369e 2441 a3cd 1c41 84e3 2141
00000020: e591 2741 76ea 1e41 4511 2241 bc26 2441
00000030: 2ece 2541 b60e 2641 ca58 2641 4f71 2641
00000040: e61a 2041 1fe9 2341 ae56 2941 ce35 2141
00000050: 6629 2741 1b4f 2041 aa98 1f41 0f54 2641
00000060: 0d6e 2541 1ec8 2141 f8b6 2141 724f 2841
00000070: f3e5 2741 d6f3 1e41 9226 2041 6e90 1e41
00000080: b04f cf3c 3a5c ec3d 90a0 f2bc 451c 01be
00000090: d030 55bc 6f4c 0abe b977 193e fd27 133e
000000a0: a8f6 903d a3b5 09be a4db ffbd 51fd 1c3e
000000b0: 8097 18be b75d 053e 3840 ae3c 627e ad3d
000000c0: 78c3 023d 4062 25be de27 2fbe 0f1a abbd
000000d0: 6873 843d ac33 1a3d 0bca 0e3e ee10 9d3d
000000e0: b8e9 85bc feb1 af3d cc72 333d 9a27 aabd
000000f0: b8c2 df3c f4b9 5b3d 6de1 1cbe 90f7 523d
00000100: cf76 abc0 7b29 b040 06e0 a4c0 a2c6 a3c0
00000110: 5352 a9c0 fc47 a4c0 e18d b240 3610 b1c0
00000120: 1f6c a9c0 4bb3 b2c0 ccba b140 80bf adc0
00000130: 8748 a140 31ed aa40 fdf5 a2c0 871c a9c0
00000140: 65a7 afc0 11c2 aec0 e496 ab40 869e abc0
00000150: 208b a240 bac0 a740 dd8d b440 3c18 a740
00000160: fa24 a7c0 ca0e af40 82c0 b140 c655 a940
00000170: 561d aac0 703d a4c0 c8b7 9fc0 cd42 b240
00000180: 845d 2641 da0f 2941 036a 2541 9096 2541
00000190: 33fd 2541 5f8b 2441 2280 2741 4764 2541
000001a0: 0a91 2541 147f 2241 22c9 2141 ba69 2541
000001b0: 261a 2241 9149 2741 bc0d 2a41 5880 2641
000001c0: 4029 2241 b8f4 2741 c094 2741 dcda 1d41
000001d0: f27c 2441 5cf4 1f41 661b 2241 7fad 2641
000001e0: f4ce 2241 e947 2241 505a 2341 9c5f 1f41
000001f0: 6a6b 2841 f82d 1c41 5b02 2641 6843 2041
10.310684 10.346895 10.395626 10.020007 10.330869 10.288626 9.800204 10.118046
10.473119 9.932241 10.129216 10.259457 10.362837 10.378592 10.396677 10.402663
10.006567 10.244414 10.583662 10.075636 10.447607 10.019313 9.9747715 10.395522
10.339368 10.111357 10.10717 10.519396 10.49364 9.93453 10.009417 9.910261
0.025306553 0.11541028 -0.029617578 -0.1260844 -0.013012126 -0.1350572 0.14987077 0.14370723
0.07078296 -0.13448195 -0.12493065 0.15331008 -0.14901543 0.1302403 0.021270856 0.08471371
0.031924695 -0.1615076 -0.17105052 -0.0835458 0.064673245 0.037646934 0.13944261 0.07669245
-0.016346797 0.08578871 0.04381065 -0.08308335 0.027314529 0.053644136 -0.15320368 0.051505625
-5.358253 5.5050635 -5.1523466 -5.117997 -5.2912993 -5.133787 5.579819 -5.533229
-5.2944484 -5.5843863 5.5540524 -5.4296265 5.0401034 5.341454 -5.092528 -5.2847323
-5.489184 -5.4611897 5.3621693 -5.363101 5.079483 5.242276 5.6423173 5.2217083
-5.2232637 5.4705553 5.5547495 5.2917204 -5.316081 -5.1324997 -4.991184 5.5706544
10.397831 10.56637 10.338382 10.349258 10.374316 10.284026 10.468782 10.336982
10.34791 10.156025 10.111605 10.338312 10.131384 10.455461 10.628353 10.406334
10.135071 10.497246 10.473816 9.865932 10.280504 9.997158 10.131689 10.417357
10.175526 10.142556 10.209549 9.960842 10.526224 9.761223 10.375575 10.016457

fc1.weight f4 [32, 32]
00000000: 3325 78c3 7008 7843 0d70 78c3 a48c 78c3
00000010: e90b 78c3 7ca7 78c3 660e 7843 550c 78c3
00000020: 960b 78c3 9204 78c3 5204 7843 ce00 78c3
00000030: ef1a 7843 e419 7843 582a 78c3 2b48 78c3
00000040: 55e9 77c3 5e17 78c3 9b11 7843 6655 78c3
00000050: cf62 7843 ed6e 7843 c518 7843 8d1c 7843
00000060: 3c5c 78c3 7a1b 7843 b314 7843 714a 7843
00000070: 6a01 78c3 f31f 79c3 6c94 78c3 8d2f 7843
00000080: 5458 78c3 0afd 7743 59ce 78c3 7365 78c3
00000090: fd1d 78c3 426e 78c3 7e08 7843 1ae6 77c3
000000a0: ab28 78c3 c004 78c3 82f8 7743 3cf9 77c3
000000b0: 8111 7843 cb1e 7843 5051 78c3 6606 78c3
000000c0: ea22 78c3 9403 78c3 2145 7843 b88b 78c3
000000d0: fd84 7843 fd9e 7843 2406 7843 d323 7843
000000e0: 2539 78c3 c525 7843 6119 7843 8a67 7843
000000f0: 7303 78c3 eb07 79c3 705a 78c3 2229 7843
00000100: 1552 78c3 8315 7843 d1d5 78c3 71ba 78c3
00000110: c24d 78c3 21bd 78c3 2aff 7743 88f1 77c3
00000120: ff51 78c3 5d03 78c3 48f5 7743 3bf9 77c3
00000130: 5a2d 7843 c5f8 7743 9564 78c3 5f57 78c3
00000140: 1619 78c3 e813 78c3 0611 7843 c187 78c3
00000150: 24bf 7843 7d9c 7843 c8e4 7743 c42e 7843
00000160: ec32 78c3 942c 7843 bd30 7843 178a 7843
00000170: 20f0 77c3 3834 79c3 a988 78c3 e423 7843
00000180: a525 4b3e 7ed4 34be ae8e 42bc c9d4 163e
00000190: c1a8 2a3e f2b0 5d3d b5c5 b1bd d966 423e
000001a0: 6f49 4a3e ce91 013e caba de3d 96b7 0abe
000001b0: c0c4 1fbe c6d4 e3bd 035f 713c 80a6 b23c
000001c0: ccab bfbd eed7 643c 4161 003d f585 a53d
000001d0: 8516 44be 5746 9b3d bc18 f73d e696 f93d
000001e0: 37f6 47bd 8bc9 8e3d e51e 0fbd 6317 c7bd
000001f0: 36a5 e4bd 54cd 8dbc f28e b9bb 2a30 b2bc
00000200: 0139 78c3 690a 7843 4a89 78c3 9e51 78c3
00000210: fe19 78c3 8894 78c3 77f3 7743 21e0 77c3
00000220: 0011 78c3 722d 78c3 9131 7843 080c 78c3
00000230: 0d33 7843 b6f8 7743 1908 78c3 b512 78c3
00000240: 3f0b 78c3 b6f9 77c3 0bdd 7743 2481 78c3
00000250: 1974 7843 375d 7843 a90e 7843 9119 7843
00000260: 4429 78c3 380b 7843 7000 7843 893d 7843
00000270: de10 78c3 cef4 78c3 1a71 78c3 fd00 7843
00000280: 3b22 78c3 f325 7843 70ad 78c3 c64b 78c3
00000290: 10fb 77c3 6595 78c3 6bea 7743 32f4 77c3
000002a0: 7b4a 78c3 1432 78c3 ca40 7843 9b0f 78c3
000002b0: 34f6 7743 612f 7843 ed57 78c3 9c1a 78c3
000002c0: 0139 78c3 da2b 78c3 bff9 7743 5152 78c3
000002d0: 087b 7843 4d5b 7843 7427 7843 8833 7843
000002e0: d615 78c3 c1e8 7743 8714 7843 3674 7843
000002f0: 7e15 78c3 123b 79c3 4cb9 78c3 2742 7843
00000300: 3081 76c3 f0bc 7643 08f9 76c3 fee2 76c3
00000310: cb94 76c3 6fbe 76c3 3fc9 7643 51a6 76c3
00000320: 7b6f 76c3 a4c3 76c3 77b2 7643 f395 76c3
00000330: 13af 7643 cc7d 7643 95ca 76c3 c779 76c3
00000340: 41c7 76c3 6fa9 76c3 9c9a 7643 2be6 76c3
00000350: 23e3 7643 11e1 7643 c7a2 7643 5992 7643
00000360: 47ba 76c3 7697 7643 12b6 7643 eed7 7643
00000370: 9f9e 76c3 a787 77c3 4fec 76c3 24df 7643
00000380: 67a4 77c3 6c57 7743 e133 77c3 ee70 77c3
00000390: 1f96 77c3 e825 77c3 3d59 7743 3c72 77c3
000003a0: 258e 77c3 f377 77c3 4b69 7743 3d78 77c3
000003b0: b34f 7743 2dbb 7743 afa2 77c3 2a9d 77c3
000003c0: 3597 77c3 28af 77c3 5e6a 7743 c7e9 77c3
000003d0: b506 7743 254e 7743 f78f 7743 78a6 7743
000003e0: 12bd 77c3 f863 7743 507c 7743 02ef 7743
000003f0: 3576 77c3 99fe 78c3 376a 78c3 e18c 7743
-248.14531 248.03296 -248.4377 -248.54938 -248.04652 -248.65424 248.05624 -248.04817
-248.04526 -248.01785 248.01688 -248.00314 248.10521 248.10114 -248.1654 -248.2819
-247.91145 -248.09128 248.06877 -248.33359 248.38597 248.4333 248.09676 248.11153
-248.36029 248.10733 248.08086 248.29079 -248.00552 -249.1248 -248.57977 248.18575
-248.34503 247.98843 -248.80605 -248.39629 -248.11714 -248.4307 248.03317 -247.89883
-248.15886 -248.01855 247.97073 -247.97357 248.06837 248.12029 -248.31763 -248.025
-248.13638 -248.01398 248.27003 -248.54578 248.51949 248.62105 248.02399 248.13994
-248.22322 248.14754 248.09914 248.40445 -248.01347 -249.03093 -248.35327 248.16068
-248.32063 248.08403 -248.83522 -248.72829 -248.30374 -248.73878 247.99673 -247.94348
-248.3203 -248.01314 247.95813 -247.97356 248.17715 247.97176 -248.3929 -248.3413
-248.09799 -248.07776 248.0665 -248.53029 248.74664 248.61128 247.89368 248.18268
-248.19891 248.17413 248.19038 248.53941 -247.93799 -249.20398 -248.53383 248.1402
0.19838579 -0.17659184 -0.011874838 0.14729609 0.16665937 0.054123826 -0.08680288 0.18984546
0.19754575 0.12653276 0.10875471 -0.13546595 -0.15602398 -0.11124568 0.014732125 0.021807909
-0.093589395 0.013967497 0.03134275 0.08082191 -0.19149216 0.07581776 0.120652646 0.12186985
-0.048818793 0.06972035 -0.034941573 -0.097212575 -0.11164324 -0.017309822 -0.0056627924 -0.021751482
-248.22267 248.04066 -248.53629 -248.31882 -248.10153 -248.5802 247.95103 -247.8755
-248.0664 -248.17752 248.19362 -248.047 248.19942 247.97153 -248.03163 -248.07307
-248.04393 -247.97543 247.86345 -248.50446 248.4535 248.36412 248.05727 248.09987
-248.1612 248.04382 248.00171 248.24037 -248.06589 -248.95627 -248.4418 248.00386
-248.13371 248.14824 -248.67749 -248.29599 -247.98071 -248.58357 247.9157 -247.95389
-248.29094 -248.19562 248.25308 -248.06096 247.96173 248.18507 -248.34346 -248.10394
-248.22267 -248.1713 247.97557 -248.32155 248.48059 248.35664 248.15411 248.2013
-248.0853 247.9092 248.08018 248.45395 -248.08395 -249.23074 -248.72382 248.2584
-246.50464 246.73804 -246.97278 -246.88669 -246.58122 -246.74388 246.78612 -246.64967
-246.43547 -246.76422 246.69713 -246.58574 246.68388 246.4914 -246.79134 -246.4757
-246.77834 -246.66185 246.60394 -246.8991 246.88725 246.87917 246.63585 246.57167
-246.72765 246.59164 246.71121 246.84348 -246.61961 -247.52989 -246.92308 246.87164
-247.6422 247.34149 -247.20265 -247.44113 -247.58641 -247.14807 247.34859 -247.44623
-247.55525 -247.46855 247.4113 -247.46968 247.31133 247.73116 -247.63548 -247.61392
-247.59065 -247.6842 247.4155 -247.9132 247.0262 247.30525 247.56236 247.65027
-247.73856 247.3905 247.4856 247.93362 -247.46175 -248.99452 -248.4149 247.55031

fc1.bias f4 [32]
00000000: 9715 7843 43f1 7743 4bfb 7743 c0bf 2abe
00000010: 9312 7843 4a0c 7843 6e94 7643 583b 7743
00000020: 3504 7743 5215 7843 f773 7643 fa94 13be
00000030: 880a 7743 b0b9 23be b91a 7843 8385 4abe
00000040: 13e8 b53d 1a02 7843 5a20 7843 b1fb 7743
00000050: c40e 7843 0824 7843 aad1 44be 16a1 7143
00000060: bdfa 7743 b60a 7743 3237 2abe ef05 d13e
00000070: c80e 7843 3ffa 19bd 03e9 7743 dddf 7743
248.08434 247.94243 247.98161 -0.1667471 248.07256 248.048 246.5798 247.23181
247.01643 248.08328 246.45299 -0.14412299 247.04114 -0.15988803 248.10439 -0.19777493
0.08882155 248.00821 248.12637 247.98317 248.05768 248.14075 -0.19220605 241.62924
247.97945 247.04184 -0.16622618 0.4082484 248.05774 -0.03759217 247.9102 247.87447

fc2.weight f4 [3, 32]
00000000: 3694 69c3 dd6b 69c3 7e77 69c3 ca32 72bd
00000010: 2279 69c3 688c 69c3 c56c 68c3 e874 69c3
00000020: 37c4 68c3 e5a5 69c3 e45c 68c3 3189 103e
00000030: fce9 68c3 e248 e73d 4f5a 69c3 0cc2 483d
00000040: e466 043e fcb9 69c3 c688 69c3 8971 69c3
00000050: 196f 69c3 8186 69c3 d361 e7bd 3019 64c3
00000060: 9f79 69c3 d0df 68c3 e759 c6bd d789 683f
00000070: 32a1 69c3 0e6b a53d 9bac 69c3 c466 69c3
00000080: 2ea1 69c3 e6a8 69c3 c86e 69c3 7f78 e2bd
00000090: 8094 69c3 ad99 69c3 2655 68c3 8847 69c3
000000a0: b7bb 68c3 e99b 69c3 e9fb 67c3 8c6f 4d3d
000000b0: 04c0 68c3 45b2 8dbd 5c98 69c3 8976 853b
000000c0: 1973 e03d 9a73 69c3 6564 69c3 14a8 69c3
000000d0: f86d 69c3 5990 69c3 958a f13d ee1a 64c3
000000e0: 67a5 69c3 08d3 68c3 e360 8fbd ffec 583f
000000f0: b093 69c3 8eca 0c3e 08a5 69c3 cc86 69c3
00000100: 4e3e 69c3 1a64 69c3 e288 69c3 36bd a23d
00000110: fc2c 69c3 eb4c 69c3 1d6e 68c3 bb72 68c3
00000120: b4b2 68c3 ea31 69c3 76a4 68c3 9069 34bc
00000130: 30a0 68c3 70ff 143c 5a39 69c3 b873 9a3c
00000140: 6527 aabc 2953 69c3 816f 69c3 4a69 69c3
00000150: d581 69c3 b341 69c3 e6b2 d33d bef7 65c3
00000160: 486d 69c3 3feb 68c3 d6db e53d e90d cdbf
00000170: 7448 69c3 83e4 bdbd 8c61 69c3 5b7c 69c3
-233.57895 -233.42134 -233.46677 -0.059130467 -233.47318 -233.54846 -232.42488 -233.45667
-232.76646 -233.64803 -232.36285 0.14114834 -232.914 0.11293198 -233.35277 0.049013183
0.12929875 -233.7265 -233.53427 -233.4435 -233.43398 -233.5254 -0.11297955 -228.09839
-233.47508 -232.87427 -0.09685116 0.90835327 -233.62967 0.0807706 -233.67424 -233.40143
-233.62961 -233.65976 -233.43274 -0.11058139 -233.58008 -233.6003 -232.33261 -233.27942
-232.73326 -233.60902 -231.98402 0.050155208 -232.75006 -0.06918768 -233.59515 0.0040729684
0.10959453 -233.45157 -233.39217 -233.65656 -233.42957 -233.56386 0.117940105 -228.1052
-233.6461 -232.82434 -0.070009016 0.8473663 -233.5769 0.13749143 -233.64465 -233.52655
-233.24338 -233.39102 -233.5347 0.07946245 -233.17572 -233.30046 -232.43013 -232.44817
-232.69806 -233.19498 -232.64243 -0.011011496 -232.62573 0.009094104 -233.22403 0.018854007
-0.020770738 -233.32484 -233.43556 -233.41129 -233.50716 -233.25664 0.103368565 -229.96774
-233.42688 -232.91893 0.11223571 -1.601987 -233.28302 -0.09272101 -233.38104 -233.48576

fc2.bias f4 [3]
00000000: 3497 65c3 f1c4 65c3 d1b6 65c3
-229.59064 -229.7693 -229.71413
