saves/07022021193356_acrobot_dqn.pt (torch, 27479 bytes, 8 tensors)

lstm.weight_ih_l0 f4 [128, 6]
00000000: 631d 0a3f 1505 573f a6a4 f13e 3b1b 6ebf
00000010: bd7e 77bf ffeb 813d 8ed6 293f ed83 4cbf
00000020: 5026 d43f 5377 593e 1394 3abf a81e 6abe
00000030: 14bd 9940 6a5a 41bf 5251 6b3f 6697 20bf
00000040: cc28 f93d 8d3f 203d 7d17 1e40 b062 0dc0
00000050: 9060 f93f 069f 8fbf b703 03bf b6bb 1bbf
00000060: 7681 cd3f a043 6840 4114 efbd 6d9c 05bf
00000070: 40ef 1640 31b1 da3e 478d 0c40 977a aebf
00000080: 2086 863e ee4c 9dbf de52 36bf 543c 32be
00000090: ba83 d93f f88e afbf b21b b53f fb1f 903d
000000a0: 0a1e 8abf fcae f03e 3e6b 31c0 35f0 c9be
000000b0: 89a2 bebf 135a 0c3f b4d4 64bf d9b9 d03d
000000c0: 7da6 bdbf 537a 07c0 d45a fbbe 475c 9bbf
000000d0: 1bf5 4bbf 71cc 4bbf a36f be3f cef8 a9bf
000000e0: f1e5 323f eee3 96bf 11ef 30bf f24c 64be
000000f0: 9058 e8bf 3a0b ec3e d5ba 10c0 6d83 79bf
00000100: d4a5 1e3d 3bd8 79bf 2ed7 98bf d914 9a3f
00000110: 6490 57be f6c4 74bf 2516 5fbf b92b cb3e
00000120: 2229 1340 9bd6 bfbf 1772 c63e 4e57 9fbf
00000130: af52 4ebf a1ea 6f3e da58 f73f e8d3 693f
00000140: f87e a13f 70d8 03be 2ef3 733f cf1b 163f
00000150: 2176 6cbf 4b56 f7bf e6b4 91bf d912 0ebf
00000160: 031e 5dbf c89a 163f 7f3f 633f 3c04 1e3f
00000170: d45f 0a40 9337 4cbf b34c 7c3f 1afa e63e
00000180: 7484 0940 abff 033e 79e0 0340 8cba 713e
00000190: ed56 843f aec4 cc3d b32e 8840 3e9c b23f
000001a0: 80e4 0740 f664 023f ea49 133f f55f 70bd
000001b0: c0da 1cc0 c508 a1bf c09b 07c0 608a cd3e
000001c0: 6304 63bf 4ded 4abe 43b4 0d40 d7f4 2a3e
000001d0: 37ee c83f 2b93 2d3f 9899 823f 3317 093e
000001e0: 6ca7 9e40 9d39 a33f c7c4 d53f b62b 603f
000001f0: fb11 9a3e 72f4 24be 1e23 bd3f 046a 72c0
00000200: 9fd5 c9bf c239 f23f ddc4 d33d 327e 6fbf
00000210: 51f3 423f 05e0 c9be 396f 983f cccc 78bf
00000220: 3f17 0fbf 094e 90bf 6e1f a340 7cf0 07bf
00000230: 0224 7f3f c570 56bf dc78 993e 381f 1fbc
00000240: a435 2840 f18f 5d40 c8e0 5c3d 031a 94bf
00000250: c5b5 103e d347 1f3f f13e 2d40 48a3 963f
00000260: e12b a33f f555 273f 7ed0 d53e dd92 cb3c
00000270: 253a 97be ec4f 8d3f 6bd2 27c0 b217 753f
00000280: 9584 d43f 7953 953e bcff 21c0 eed5 2640
00000290: 8005 32bf 8741 963f 0dbe c63e 739e 9f3f
000002a0: 7da4 b73f 8a80 2940 7501 8e3f e753 8abf
000002b0: f21c e93f 5a86 a63f 5b50 1f40 42d1 13bf
000002c0: dec3 05bf fc70 a3bf 54eb 803d 0cab 883e
000002d0: 5fd8 4a3f bdc1 e63e 599f 1340 0075 263e
000002e0: 489b 36bf 2c02 bbbc d956 5f40 a05c 2e3f
000002f0: aaea b03f 8280 c53e 6dbe 3a3f 43c2 0d3f
00000300: 9e88 bdbd ac74 563d 3c3b 1abe a01a b3bd
00000310: 6252 fd3d 808b 5fbc b8b9 debd cb76 153e
00000320: c4c3 0dbe a894 a23c 14f7 11bd 2a65 aa3d
00000330: 206c 403c 7c39 83bd 4c33 4d3d 64bb 6b3d
00000340: c57e 1d3e 38da 40bd 9a83 16be c98d 20be
00000350: 9328 0f3e c2e6 8d3d 0087 763a 11c5 133e
00000360: 3d50 e0bd 6696 c5bd 9ae5 e63d a367 e3bd
00000370: 7c64 8e3d b13c 0c3e 00f0 51b9 cf14 283e
00000380: 2ff1 2a3e bf2e 253e 2cd2 493d 34d5 273d
00000390: 9245 12be 240a 30be e2b6 c13d bec9 db3d
000003a0: 8012 a1bc 384c aa3c 5892 35bd 00dd ffbd
000003b0: 1801 973c c824 493d 3c12 783d 4733 013e
000003c0: b5d5 f3bd 98cf 0b3d b06f df3c 071e 313e
000003d0: 3c16 303d 30d4 6ebd eeda 9c3d ce24 f73d
000003e0: b4f3 253d 79d4 a9bd c0ed 82bb 4fb0 1e3e
000003f0: 57e7 2e3e e008 503d 3b8d 31be b8d1 99bc
0.5395109 0.8399213 0.4719593 -0.930103 -0.9667776 0.06343841 0.6634301 -0.798888
1.6574192 0.21236925 -0.72882193 -0.22863257 4.804331 -0.75528586 0.9192096 -0.62731016
0.121659845 0.039123107 2.4701836 -2.2091484 1.9482594 -1.1220405 -0.51177543 -0.608333
1.6055133 3.6291275 -0.11673785 -0.5219181 2.3583527 0.4271331 2.196123 -1.3631161
0.26274204 -1.2289102 -0.71220195 -0.17405826 1.6993325 -1.3715506 1.4149077 0.0703735
-1.0790417 0.47008502 -2.7721705 -0.39441076 -1.4893352 0.5482494 -0.8938706 0.101916976
-1.4816433 -2.116841 -0.49092734 -1.2137536 -0.79670876 -0.7960883 1.4877819 -1.3279054
0.6988211 -1.1788309 -0.69114786 -0.22294977 -1.8152027 0.46102315 -2.2614033 -0.97466165
0.038732365 -0.97595567 -1.1940668 1.2037612 -0.21051174 -0.9561304 -0.87143165 0.39681795
2.2993855 -1.4987367 0.3875892 -1.2448518 -0.80594915 0.23429348 1.932399 0.9133897
1.2616873 -0.12875533 0.9529294 0.5863618 -0.9236775 -1.932321 -1.1383331 -0.5549751
-0.8637392 0.5882993 0.8876876 0.6172521 2.162099 -0.797723 0.98554534 0.45112687
2.1487093 0.12890498 2.0605757 0.23606318 1.0339028 0.09998451 4.2557006 1.3953931
2.1233215 0.50935304 0.5753466 -0.05868526 -2.4508514 -1.2580801 -2.1188812 0.40144634
-0.8867857 -0.19817086 2.2141273 0.16694961 1.5697697 0.67802685 1.0203123 0.13387756
4.9579372 1.2751957 1.6700677 0.875667 0.30091843 -0.16108873 1.4776342 -3.7877207
-1.5768317 1.8923876 0.10340283 -0.93551934 0.7615252 -0.39428726 1.1908942 -0.97187495
-0.55894846 -1.1273814 5.0975866 -0.53101325 0.9966432 -0.8376582 0.2997502 -0.009712033
2.628274 3.4619105 0.053925306 -1.1570438 0.1413184 0.6221897 2.7069666 1.176858
1.2747766 0.65365535 0.4176063 0.024850303 -0.29536548 1.1040015 -2.622218 0.9573928
1.6602961 0.29165247 -2.5312338 2.6068072 -0.6953964 1.1738747 0.38816872 1.247023
1.4347073 2.6484704 1.1094195 -1.0806855 1.8211958 1.3009751 2.4892795 -0.5774118
-0.52251995 -1.2768855 0.06294885 0.26692998 0.79236406 0.45069686 2.3066008 0.1625557
-0.7133069 -0.022828184 3.4896758 0.68110085 1.3821614 0.38574606 0.72946817 0.55374545
-0.09254573 0.05235736 -0.15061659 -0.08745313 0.12369229 -0.013644099 -0.10875267 0.14596097
-0.1384421 0.019846275 -0.035636023 0.08320077 0.011744529 -0.06407449 0.05009775 0.057551757
0.1538039 -0.04708311 -0.1469864 -0.15679087 0.13980322 0.06928779 0.0009404272 0.14430644
-0.10952804 -0.09647827 0.11274262 -0.111037515 0.069527596 0.13695027 -0.000200212 0.16414188
0.16693567 0.16131113 0.0492727 0.04097481 -0.14284351 -0.17191368 0.0945871 0.10731839
-0.019662142 0.020788297 -0.044329017 -0.12493324 0.018433139 0.049107343 0.060564265 0.12617217
-0.11905996 0.034133524 0.027274936 0.17296611 0.042989954 -0.058307827 0.07658945 0.12067567
0.040515617 -0.08292479 -0.003995627 0.15496944 0.17080437 0.050789714 -0.17339031 -0.01877676

lstm.weight_hh_l0 f4 [128, 32]
00000000: 96d6 bd3d c4c7 27be 0040 2bbb cbdf b2bd
00000010: 8f2f bcbd aa3d ca3d 90f7 66bc c64d 953d
00000020: d860 6d3d ca89 b13d 084b 38bd 5ff1 203e
00000030: 2e36 973d d72a 273e f0cf 033d 738a 2b3e
00000040: 63f2 183e d27a d83d b6ab 9dbd f070 5c3d
00000050: e7d2 173e bea1 ad3d 309e 8a3d 9001 dabd
00000060: fc04 43bd 8917 0f3e e939 043e 91c2 84bd
00000070: ebf3 213e e20b b6bd 9e26 c73d fcc8 c6bd
00000080: 381b 373d b4a0 09bd 4f48 343e 7933 333e
00000090: 97bb 2e3e 8c1f 95bd c4f1 23bd d0db aebd
000000a0: 9b50 253e cc74 193d 3b96 273e a849 e13c
000000b0: c4c3 30bd f8e6 86bc e81b b8bc c047 5a3d
000000c0: f26b 56bd a9e8 b7bd b53f 0e3e b9b3 253e
000000d0: f2ff 25be 76e8 b43d e34d 2c3e 9b63 c7bd
000000e0: 7c7e 233d 6492 1d3d 7ac9 22be 407c 24bb
000000f0: 10f7 60bd e40e 7e3d 0ff5 033e f529 0bbe
00000100: c0ec bd3c 8059 c83c eef5 ee3d eebb fd3d
00000110: bcbd 0dbe 3274 e8bd 9d40 2e3e eb11 85bd
00000120: 50fb acbc 1f0d 053e f3dc dbbd 6111 f4bd
00000130: 8587 193e 1018 aebc 8093 dabb 97fd 31be
00000140: d88f 073d f273 a93d e88d 813c a802 c5bd
00000150: 9690 13be 1a2b fb3d 27ce 233e 0fc4 2fbe
00000160: bbe3 20be a91d b8bd c192 cbbd 2058 213d
00000170: e880 9a3c e270 7ebd c813 e13c 1226 d03d
00000180: 3cb1 7e3d a802 953d 5e2c df3d c0ea 693d
00000190: 6f39 0c3e 9459 203d 067e d2bd 4768 0c3e
000001a0: 0099 09be 5c1f 04be 8d69 163e 6036 22bd
000001b0: 2016 d4bb 3390 133e 2789 073e d0ef e7bd
000001c0: 2019 773c 836b 283e b3e5 193e 6c71 26bd
000001d0: aedb c1bd 5ca2 1d3d 4050 48bd 03a7 febd
000001e0: 0c67 1cbe c30e 91bd e0d2 4abd 0045 bb3b
000001f0: c3e7 223e 5e5e f8bd cc0c 82bd 43b5 0d3e
00000200: 7162 223e 1616 df3d 9023 32bd 2dfb 093e
00000210: 6a58 b2bd 0356 f2bd 7c9e 1c3d 5261 ab3d
00000220: 287e 3c3d e895 eabc c00a 9ebc 56bd fe3d
00000230: 02ab 993d 8c89 6a3d 7b01 153e c0ee a6bc
00000240: bece 933d 348b 05bd fe6a 973d 46af 78bd
00000250: bb24 0cbe 3608 cf3d 0cc4 a6bd c26d 70bd
00000260: 9018 23be 38c7 7ebd ea8e c03d 8694 ed3d
00000270: 4d51 8cbd 00c6 acba 2f3b 103e e0a5 b0bd
00000280: 7099 b83c ccb9 2c3d 1e52 d6bd aab7 923d
00000290: 805d 6ebb c214 933d f16d 183e 0a6d be3d
000002a0: cc9b 143d 32a5 c83d faf1 76bd 24cd acbd
000002b0: 8490 073d c325 eebd 6045 2e3c 04aa 16be
000002c0: 8559 d6bd fee2 ba3d 52ab 953d 7c06 77bd
000002d0: ecc5 0a3d aeef 2bbe 6f2c 0c3e e82f 95bc
000002e0: 606f 02bd 401c 413c a4d3 07bd 4450 273d
000002f0: d703 163e 78c2 19bd 85ae 14be d1e2 a6bd
00000300: c5d5 fabd 7c50 1abe 9ce6 8e3d 203e 4f3c
00000310: bd65 0b3e 10f9 16bd 4233 c53d 5487 1abd
00000320: 2372 9bbd be5b e53d 739e 9dbd 1813 f1bc
00000330: 79fb 133e 921f c83d b9a8 133e 7703 1a3e
00000340: e1c7 80bd 80a8 c6bd e6f2 923d e2c9 fb3d
00000350: 0062 8cba aed0 9c3d 38a4 2d3d 37f3 d8bd
00000360: 06ef 07be eb50 19be 0669 58bd 730c 0abe
00000370: 7e62 b23d f3b8 c2bd c82a 41bd 94ef 01be
00000380: a108 b1bd 7306 1e3e 809d f4bc 40e4 a83c
00000390: 18e0 5d3d 8e89 7cbd 3180 c9bd bcb8 6fbd
000003a0: 1fa3 2b3e 9376 0fbe e426 233d 5e05 ac3d
000003b0: c0ad 883c ac7d 20be 9ce1 7c3d f2bd da3d
000003c0: 606d c63b ea19 e73d b8f6 663d 05d6 013e
000003d0: 9c19 45bd fa10 fe3d 3f0b 163e ffb6 f4bd
000003e0: 5052 74bd 6599 0a3e f054 8e3c 363c 873d
000003f0: 66bb b6bd ac96 5dbd 1bab 2ebe 5ad4 da3d
0.09269445 -0.16384798 -0.0026130676 -0.08734091 -0.091887586 0.09875043 -0.014097109 0.07290225
0.057953686 0.08668859 -0.04499343 0.15717076 0.07383381 0.16324936 0.032180727 0.16752033
0.14936213 0.10570301 -0.07698767 0.053818643 0.14826547 0.084781155 0.06768453 -0.10644829
-0.047612175 0.13973822 0.12912716 -0.06482423 0.15815704 -0.08888985 0.097241625 -0.097063035
0.044703692 -0.033600524 0.17605709 0.17500104 0.17063747 -0.07281408 -0.040025488 -0.0853802
0.1614403 0.0374649 0.16365902 0.027500942 -0.043155447 -0.016467556 -0.022474244 0.053291082
-0.05234904 -0.08979923 0.1389149 0.1618184 -0.16210917 0.08833401 0.16826586 -0.09735795
0.039915547 0.038469687 -0.1589717 -0.0025098473 -0.054923117 0.06202592 0.12886451 -0.13590224
0.02318418 0.02445674 0.11668001 0.1238936 -0.13841909 -0.113502875 0.17016836 -0.06497558
-0.021115929 0.12993287 -0.10735502 -0.11917377 0.14993103 -0.021251708 -0.0066704154 -0.17381893
0.033096164 0.08274068 0.015814736 -0.09619647 -0.14410624 0.1226408 0.1599661 -0.17164634
-0.15711872 -0.08990032 -0.099401005 0.039390683 0.018860295 -0.062119372 0.027475253 0.10163511
0.062180743 0.07275897 0.10897134 0.05710864 0.13693784 0.03914793 -0.10277943 0.13711654
-0.13437271 -0.12902588 0.14688702 -0.039602637 -0.006472364 0.14410476 0.13235913 -0.113250375
0.015081674 0.16447262 0.1502903 -0.04063551 -0.09465729 0.038484916 -0.048904657 -0.12434199
-0.15273684 -0.07082894 -0.049517512 0.0057150126 0.15908723 -0.12127374 -0.06350097 0.13838677
0.15857865 0.108928844 -0.043490946 0.13474722 -0.0870827 -0.11832812 0.03823708 0.08368172
0.04601875 -0.028635934 -0.019292235 0.12438457 0.0750332 0.05726008 0.14551346 -0.020377517
0.07217167 -0.032603458 0.07393454 -0.06071403 -0.13685887 0.10108988 -0.08142862 -0.058698423
-0.15927339 -0.06220171 0.09402259 0.11600594 -0.068514444 -0.0013181567 0.14085077 -0.08625388
0.022534102 0.042169377 -0.10464881 0.071639374 -0.0036371648 0.071816936 0.1488569 0.09298141
0.036281392 0.097971335 -0.06028936 -0.08437565 0.033096805 -0.11628296 0.0106366575 -0.14713293
-0.10466293 0.091253266 0.073080674 -0.06030892 0.03388016 -0.1679065 0.13688825 -0.01821132
-0.031844497 0.0117865205 -0.03316082 0.04084803 0.14649902 -0.037538975 -0.14519699 -0.081487305
-0.122478046 -0.15069765 0.06977579 0.012649089 0.13613029 -0.03685862 0.09628917 -0.037726715
-0.07590129 0.11199139 -0.076962374 -0.02942805 0.14451398 0.097716466 0.14419831 0.15040384
-0.06288124 -0.097001076 0.071752355 0.122943655 -0.0010710359 0.0765699 0.04239294 -0.105932645
-0.13274774 -0.14972274 -0.052834533 -0.13481312 0.08710192 -0.095079325 -0.04715994 -0.12689048
-0.08644224 0.15432148 -0.029860258 0.02061665 0.05416879 -0.06165462 -0.09838904 -0.058525786
0.16761445 -0.14010076 0.03983201 0.08399461 0.016684413 -0.1567294 0.061738595 0.106807604
0.006055519 0.112842396 0.056387633 0.12679298 -0.048120126 0.12405582 0.14652728 -0.11948966
-0.05964881 0.13535078 0.017374486 0.06603281 -0.08922462 -0.05409877 -0.17057459 0.10685034

lstm.bias_ih_l0 f4 [128]
00000000: f05e aabf 1c0e e33f 744d ae3f b2c8 823f
00000010: a106 0cbe 3cbf 0b40 97a9 0040 d1b0 283f
00000020: 088f 14bf 4f38 de3f d409 febe 76db d6bf
00000030: 43d3 ba3f 9644 983f 9f9f 2bc0 f142 1c3f
00000040: bd7e 1140 c4b3 ee3f 389e a9be b2d4 0540
00000050: d5f3 dc3f 92aa 6dbd 4f1d 883f 82d8 af3f
00000060: bca6 743f f0fd f63f 78c4 28bf c7c6 59bf
00000070: 7563 3b3f b722 e53f 7d3e 8b3f dcf5 0740
00000080: d4d8 b7bd f60a 03be 5c88 523d 712d 0fbe
00000090: 7244 f73d c2f1 a33d 9bcc 063e 9e00 b23d
000000a0: abc7 09be a2ad b33d adb1 293e 527f da3d
000000b0: 2069 57bc 6381 213e 4e2c a13d 2ebc ad3d
000000c0: 4802 013d de4c 86bd e8fc c9bc 8d51 82bd
000000d0: d1d8 91bd 47c6 33be 48e4 a9bd b6ea ae3d
000000e0: ba7b 23be 9091 303d 5ae7 02be 6eef 813d
000000f0: 9869 683d 6207 cf3d 47a7 343e 5e4b 9a3d
00000100: 666a 1fbe b8f2 c03f 58b5 0840 6a6e 1fc0
00000110: 974a 0240 3690 08c0 3853 acbf 67ce d7bf
00000120: 5800 ec3f 0c29 d73f d094 c73f 24f1 c13f
00000130: 9746 9a3f e314 00c0 91a6 8dbf 7228 ee3f
00000140: 1b81 b4bf 2371 08c0 7ef6 db3f c39a 04c0
00000150: 3760 0840 d1ee 0440 09c6 e0bf 1674 02c0
00000160: 17db 833f ed02 2540 1cb3 f4bf 57b8 cc3f
00000170: e47a e33f c7cc eabf f551 a7bf 9b53 edbf
00000180: f28c 60bf 1178 7e3f 6599 ac3f d588 743f
00000190: 410b 11c0 9caa 0540 8847 1540 50f6 413d
000001a0: da71 6bbd 9e20 2140 d257 d9be 95e5 edbf
000001b0: f5c1 c03f 2121 763f 5377 423e 790d 573f
000001c0: 195f cc3f 5902 983f bfde 0f3e 14d0 f23f
000001d0: c244 0d40 7ab2 d1be 57a2 c53f 875d d53f
000001e0: 4e83 30bf a171 d93f e369 c0bf e9ca aabf
000001f0: 6048 f13e cd5d a83f ffb8 853f 60bc e23f
-1.3310223 1.7738681 1.3617387 1.0217497 -0.13674404 2.183547 2.010351 0.658948
-0.5803075 1.7360934 -0.49616873 -1.6785724 1.4595722 1.1895931 -2.6816175 0.61039644
2.2733605 1.864861 -0.33128524 2.091107 1.7261912 -0.058023997 1.0633944 1.3737948
0.95566916 1.9296246 -0.6592479 -0.85068935 0.73198634 1.7901219 1.0878445 2.124381
-0.089769036 -0.1279715 0.051399574 -0.13982178 0.12073602 0.08005096 0.13163988 0.08691524
-0.13455074 0.08773352 0.16571684 0.10668816 -0.013147622 0.15772013 0.078697786 0.08483158
0.031496316 -0.0655763 -0.024656728 -0.06363211 -0.071214326 -0.17556106 -0.08295494 0.08540861
-0.15965167 0.04310757 -0.12783566 0.06344496 0.056741327 0.1010883 0.17641936 0.075339064
-0.15567932 1.5074072 2.1360683 -2.4911141 2.0358026 -2.133802 -1.3462896 -1.6859864
1.8437605 1.6809402 1.5592289 1.5151715 1.2052792 -2.0012748 -1.1066457 1.8606093
-1.41019 -2.1319053 1.7184598 -2.071946 2.1308725 2.0770762 -1.7560436 -2.0383353
1.0301236 2.5783036 -1.911716 1.5993756 1.7771878 -1.8343743 -1.3071886 -1.8541139
-0.87715065 0.99401957 1.3484312 0.9552129 -2.266312 2.0885382 2.332491 0.047354043
-0.057481624 2.5176158 -0.42449814 -1.8585688 1.5059191 0.961443 0.18990831 0.8400493
1.5966522 1.1875716 0.14049815 1.896975 2.2073216 -0.4095648 1.5440167 1.6669167
-0.68950355 1.6987802 -1.5032314 -1.3343173 0.4712553 1.3153626 1.0447081 1.7713737

lstm.bias_hh_l0 f4 [128]
00000000: c921 96bf f0ab d83f 2572 b73f fcab 453f
00000010: 1a33 d43d 79ab 0f40 afd6 0d40 6135 e83e
00000020: f3a3 4dbf 97ae f53f 179d 3ebf 2e72 cebf
00000030: 78bd ba3f 8d5f b83f 914e 24c0 a825 453f
00000040: a55e 1140 c587 cf3f e8fe 55be 0ce8 1340
00000050: cc81 de3f 926d 383e bc34 6f3f 2731 c43f
00000060: 900e 503f b5f0 e23f 5965 30bf a40f 67bf
00000070: 6736 493f 6252 0040 a72a 973f 2ec5 fc3f
00000080: 704a 08bc 707c c9bc 29c1 2b3e 08be babd
00000090: 98a7 7c3d 5665 21be 9a80 b8bd 41f4 2d3e
000000a0: 1a7b dfbd 4cb6 223d fe9e f63d 0ca8 b5bd
000000b0: d681 903d 9525 abbd 6e8b ca3d ec4f 07be
000000c0: c7ff 183e 5735 ddbd cb29 343e fc25 20be
000000d0: 576f 99bd 08fc febd e50d 293e 0e42 d23d
000000e0: 701e 85bd a2cd f9bd feed 0bbe f556 9fbd
000000f0: 9c88 513d 9827 efbd 6025 11bd 5c48 033d
00000100: 7046 81be 9c63 c73f f316 0e40 60d5 21c0
00000110: 2a81 0840 4d72 fbbf ac1b b1bf 6c41 b1bf
00000120: 6b72 e73f 30aa c43f 9e07 c63f f00b c93f
00000130: a58b 833f 9fb2 02c0 49b2 90bf 6bc6 f83f
00000140: 9a19 d2bf 2b9e e8bf d91f f53f 1aa7 f7bf
00000150: 360d f73f d1d3 ee3f bcec f1bf bd97 03c0
00000160: 3134 a63f 6c15 1a40 adc6 0bc0 9712 ad3f
00000170: 16b5 d53f bab7 dfbf 7ec8 b3bf b881 fbbf
00000180: e35b 75bf 3a18 7e3f d8f7 ad3f 4bc9 873f
00000190: b212 0ec0 022e 0b40 634e 0940 d4c3 e53d
000001a0: c868 0ebd bd78 1740 2807 33be e53d ecbf
000001b0: 340c d13f e69b 5f3f 8f85 883e 0578 583f
000001c0: 0d9b e53f 9b6c 9b3f 31cf e53d a299 fe3f
000001d0: da66 1940 3aec 03be ee97 b63f 9d12 bf3f
000001e0: 6e79 f8be 7f61 d33f 9de0 bcbf 6a30 9dbf
000001f0: 78c3 0b3f 98b6 ce3f 000b 5e3f 6c8b e53f
-1.172906 1.6927471 1.4331709 0.7721555 0.10361309 2.2448409 2.2162282 0.45353225
-0.8032829 1.9193906 -0.7445845 -1.6128595 1.4589071 1.440416 -2.5672953 0.77010584
2.2714016 1.6213309 -0.2089802 2.311038 1.7383361 0.18010548 0.9343984 1.53275
0.8127222 1.7729708 -0.68904644 -0.9025824 0.78598636 2.0050282 1.1809891 1.9747674
-0.0083185285 -0.02459547 0.16772904 -0.09118277 0.061683267 -0.15761313 -0.09008904 0.16987707
-0.10912152 0.039724633 0.12042044 -0.08869943 0.07056014 -0.083567776 0.09889875 -0.13214082
0.14941321 -0.108011894 0.17594068 -0.1563949 -0.074919395 -0.12450415 0.16509207 0.10266505
-0.06499946 -0.121974245 -0.13665006 -0.077802576 0.05115567 -0.11677474 -0.035436034 0.03205143
-0.25249052 1.5577273 2.2201507 -2.5286484 2.1328835 -1.9644257 -1.383657 -1.384809
1.8081793 1.5364437 1.5471075 1.5706768 1.0276991 -2.0421522 -1.1304408 1.9435552
-1.6414063 -1.8173269 1.9150344 -1.934787 1.9300907 1.8658391 -1.8900371 -2.0561364
1.2984678 2.4075575 -2.1840012 1.3521298 1.6695888 -1.7477944 -1.404556 -1.9648962
-0.95843333 0.99255717 1.3591261 1.0608305 -2.219891 2.174683 2.1454093 0.11218992
-0.034767896 2.3667443 -0.17483199 -1.8456389 1.6331849 0.8734726 0.26664397 0.84558135
1.7937943 1.2142519 0.11221159 1.9890635 2.3969026 -0.12883082 1.4265115 1.4927555
-0.48530143 1.6514128 -1.4756047 -1.22804 0.54595137 1.6149473 0.86735535 1.7933173

fc1.weight f4 [32, 32]
00000000: 44b0 823e 6365 733e 1401 18be 9991 9d3d
00000010: 5cc9 d73f a597 0fbe 7dac 0c3f 325b 0ac0
00000020: 9afa 1340 6aef 413e 1ef6 8f3f 2c61 c43f
00000030: 7ee2 f8bf 5937 61bf df3d debf 9052 813f
00000040: f18b 883f 87f7 083f b9a5 cc3f 66ac 653f
00000050: 6b4e 99be e987 4840 e5ec f53f e55f 4ebe
00000060: bf3c 903f b43e 84bf a8c7 313f 31c9 0140
00000070: 7e85 423f fcf8 99be fed7 7bbf d00b 97bd
00000080: e071 84be f510 523f b364 323f 83f0 47bf
00000090: 8c1b 813e 853f 0cbf 91be 3dbf 5985 54bf
000000a0: 1268 0a3e b45e 5f3f cb35 013f e2d9 9dbe
000000b0: beb6 283f cbf6 03bf 482c c6be ef86 0d3f
000000c0: dce1 3bbf 3108 63bf 72c1 583f c645 6cbf
000000d0: aef3 723f f7c2 093e b1fa 0abf 11a4 28bf
000000e0: 20f0 103f 2e38 ef3e 32ef 15bf eb81 a93e
000000f0: 4674 863e cde3 16bf 562d 12bf bac0 50bf
00000100: 68d1 45bf f770 993e af68 d03d 7e07 7dbe
00000110: 51b1 d1bd e6f8 1b3e b425 d9be d2df d5be
00000120: 68c3 d0be 7ad4 c33e 16d1 0d3f cb78 d43e
00000130: 4039 03bd 4f4a 11be 8925 fbbd bf27 0ebe
00000140: 0d47 81be 2321 f1bd 78fc 4b3f 9177 18bf
00000150: 4bac c13e 5555 69be c69f 243e acae f23b
00000160: 31f5 d93e 15b7 283e 8836 9abe d6ca 093f
00000170: 2b77 683d b7a4 8bbd e712 f5bd f620 a3be
00000180: 8956 89bf b451 d5be bd6a bf3d 9dcf b6be
00000190: 56ee 6d3e dfca 013f e23c bcbe 2214 c33e
000001a0: 9c6d 3b3f 64d6 f33d f343 533e f770 373f
000001b0: 0ed5 1d3e 1951 413e 6783 ddbe df8b 0fbe
000001c0: fe41 8b3e 3a9b f1bd fa1e 893f e00d 73bf
000001d0: a892 803d 9b30 273f a582 07bf b9bf a93e
000001e0: 87e7 79be 1c09 d0be d3ea 09c0 9125 0abf
000001f0: 07fa b2bf 6412 9fbc 09d8 b83f 6f18 55bd
00000200: 01a2 12bf c7fb f73e 86a0 af3e 9ff5 5abf
00000210: d2f0 d63e bafe b5be 4c41 f6be 9d4f 35bf
00000220: 6f71 8cbd 29fd 0d3f 7192 1b3e d2ad 85bf
00000230: a998 ae3e e9ed ecbe e9c4 2cbf cc41 f03e
00000240: 3873 d0be ac05 3dbf 7a06 563f 457b 41bf
00000250: 71bd 373f 0ea6 2c3e 95a0 94be 4e15 40be
00000260: 979c 2f3e 796c 633e d070 f2be 149b ca3e
00000270: 8be6 da3b 5604 d7be 9006 92bd 9a4a 1ebf
00000280: 2dec ebbe 2b94 05be bda8 a6be 9c4d d43e
00000290: ea73 c13c 3c09 4ebe 70e8 503f 5fab 2bbe
000002a0: e863 273f add4 23bf 4de8 18bf 9745 08bf
000002b0: 57c0 48bf 5ed9 a0bd 6cce 86bf fe04 7dbe
000002c0: bf8e e53e f068 63bf 9bdd 123c 35d5 b8bf
000002d0: c7ff f13e 1a46 eaba 2fd5 b63d 8147 c63e
000002e0: d9fd f3be d1e7 c6bd f73c 6fbe cf5b 2d3f
000002f0: ba38 8fbf 5713 023f 3a14 e53e bb4c e3be
00000300: 3e0c 2bbf 02bd b5be 1889 463f 32c5 3e3f
00000310: c5b0 2640 a048 ab3f 4838 563f 5e42 9d3f
00000320: 33e3 c13f 0ddd b6bf 3a0a 56bd 2ac2 4a3f
00000330: c008 85bd b1c7 8ebf 42fd 62be fdd1 d83f
00000340: 91e4 dc3f 6e36 d03e 7b94 a33f 2ec3 aa3f
00000350: 381a 98bf 9c0a e4be a16c b03f 71a4 49bf
00000360: 90f5 1540 709a 88bf 86da f83f 94ee da3e
00000370: f219 f03e 52b6 f93b 3f32 21bf 7069 4abf
00000380: b88f 27c0 d42c a9bf f5f4 f33e 868d b93f
00000390: c1d0 b4bf ea58 81be e213 8ebe 3893 333f
000003a0: da28 76c0 4747 a5be dc61 91bf 7a8d db3e
000003b0: d5fc 023e 9d43 f93e 88ff e2bf 7518 9dbd
000003c0: 8bbb f73e 6fbb 8a3f 79f5 0fc0 27af 6a3f
000003d0: dd27 ff3e 13a1 27c0 b76c 2d40 82cd 5fbf
000003e0: 8704 1a3f be87 e73e d93b 0740 9d66 b3bf
000003f0: 2b12 63bf 4ce5 1c3f 4c97 253f f77f 19bf
0.25525105 0.23769145 -0.14844161 0.07693786 1.6858325 -0.14022692 0.54950696 -2.1618161
2.3121705 0.18938985 1.1246984 1.5342155 -1.944412 -0.8797508 -1.7362632 1.0103321
1.0667707 0.53502697 1.5988075 0.89716184 -0.2994264 3.1332953 1.921292 -0.20153768
1.1268538 -1.0331635 0.69445276 2.0279047 0.7598494 -0.30072773 -0.9837645 -0.073753
-0.2586813 0.82057124 0.69684905 -0.78101367 0.2521633 -0.54784423 -0.74118906 -0.8301597
0.13516262 0.8725388 0.50472707 -0.30830294 0.6590384 -0.5154845 -0.3870566 0.5528402
-0.7339151 -0.88684374 0.84670174 -0.92293966 0.94903076 0.1345328 -0.54288775 -0.65875345
0.566164 0.4672255 -0.5856811 0.33106932 0.26260585 -0.58941346 -0.5710043 -0.8154408
-0.77272654 0.29968998 0.10176217 -0.2470989 -0.102388985 0.15231666 -0.42411578 -0.41772324
-0.40774083 0.38248044 0.55397165 0.41498408 -0.03203702 -0.14188503 -0.12263019 -0.1388235
-0.2524952 -0.117738985 0.7968211 -0.59557444 0.37826762 -0.22786458 0.16076574 0.0074060764
0.4256988 0.1647609 -0.3011973 0.5382513 0.056754272 -0.06818526 -0.11966496 -0.31861085
-1.0729533 -0.41663897 0.093465306 -0.3570527 0.23235449 0.5070018 -0.367652 0.38101298
0.73214126 0.11906126 0.2063139 0.71656746 0.15413305 0.18878593 -0.43264315 -0.140182
0.27198786 -0.11797185 1.0712578 -0.94943047 0.062779725 0.6530854 -0.5293372 0.33154085
-0.24404727 -0.4063195 -2.1549575 -0.5396357 -1.3982552 -0.019417949 1.4440929 -0.052025255
-0.5727845 0.48434278 0.34302157 -0.8553104 0.41980606 -0.35545903 -0.48096693 -0.70824605
-0.06857573 0.55464417 0.15192582 -1.0443671 0.34100845 -0.4627526 -0.6748796 0.469252
-0.40712905 -0.7383678 0.8360363 -0.7557872 0.7177344 0.1686022 -0.29028764 -0.18758127
0.17149578 0.22209348 -0.47351694 0.3957144 0.006680315 -0.41995496 -0.07130158 -0.6183258
-0.46078625 -0.13044803 -0.32550612 0.4146546 0.023614842 -0.2012071 0.8160467 -0.16764592
0.6538682 -0.6399639 -0.5972946 -0.53231186 -0.7841849 -0.078539595 -1.0531745 -0.24708936
0.4483547 -0.88831997 0.008963968 -1.4440066 0.47265455 -0.0017873675 0.0892738 0.38726428
-0.47654608 -0.09712184 -0.233631 0.67718214 -1.1189187 0.5081076 0.44741994 -0.44394478
-0.66815555 -0.35495764 0.7755294 0.74519646 2.6045392 1.3381538 0.8367963 1.2285879
1.5147461 -1.4286209 -0.052255847 0.7920252 -0.064958096 -1.1154691 -0.22166923 1.6939083
1.7257253 0.40666527 1.2779688 1.3340814 -1.1883001 -0.44539344 1.3783151 -0.7876654
2.343113 -1.067213 1.9441688 0.42760146 0.46894795 0.007620611 -0.62967294 -0.79067135
-2.618147 -1.3216805 0.47647825 1.4496315 -1.4126207 -0.2526315 -0.27749544 0.70146513
-3.8462434 -0.32280943 -1.1357989 0.42881376 0.1279176 0.48684397 -1.7734232 -0.076706804
0.4838527 1.083845 -2.2493575 0.9167351 0.498351 -2.6192062 2.7097604 -0.87422955
0.6016316 0.4522075 2.1130278 -1.401569 -0.886996 0.6128738 0.64683986 -0.59960884

fc1.bias f4 [32]
00000000: 271c e2be 0513 c03e 59d6 b83d 469b 913e
00000010: 5640 453e cd43 9e3d 208b 2d3f f8dd 9f3e
00000020: 5433 debb 7303 903e dce3 183e af2c 0d3f
00000030: 8ef1 17bd 92fd 063d c556 7e3f 1e9a bd3e
00000040: be40 6d3e 6f32 cc3e 4064 bc3f 20d1 553f
00000050: 79a3 db3e abd9 e03e a521 f63e ea74 42be
00000060: 3d92 25be a734 0d3f 5a74 04be ba8e 643e
00000070: e85e 05be 1fd0 f93d 6091 c13e 7150 aa3e
-0.44162104 0.3751451 0.090252586 0.28438777 0.19262823 0.07727776 0.6779041 0.31224036
-0.006781021 0.28127632 0.14930671 0.55146307 -0.0370956 0.032956667 0.9935115 0.37031645
0.23169228 0.39882228 1.4718094 0.83522224 0.42898157 0.43916067 0.48072544 -0.18989912
-0.16169067 0.55158466 -0.1293501 0.22320071 -0.13024485 0.12197899 0.37806225 0.33264497

fc2.weight f4 [3, 32]
00000000: 1741 31c0 7b98 32bf 3dcb e0be 56e6 89bf
00000010: d4c7 0cbf 57bd 693f 8fb6 b9bf 1b98 683f
00000020: b2f1 18c0 c19a 1ebf d135 c2bf 0c7f 5ebf
00000030: ecca 44bf b72d 87be 38bc cf3f c0a9 20bf
00000040: 98e3 b8bf d6df 9cbe ee68 2e40 d42c 0840
00000050: c70e 3abf cc43 863f e82e 3bbf 85e4 033d
00000060: 5d3b 04bf e5d7 17bf ccc9 e5be da56 4dbf
00000070: 8f87 35c0 3a0f e8be 4574 1ebf 4d6d 21bf
00000080: 2d78 12c0 5e5a 3ebf e095 b5be 26e2 abbe
00000090: ffbb 01bf 0c1b 87bf 7a6d 07c0 4b62 2b40
000000a0: 0026 05c0 3c56 eebe 4006 22c0 4e33 56bf
000000b0: db4d cfbf d5a9 1bbe bc60 1540 36ca 1bbf
000000c0: 1c1a 98bf ac8f debe 9bb8 4340 f0b3 ba3f
000000d0: 467c 2bbf 5b48 af3f 1df8 4bbf 849f e6be
000000e0: c0ef e7be f920 38bf c78f 0b3e ff18 0bc0
000000f0: e450 d9bf a74d b5be cd63 26bf 8246 0cbf
00000100: 9325 04c0 069b 38bf d9d3 89be 5f9e 80bf
00000110: e117 2abf c8da 343f e1dc 2cc0 75dd af3f
00000120: f5ee 3fc0 04f7 1bbf 5c4b 11c0 3685 5abf
00000130: 545f 08c0 3a64 f9bd 2b3a e83f 4dff febe
00000140: 0907 8f3f 0aef 323e 768a f83e b1ed 1840
00000150: 118f 0ebf 296e 2140 39fd 41bf 3fbc 13bf
00000160: ac40 59bf 3478 43bf 057a 263e b124 4fbf
00000170: 1d47 29c0 c103 d5be 06e6 37bf 0f40 07bf
-2.7695978 -0.69763917 -0.43905059 -1.0773418 -0.54992414 0.91304535 -1.4508837 0.90857095
-2.389752 -0.61954886 -1.5172673 -0.8691261 -0.76872134 -0.26402065 1.6229315 -0.6275902
-1.4444456 -0.30639523 2.7251544 2.127736 -0.726788 1.048944 -0.7311845 0.032200355
-0.5165308 -0.59313804 -0.4488052 -0.8021065 -2.8363988 -0.45324117 -0.61896163 -0.63057405
-2.288585 -0.7435664 -0.35465908 -0.33570975 -0.50677484 -1.0555129 -2.116057 2.6778743
-2.0804443 -0.46550167 -2.5316315 -0.83672035 -1.6195635 -0.15201505 2.3340292 -0.60855424
-1.1882968 -0.43468988 3.0581424 1.4586163 -0.669865 1.3693956 -0.79675466 -0.45043576
-0.45300102 -0.7192531 0.13629065 -2.1734006 -1.6977811 -0.35410807 -0.64996034 -0.54795086
-2.0647933 -0.72111547 -0.2691944 -1.0048331 -0.66442686 0.70646334 -2.7009814 1.3739458
-2.9989598 -0.6092379 -2.2702246 -0.85359514 -2.1308184 -0.1217732 1.8142751 -0.49804154
1.1174022 0.17473999 0.48543137 2.3895075 -0.5568705 2.5223486 -0.7577701 -0.57709116
-0.84864306 -0.7635529 0.16257484 -0.8091536 -2.6449654 -0.41604427 -0.7183536 -0.5283212

fc2.bias f4 [3]
00000000: 9a70 84bf 8a78 b4bf 0fef 6abf
-1.0346863 -1.4099286 -0.91771024
