saves/07022021182612_acrobot_dqn.pt (torch, 27479 bytes, 8 tensors)

lstm.weight_ih_l0 f4 [128, 6]
0	0x3f61b3ea	0.8816515
1	0x3f14848b	0.58014745
2	0x3fe4c9d7	1.7874097
3	0x3f76ea62	0.9645139
4	0x3f504b4f	0.8136491
5	0xbeec2b3e	-0.4612674
6	0xc0538a27	-3.3053071
7	0x3f827537	1.0192021
8	0xbfd04ccb	-1.6273435
9	0xbf04035a	-0.51567614
10	0x3faf6e10	1.3705463
11	0x3dfbc32a	0.12293084
12	0x3f974c44	1.182015
13	0xbf724243	-0.9463236
14	0x3d8ca532	0.06867446
15	0xbe40bbed	-0.18821688
16	0x3fc11202	1.508362
17	0x3f846048	1.0341883
18	0x401f03ad	2.4845994
19	0x3f8b3f28	1.0878649
20	0xbfcc7371	-1.597273
21	0xc0826799	-4.075146
22	0xbf001af4	-0.5004113
23	0x3f96bab9	1.1775733
24	0x3f7d5cea	0.989699
25	0x3d491d8a	0.049100436
26	0x3fe0deda	1.7568009
27	0x3ec2ec1e	0.38070768
28	0xbdb3aff0	-0.08773792
29	0xbdeca1ab	-0.11554273
30	0x3fa84858	1.3147078
31	0xc00909f2	-2.141232
32	0x40717439	3.7727187
33	0x3ff0e9c6	1.8821342
34	0xbf057288	-0.52127886
35	0xbf60ce67	-0.87814945
36	0xbf058aef	-0.5216512
37	0xbfa4289c	-1.2824893
38	0xbf801c15	-1.000857
39	0xc00cd569	-2.2005255
40	0x3f22fecd	0.63670045
41	0x3e807f54	0.25097144
42	0x3fc63f7d	1.5488125
43	0x3e3cbf44	0.18432337
44	0x3f2f74e6	0.6853775
45	0xbe0dcac0	-0.13846874
46	0x3ef034fa	0.46915418
47	0x3ce0b3a8	0.027429417
48	0x3f93e61d	1.15546
49	0x3eea5b1f	0.45772645
50	0x3fba97b3	1.4577545
51	0x3f569e12	0.83834946
52	0x3ec786e9	0.38970116
53	0xbe224f58	-0.1585058
54	0x3fdb6dca	1.714288
55	0x3edcec63	0.431491
56	0x3dc32fd7	0.09530609
57	0xbe1afb21	-0.1513486
58	0x3dc57a66	0.09642486
59	0xbe9a503e	-0.30139345
60	0x3fed9b6c	1.8563056
61	0x3ebcadfd	0.36851493
62	0x3ee78e66	0.4522583
63	0x3f0030d7	0.50074524
64	0x3f1a1e7e	0.6020278
65	0x3ea93a94	0.33052504
66	0x3f12835b	0.5723168
67	0x3f7cd610	0.98764133
68	0x3ead664a	0.33867103
69	0x3ee5eb7b	0.4490622
70	0xbf2fafe2	-0.6862775
71	0x3e42a3f5	0.19007857
72	0x3fb531d9	1.4155837
73	0x3de9734f	0.113989465
74	0xbf4c3996	-0.7977537
75	0x3ed26045	0.41089073
76	0x3fbd61da	1.4795487
77	0x3f394665	0.7237304
78	0x3f7419ce	0.95351875
79	0x3fa94008	1.3222666
80	0x3fe44c7e	1.7835844
81	0x3e909096	0.2823531
82	0x3f8bd3c0	1.0923996
83	0xbd196ab4	-0.037455276
84	0x3fdf876d	1.7463204
85	0x3e74429d	0.23853536
86	0xbe7f347a	-0.24922362
87	0x3ebc9fe2	0.3684073
88	0x3ec148f4	0.3775097
89	0x3e9e6471	0.30936006
90	0x405e87e6	3.4770446
91	0x4035f8b1	2.843304
92	0x3feb50e8	1.8384066
93	0xbfdbbee8	-1.7167635
94	0x3f63fd07	0.89057964
95	0x3e354a93	0.17704229
96	0xbf679461	-0.90460783
97	0x400e99a3	2.2281272
98	0xbf9cdbdb	-1.2254595
99	0xbfc96f93	-1.5737175
100	0x3ee5eba3	0.4490634
101	0x3e34cc9a	0.17656174
102	0x3d21df99	0.03951988
103	0xbf3eab88	-0.74480486
104	0xbe129bf7	-0.14317308
105	0xbf799124	-0.9748709
106	0x3f4c04e5	0.7969497
107	0xbe6c1232	-0.23053816
108	0x4032ddd3	2.794789
109	0xbf45efdd	-0.7731913
110	0x3e3eb962	0.18625405
111	0xbf5a101c	-0.8518083
112	0x3e562672	0.20913103
113	0x3e76f8ca	0.24118343
114	0x40067fdb	2.1015537
115	0xbecca216	-0.39967412
116	0x3eaa8f92	0.3331266
117	0xbea01169	-0.31263283
118	0x3e26a162	0.162725
119	0xbd0424d8	-0.0322617
120	0x3facd135	1.3501345
121	0x3e55b246	0.20868787
122	0x3f231fbd	0.63720304
123	0x3e4eca44	0.20194346
124	0x3eae9f56	0.3410594
125	0xbb3c3792	-0.0028719646
126	0xc03900df	-2.8906782
127	0xc00bcb5e	-2.1842875
128	0xbe41d292	-0.18927982
129	0xbf0b9877	-0.5452952
130	0xbed293b3	-0.4112831
131	0xbeddeeee	-0.4334635
132	0x3fbd6693	1.4796928
133	0xbdecbf47	-0.11559921
134	0x3f382f39	0.71947056
135	0x3f84b9c5	1.0369192
136	0x3e6cf0bb	0.23138706
137	0x3f05de4c	0.52292323
138	0x3e42bc66	0.19017181
139	0xc01dbe19	-2.4647276
140	0x3fe9a1c6	1.8252494
141	0x3fa824bd	1.3136212
142	0xbfb8c044	-1.4433675
143	0xbee48e63	-0.44639882
144	0x401598dc	2.3374548
145	0xbf32514e	-0.6965531
146	0xbecbed34	-0.3982941
147	0xbed49dab	-0.4152654
148	0x3f066b4d	0.5250748
149	0x3ea8749d	0.3290147
150	0x403528f6	2.830625
151	0x3f710f04	0.9416354
152	0x3f1b80ae	0.60743225
153	0xbf9439e1	-1.1580163
154	0xbf2a618e	-0.66555107
155	0x3f52fb84	0.8241503
156	0x3f8c3fc7	1.0956963
157	0xbeeeffd7	-0.46679565
158	0x3eca233a	0.3948
159	0xbdc4f751	-0.09617484
160	0x3eea2abd	0.45735732
161	0x3bd783c4	0.006576987
162	0x3fc3e96b	1.5305609
163	0xbf57d107	-0.84303325
164	0x3f6fc1b6	0.93654954
165	0x3fcdd5a1	1.6080819
166	0xbc86b45b	-0.016443422
167	0xbe8b00de	-0.271491
168	0xc005ff44	-2.0937052
169	0xbfe2732f	-1.7691401
170	0xbf17a460	-0.5923519
171	0x405037fd	3.2534173
172	0x3edd62f0	0.43239546
173	0x3bf7ff07	0.0075682434
174	0x3f8aee42	1.085396
175	0x3ea40ae9	0.32039574
176	0xbe8e9b60	-0.27852917
177	0x3dcfb3f0	0.10141742
178	0xbea4ff4b	-0.32226023
179	0x3e4f61fe	0.20252225
180	0x3f1b4f49	0.60667855
181	0xc083ce27	-4.118915
182	0xc0918572	-4.5475397
183	0x3f545e49	0.8295637
184	0xbdad9e5d	-0.08477471
185	0xbfab8dbf	-1.3402632
186	0x3fcf7eed	1.621061
187	0x3f66f262	0.90213597
188	0x3fa4c908	1.287385
189	0x3f9655ee	1.1744974
190	0x3f886014	1.0654321
191	0x3e08ccac	0.13359326
192	0x3dfca662	0.123364225
193	0xbd8c5bc3	-0.0685344
194	0x3d140c80	0.036144733
195	0x3d6b6098	0.057465166
196	0xbddaa983	-0.10676863
197	0x3dd2abda	0.10286684
198	0xbe212194	-0.15735465
199	0xbe058b94	-0.13041526
200	0xbd8b1805	-0.06791691
201	0x3daed9d6	0.08537643
202	0x3d8d2aa6	0.068929
203	0x3e0480fb	0.12939827
204	0x3cb9aa08	0.022664085
205	0xbda2e47c	-0.07953736
206	0xbdcfe880	-0.10151768
207	0xbd0b26cc	-0.033972546
208	0x3d6e0468	0.05810967
209	0x3e2ba6af	0.16762803
210	0x3ddf986e	0.109177455
211	0xbd4730fc	-0.0486307
212	0x3e2844d9	0.16432513
213	0x3e2c3d37	0.16820227
214	0x3dd63dbe	0.10460995
215	0xbe3115e4	-0.17293507
216	0xbdebc042	-0.1151128
217	0x3c8a74a8	0.01690133
218	0xbdb036bd	-0.086041905
219	0xbcdba2e0	-0.026811063
220	0x3e32128b	0.17389886
221	0x3e273fa9	0.16332878
222	0xbe1096ff	-0.141201
223	0xbdb4bfe0	-0.0882566
224	0x3e10e937	0.14151464
225	0xbe090b0f	-0.13383125
226	0xbd992fad	-0.074797966
227	0x3dffc9c6	0.12489657
228	0xbd2c18d0	-0.04201585
229	0xbdb3698f	-0.08760368
230	0x3cdb46e0	0.026767194
231	0xbd220884	-0.039558902
232	0x3dcacb3a	0.09902044
233	0x3e0f62b1	0.14002492
234	0xbe24f3fe	-0.161087
235	0xbe1c0c28	-0.15239012
236	0x3dddeaaa	0.10835774
237	0x3e291e89	0.16515554
238	0x3d1092c4	0.035296217
239	0x3d5d510c	0.05403237
240	0x3b528f00	0.0032128692
241	0x3e2c1509	0.168049
242	0xbc87f150	-0.016594559
243	0xbdddbe60	-0.10827327
244	0x3d65b070	0.056076467
245	0xbe21b340	-0.15791035
246	0x3db7d92e	0.089769706
247	0xbd753994	-0.059869364
248	0xbe14a0ad	-0.14514418
249	0x3dd8e476	0.105904505
250	0x3e25b8d1	0.16183783
251	0xbe09fa58	-0.13474405
252	0x3dbd776e	0.09251295
253	0x3df49ad6	0.11943595
254	0x3ba62420	0.0050702244
255	0x3e278685	0.16359909

lstm.weight_hh_l0 f4 [128, 32]
0	0x3d25a084	0.040436283
1	0xbc81d0e0	-0.01584667
2	0xbc931bb8	-0.017957553
3	0x3c68ffd0	0.014221147
4	0xbd88944f	-0.066689126
5	0x3ce2ca08	0.027684227
6	0x3d582a54	0.052774742
7	0x3e315e79	0.17321195
8	0xbe12777c	-0.14303392
9	0xbd135f74	-0.035979703
10	0x3d26f5e8	0.04076186
11	0xbde7cb24	-0.11318043
12	0x3c655730	0.013997838
13	0xbe152207	-0.14563762
14	0x3d16cec0	0.036818266
15	0xbe0692a8	-0.13141882
16	0x3da21fd6	0.079162285
17	0xbd93d73a	-0.072187856
18	0xbc85ee88	-0.016349092
19	0xbe241d66	-0.1602684
20	0x3d42d5b8	0.0475671
21	0xbd94f13e	-0.07272576
22	0xbe206cc2	-0.15666488
23	0x3e01623d	0.12635131
24	0xbd86e984	-0.06587508
25	0xb9d0a200	-0.0003979355
26	0xbd62ab80	-0.055339336
27	0x3dbed6ee	0.09318338
28	0xbdefc089	-0.11706645
29	0x3e094c49	0.13408007
30	0xbe0c41e0	-0.13697004
31	0x3e2aba27	0.16672574
32	0x3e285f79	0.1644267
33	0xbdc1d902	-0.09465219
34	0xbd479a04	-0.048730865
35	0x3ded8e36	0.1159939
36	0xbd1ee92c	-0.03879659
37	0xbcbe5fc0	-0.023239017
38	0xbe2182e8	-0.15772593
39	0xbe34f4eb	-0.17671554
40	0x3d76b618	0.060232252
41	0xbdaf9601	-0.08573533
42	0xbe2c5a6c	-0.16831368
43	0xbdd00bd8	-0.10158509
44	0xbdf67970	-0.12034881
45	0x3e2e672b	0.17031543
46	0xbd942656	-0.072338745
47	0xbdd30238	-0.103031576
48	0xbd06e5a4	-0.032933846
49	0xbd28eb38	-0.041239947
50	0x3d9b4636	0.07581751
51	0xbd22eedc	-0.039778575
52	0xbe2d7854	-0.16940433
53	0xbe236104	-0.15954977
54	0x3d5079a4	0.050897256
55	0x3e00125f	0.12507008
56	0x3c395890	0.011312619
57	0x3d6d8278	0.057985753
58	0x3dbcd982	0.09221174
59	0xbd4eb998	-0.050469965
60	0x3d3cefac	0.046127006
61	0x3d1a887c	0.037727818
62	0xbdb01a63	-0.08598783
63	0x3d8c4696	0.06849401
64	0x3d65ef7c	0.056136593
65	0x3e106b73	0.14103489
66	0xbe184562	-0.14870217
67	0x3cdc8720	0.026919901
68	0x3db291e2	0.08719231
69	0xbe06ce4d	-0.13164635
70	0x3e223817	0.15841709
71	0x3d88438c	0.066535085
72	0x3e01e9f1	0.12686898
73	0x3df7b0ea	0.120942906
74	0x3dc80642	0.097668186
75	0x3e0165cb	0.12636487
76	0xbd99bc15	-0.07506577
77	0x3d16729c	0.036730394
78	0xbe28e5bd	-0.16493888
79	0x3dad1b9a	0.0845253
80	0x3d0adeb4	0.033903793
81	0xbd1592c8	-0.036516935
82	0xbc6c19e0	-0.014410466
83	0xbdd0c15f	-0.101931326
84	0xbde5a3b5	-0.11212865
85	0x3b79acc0	0.0038097352
86	0xbdea7ce6	-0.11449604
87	0xbe27a7ac	-0.16372555
88	0x3bdf2980	0.006810367
89	0x3e2974ed	0.1654851
90	0xbc193f10	-0.009353414
91	0x3d056a5c	0.032572135
92	0x3db59356	0.08865993
93	0xbe0f3ecc	-0.13988799
94	0xbc71d2f0	-0.014759764
95	0x3c9c58f8	0.019085392
96	0xbe14b0f0	-0.14520621
97	0xbddc6544	-0.107615024
98	0x3c9edad8	0.019391462
99	0x3b41d700	0.0029577613
100	0x3dfce4ce	0.123483285
101	0x3e2fda55	0.17173131
102	0xbd62d2d6	-0.05537685
103	0x3e06b191	0.13153674
104	0x3e308a65	0.17240293
105	0xbe03faed	-0.1288869
106	0x3e2d0a39	0.16898431
107	0x3d870a68	0.06593782
108	0x3d2404e8	0.04004374
109	0x3e061a8d	0.13096066
110	0xbccc91b0	-0.024971813
111	0xbd4d56b0	-0.0501315
112	0x3d0ec600	0.034856796
113	0xbdd6d7df	-0.10490393
114	0x3af1a280	0.001843527
115	0x3ba95d20	0.005168572
116	0xbd9d8fc7	-0.07693439
117	0x3dfb56be	0.12272404
118	0xbe1fbafe	-0.15598676
119	0x3d8cd174	0.068758875
120	0xbe292f1b	-0.16521876
121	0x3e1b2c87	0.15153705
122	0xbdbfa4a9	-0.09357578
123	0x3dd06af2	0.10176648
124	0x3dad6b3a	0.084677175
125	0x3e07b807	0.13253795
126	0x3d9c35b6	0.07627432
127	0x3e218d1f	0.1577649
128	0x3d76b9d8	0.06023583
129	0xbd1debf4	-0.0385551
130	0xbe1c55e1	-0.15267135
131	0x3d9a9d76	0.075495645
132	0xbd972893	-0.07380786
133	0x3dd238f6	0.10264771
134	0xbe2b426e	-0.1672456
135	0xbe31d564	-0.17366558
136	0xbc8d7a88	-0.017270342
137	0xbc14ebf0	-0.009089455
138	0xbd941267	-0.072300725
139	0x3ca6afb0	0.020347446
140	0xba7ee400	-0.00097233057
141	0x3dbe9f3a	0.09307714
142	0xbe09b324	-0.13447243
143	0x3e1e97a9	0.15487541
144	0xbd96c260	-0.07361293
145	0x3d1dca1c	0.038522825
146	0xbda10c04	-0.0786362
147	0xbe1407a2	-0.14456037
148	0x3d8e78e0	0.06956649
149	0x3e2d8f49	0.1694919
150	0xbd993268	-0.07480317
151	0x3d9dc126	0.07702856
152	0xbe32b43a	-0.17451563
153	0xbdfc0450	-0.1230551
154	0xbdd3d9c9	-0.103442736
155	0x3de92792	0.113845006
156	0xbe30db7c	-0.17271227
157	0xbd40bf4c	-0.047057435
158	0x3d09f3ec	0.033679888
159	0xbe16d628	-0.14730132
160	0xbe12fc39	-0.14354028
161	0xbb9d5ce0	-0.0048023313
162	0xbe0f2b87	-0.13981448
163	0x3c060f10	0.008182302
164	0xbde9b3bb	-0.11411234
165	0xbc3a1690	-0.011357918
166	0x3db146f2	0.0865611
167	0xbd5af916	-0.053460203
168	0xbe1b64bd	-0.15175147
169	0x3df0704a	0.117401674
170	0x3be8a520	0.0070997626
171	0x3e2ff0ad	0.17181654
172	0xbcf95a18	-0.030438468
173	0xbe0a1361	-0.13483955
174	0x3d56d840	0.052452326
175	0xbdf0a456	-0.117500946
176	0xbd089400	-0.03334427
177	0xbe2982e5	-0.16553839
178	0x3d6a38f0	0.057183206
179	0xbe22a0f4	-0.15881711
180	0x3e2afa29	0.16696991
181	0xbe342496	-0.17592081
182	0x3d2c1190	0.042008936
183	0xbe2b4ae5	-0.16727789
184	0x3d9dd3c6	0.07706408
185	0x3db6b35a	0.08920927
186	0xbe21b679	-0.15792264
187	0x3c2f12e0	0.0106856525
188	0x3dfcf07e	0.12350558
189	0x3d829550	0.06376135
190	0x3d766c1c	0.060161695
191	0xbd57374e	-0.052542977
192	0x3e167491	0.14692904
193	0xbe2e9523	-0.17049079
194	0x3dee168e	0.11625396
195	0x3e2c403d	0.1682138
196	0x3d1970c0	0.037461042
197	0x3e19c8a7	0.15017949
198	0x3e3063eb	0.17225616
199	0xbd639d28	-0.055569798
200	0xbcef4e88	-0.029212251
201	0xbe34e668	-0.17666018
202	0xbd3e01d0	-0.046388447
203	0x3dd74bca	0.105125025
204	0xbd00fa50	-0.031488717
205	0x3e33a0af	0.17541765
206	0x3ddfb44e	0.10923062
207	0xbd09f74c	-0.033683106
208	0x3e257d65	0.16161115
209	0x3e2b6a53	0.16739778
210	0xbe03e5f6	-0.12880692
211	0x3ddea44e	0.108711824
212	0x3db48d8e	0.08816062
213	0x3d596930	0.05307883
214	0x3e059f3d	0.13049026
215	0x3c4fe0c0	0.012687862
216	0xbd1dd234	-0.038530543
217	0x3d0b56a8	0.03401819
218	0xbca53c50	-0.02017036
219	0x3e1ebf79	0.15502729
220	0xbd9db93c	-0.07701346
221	0x3d8678fa	0.06566043
222	0x3d378c94	0.0448118
223	0x3d971852	0.073776856
224	0xbdfc2098	-0.12310904
225	0xbe24cd73	-0.16093998
226	0x3dd4deb2	0.10394038
227	0xbd71e14c	-0.05905275
228	0x3d0daef0	0.03459066
229	0x3e33b46d	0.17549296
230	0x3d844c12	0.06459822
231	0xbdb3a7ac	-0.08772215
232	0xbe3262a0	-0.17420435
233	0xbd3dcd88	-0.046338588
234	0xbdb16772	-0.08662309
235	0x3e321b9d	0.17393346
236	0x3cb3d248	0.021950856
237	0xbcbcd0f8	-0.023048863
238	0x3cea0518	0.028566882
239	0xbe0d4337	-0.13795172
240	0xbd812f76	-0.063078806
241	0x3e14f031	0.14544751
242	0xbd858ded	-0.06521211
243	0x3dc8f64e	0.09812604
244	0xbdbae807	-0.09126287
245	0xbd39674c	-0.045264527
246	0x3ddd1236	0.10794489
247	0xbe26b63b	-0.16280453
248	0x3e1549f5	0.14578994
249	0xbc678f40	-0.014133275
250	0x3db0b71e	0.08628677
251	0xbd8ef4c4	-0.06980279
252	0x3dec3712	0.11533941
253	0x3dc3026e	0.09521948
254	0xbdd60dcb	-0.104518496
255	0xbd714730	-0.05890578

lstm.bias_ih_l0 f4 [128]
0	0x40225232	2.5362668
1	0xbf3a5a9d	-0.72794515
2	0x3fb8fb3a	1.4451668
3	0xbf6558fa	-0.8958889
4	0x40396225	2.8966153
5	0x3f806d05	1.003327
6	0x3fa0c1f4	1.255919
7	0x4038d5b3	2.8880432
8	0x404d9f61	3.2128527
9	0x404578e2	3.085503
10	0x4014c106	2.3242812
11	0x3f9fa8ab	1.2473348
12	0x40134b24	2.3014612
13	0x401a907c	2.4150686
14	0x403eae0b	2.9793727
15	0x3ec33b75	0.381313
16	0xbdbc40bf	-0.09192037
17	0x40484298	3.1290646
18	0x400ca12c	2.1973372
19	0x40487f4f	3.1327703
20	0x4011aef0	2.2763023
21	0x3ce8fc5c	0.028440647
22	0x3fed9f5b	1.8564256
23	0x3f5a2510	0.852128
24	0x40272fd4	2.6122942
25	0x3fcebe21	1.6151773
26	0x402dc672	2.7152371
27	0x3fdb486b	1.7131475
28	0xbf5651f8	-0.83718824
29	0x402e390a	2.7222314
30	0xbfc819bf	-1.5632857
31	0x40008333	2.0080078
32	0xbc8e2688	-0.017352358
33	0x3da87b32	0.08226623
34	0x3e19a39f	0.15003823
35	0xbdc9243e	-0.09821366
36	0x3e1cd3bb	0.15315144
37	0x3d4a58e4	0.04940118
38	0xbe2145f7	-0.15749346
39	0x3e327dd1	0.17430808
40	0x3dab06ea	0.08350928
41	0xbd07f03c	-0.03318809
42	0xbe0d4316	-0.13795123
43	0xbdcfaa77	-0.101399355
44	0x3e0b1a0f	0.1358416
45	0x3d93a99c	0.07210085
46	0xbdd7bcd4	-0.10534063
47	0xbdeee6bc	-0.11665103
48	0x3e1f96fd	0.15584941
49	0x3e08b7a1	0.13351299
50	0xbc5fb710	-0.013654485
51	0xbd9ca99e	-0.076495394
52	0xbda7e201	-0.08197404
53	0xbe0f1c90	-0.1397574
54	0x3e2f7909	0.17136015
55	0xbce34908	-0.027744785
56	0xbe2d1a58	-0.1690458
57	0xbd72bd40	-0.059262514
58	0xbdeeca7c	-0.116597146
59	0xbe190eb4	-0.14947015
60	0x3dae961a	0.08524723
61	0xbe07c055	-0.13256963
62	0xbdf6c58c	-0.12049398
63	0xbc818550	-0.015810639
64	0xc01326f0	-2.2992516
65	0x3fed65a6	1.8546646
66	0x40324010	2.78516
67	0x3f845f01	1.0341493
68	0xc0014112	-2.0195966
69	0xbf76cb32	-0.964038
70	0xc01650a7	-2.3486726
71	0xc01f05ff	-2.484741
72	0x3ffe3497	1.9859799
73	0x402f889c	2.742713
74	0x402bf081	2.6865542
75	0x4032f900	2.7964478
76	0xc04d44d4	-3.207326
77	0xc01345b7	-2.30113
78	0xc00b3232	-2.1749387
79	0xbfa6b0c6	-1.3022697
80	0xbfc2354a	-1.5172513
81	0x40301887	2.751497
82	0x40035799	2.0522215
83	0x4038339b	2.8781497
84	0x401fcfaf	2.497051
85	0xbcfe688f	-0.031055717
86	0xc0004688	-2.004305
87	0x4011f0c3	2.28032
88	0xc00c3291	-2.1905863
89	0xbfdb2360	-1.712017
90	0x4004fc61	2.077904
91	0xbfd0ffc4	-1.6328053
92	0xbf0d863d	-0.55282956
93	0xc012656f	-2.287441
94	0x3f843d44	1.0331197
95	0x4007aa99	2.1197875
96	0x401a4607	2.4105241
97	0xbeed58f5	-0.4635693
98	0x3fd54892	1.6662772
99	0xbf4d5195	-0.8020261
100	0x4035525b	2.8331516
101	0x3f026f7f	0.5095138
102	0x3f4ff248	0.81229067
103	0x4020e086	2.5137038
104	0x40147060	2.3193588
105	0x40483aa6	3.1285796
106	0x400ce9ae	2.2017627
107	0x3f6eff47	0.9335827
108	0x401b1d02	2.4236455
109	0x401e94be	2.4778285
110	0x4028bd96	2.6365714
111	0xbf30c202	-0.6904603
112	0x3ebdcee9	0.37071922
113	0x3fcc3cc2	1.5956042
114	0x3faebfcd	1.3652283
115	0x4028205a	2.6269746
116	0x40091e5e	2.1424785
117	0x3de109df	0.10988211
118	0x3ff3cfb2	1.9047759
119	0x3eb9fbc9	0.3632491
120	0x401867db	2.3813388
121	0x4002e460	2.045189
122	0x40110b1d	2.2663033
123	0x4009542e	2.145763
124	0xbef2b43a	-0.47403127
125	0x40006ac4	2.0065165
126	0xbfa9fae6	-1.3279693
127	0x3fe21df1	1.7665387

lstm.bias_hh_l0 f4 [128]
0	0x40216a1e	2.5221019
1	0xbf12d091	-0.573495
2	0x3fb5e956	1.4211833
3	0xbf6d28f1	-0.92640597
4	0x4031fe04	2.781129
5	0x3f35a505	0.70954925
6	0x3f9655b8	1.1744909
7	0x40339b6e	2.8063617
8	0x404b5986	3.177339
9	0x403767ec	2.865718
10	0x40089916	2.1343436
11	0x3f8d1e34	1.1024842
12	0x4010783d	2.2573388
13	0x4016196b	2.3453014
14	0x402f9904	2.7437143
15	0x3ef5151a	0.47867662
16	0xbe228f7c	-0.15875047
17	0x4034e058	2.8261929
18	0x400939dc	2.1441565
19	0x404ce16c	3.2012587
20	0x40069cb4	2.1033144
21	0xbe315155	-0.17316182
22	0x40077f74	2.1171541
23	0x3f646c20	0.89227486
24	0x402fea30	2.7486687
25	0x3fd0c21a	1.6309235
26	0x402c59d0	2.6929817
27	0x3ff7642b	1.9327444
28	0xbf4d607b	-0.8022534
29	0x40287381	2.6320498
30	0xbfd56625	-1.6671797
31	0x40162035	2.3457158
32	0xbd07e340	-0.033175707
33	0xbd963f7e	-0.07336329
34	0x3d9dc1da	0.0770299
35	0x3de8c186	0.11365037
36	0x3d711438	0.058857173
37	0xbe1e9318	-0.154858
38	0xbc6bda70	-0.014395341
39	0xbca40e60	-0.020026386
40	0xbe2a40dd	-0.16626306
41	0x3c8a5280	0.016885042
42	0xbe2b10ec	-0.16705674
43	0x3da40ca2	0.08010222
44	0xbd174e24	-0.036939755
45	0x3db3391e	0.087511286
46	0xbdabc972	-0.08388032
47	0xbc760710	-0.015016332
48	0x3e0a7d45	0.13524349
49	0x3d9d2cae	0.076745376
50	0xbe1f978f	-0.15585159
51	0x3d8a8228	0.067631066
52	0x3dd4be7e	0.10387896
53	0xbe1fdc76	-0.15611443
54	0x3dd36286	0.10321526
55	0xbe12f4f1	-0.1435125
56	0x3d3d1cb0	0.046169937
57	0x3b049c80	0.0020234883
58	0xbca55cf8	-0.020185933
59	0x3d9a995e	0.07548784
60	0x3dfb9c1a	0.122856334
61	0x3db71c96	0.08940999
62	0xbd8b7890	-0.06810105
63	0xbdba6700	-0.09101677
64	0xc00c562a	-2.192759
65	0x3fefa25d	1.8721424
66	0x40253a3c	2.5816793
67	0x3f83ba57	1.0291241
68	0xbffe75aa	-1.9879658
69	0xbfa4a413	-1.2862571
70	0xc01f4cef	-2.4890707
71	0xc0212cee	-2.5183673
72	0x40089f9b	2.1347415
73	0x401db8bf	2.464401
74	0x4033aae8	2.8073063
75	0x401ed158	2.4815273
76	0xc043e654	-3.060933
77	0xc016e3eb	-2.357661
78	0xc0111ffc	-2.2675772
79	0xbfa31e65	-1.2743651
80	0xbfbbbb76	-1.4666584
81	0x403231bc	2.7842855
82	0x3ff3fc1a	1.906131
83	0x40368219	2.8516905
84	0x401e7084	2.4756174
85	0x3c3540f2	0.011062847
86	0xbff6e0a0	-1.92873
87	0x400cd167	2.200281
88	0xc01db163	-2.4639518
89	0xbfd89d2d	-1.6922966
90	0x400c2fad	2.19041
91	0xbfe04a97	-1.7522763
92	0xbef94f8b	-0.486935
93	0xc01df01a	-2.4677796
94	0x3f9bd7ba	1.217521
95	0x3fe447bd	1.7834393
96	0x4017e962	2.3736196
97	0xbef00134	-0.46875918
98	0x3fd50af7	1.6643971
99	0xbf6253ca	-0.884091
100	0x4029003f	2.64064
101	0x3ea1b5f4	0.31584132
102	0x3f67fef7	0.9062342
103	0x40264b82	2.5983586
104	0x400dd066	2.2158446
105	0x404cd490	3.2004738
106	0x3ff47aea	1.910001
107	0x3f82f0c0	1.0229721
108	0x401b4bf0	2.4265099
109	0x4012fd8e	2.2967257
110	0x402b9a38	2.6812878
111	0xbf0d979f	-0.5530948
112	0x3d7ef2a9	0.062243138
113	0x3febf768	1.8434877
114	0x3f9921d2	1.1963446
115	0x402baf81	2.682587
116	0x4009b750	2.1518135
117	0x3e1d4089	0.1535665
118	0x3ffd6e43	1.9799274
119	0x3e465701	0.19369127
120	0x401c7988	2.4449177
121	0x3ff3f93f	1.9060439
122	0x4013a1b3	2.3067443
123	0x400573a8	2.085184
124	0xbf1f11a9	-0.6213632
125	0x3fea4e7c	1.8305202
126	0xbfaac01e	-1.333988
127	0x3fbb299a	1.4622071

fc1.weight f4 [32, 32]
0	0xbf30f905	-0.69129974
1	0x3f460e1a	0.7736527
2	0x3ead96b7	0.3390405
3	0x3eec0aed	0.46102086
4	0xbe9ee09f	-0.31030747
5	0xbf1f09e1	-0.6212445
6	0x3ded98eb	0.116014324
7	0xbf33819b	-0.7011964
8	0x3eb03cff	0.34421536
9	0x3e888a62	0.26668078
10	0x3edb8221	0.42872718
11	0x3e474f58	0.19463861
12	0xbf01dd29	-0.5072809
13	0xbe6c453f	-0.2307329
14	0xbd7f5d8c	-0.062345073
15	0xbf234fb7	-0.6379351
16	0x3d1453d0	0.036212742
17	0x3f16b849	0.58874947
18	0x3f37ea71	0.71842104
19	0x3f796dc6	0.97433126
20	0x3f0deee8	0.55442667
21	0x3e9ff63c	0.3124255
22	0xbf02883d	-0.50989133
23	0x3ece37fb	0.40277085
24	0xbe9f0e56	-0.31065625
25	0xbe8b3a11	-0.2719274
26	0x3f7ad6a8	0.9798379
27	0xbd27bc4f	-0.04095107
28	0xc00644bd	-2.0979455
29	0xbe7288db	-0.23685019
30	0x3f825686	1.0182655
31	0x3e8db335	0.27675787
32	0x3fdf8180	1.7461395
33	0x400c7689	2.1947348
34	0xbf792381	-0.973198
35	0x3ec4f5df	0.38468835
36	0xbf64a1dc	-0.8930948
37	0xbe1d40cb	-0.15356748
38	0xbe4da957	-0.2008413
39	0xbf8bcfa5	-1.0922743
40	0xbd87528c	-0.066075414
41	0x3f873f4f	1.0566195
42	0x3e87a45b	0.2649258
43	0x3e347ac8	0.17624962
44	0xbee41c04	-0.44552624
45	0x3efd1542	0.4943028
46	0x3eddd0a6	0.4332325
47	0xbe391fc2	-0.18078521
48	0xbf50feba	-0.8163868
49	0x3f732965	0.9498504
50	0xbde4fed6	-0.111814186
51	0xbe43a362	-0.19105294
52	0x3ee5b294	0.44862807
53	0x401629b2	2.3462949
54	0x3d596374	0.05307336
55	0x3f09ed7a	0.53877985
56	0xbe5685c6	-0.20949468
57	0x3e52e58a	0.20595375
58	0xbf90f29e	-1.1324041
59	0x3e8441fa	0.25831586
60	0x3c997d59	0.018736528
61	0x3e1bec53	0.1522687
62	0x3f9720a6	1.1806839
63	0xc0154edb	-2.332938
64	0x3fd4b0e8	1.6616488
65	0x3f93abfd	1.1536862
66	0xbf834f7f	-1.0258635
67	0x3f428b60	0.7599392
68	0x3eb67930	0.35639334
69	0x3a866803	0.0010254387
70	0xbe1f4334	-0.1555298
71	0x3dd56daf	0.10421311
72	0xbe8da7a8	-0.27666974
73	0xbf3e792e	-0.74403656
74	0xbe17b966	-0.14816818
75	0xbe488d29	-0.19585098
76	0x3eedc076	0.464359
77	0x3fb18e09	1.3871471
78	0x3fdab3d8	1.7086134
79	0x3f8b65ab	1.0890402
80	0x3eaabd8a	0.33347732
81	0xbf314880	-0.6925125
82	0xbff99d82	-1.9501193
83	0xbea84019	-0.32861403
84	0xbd116a90	-0.035502017
85	0x3f02fb81	0.51165015
86	0x3f4e5413	0.8059704
87	0xbec9a787	-0.39385626
88	0x3e048397	0.12940823
89	0x3e6ced4e	0.231374
90	0xbf33e122	-0.702654
91	0x3dd83bf7	0.105583124
92	0xbfb26be1	-1.3939172
93	0x3eb402a2	0.3515826
94	0x400dbb58	2.2145596
95	0xbe847f85	-0.2587854
96	0xbc300ab1	-0.0107447365
97	0x3f7fb657	0.99887604
98	0xc006e38a	-2.107638
99	0x3f8b291a	1.0871918
100	0x3f93c427	1.1544236
101	0x3f3fb54c	0.7488601
102	0x3f9acbef	1.2093486
103	0x3cd4a075	0.025955418
104	0x3e0a7f01	0.1352501
105	0xc0206fa2	-2.5068135
106	0x3e8693d0	0.26284647
107	0x3ecbe56d	0.39823475
108	0xbe822016	-0.25415105
109	0x402c5045	2.6923993
110	0x3f619183	0.8811266
111	0x40105acd	2.255542
112	0x4038a04b	2.8847835
113	0xbfdfb8cf	-1.7478274
114	0xbf0542f7	-0.52055305
115	0x3debc709	0.11512572
116	0xbde10cc8	-0.10988766
117	0x3ecb39f8	0.39692664
118	0xbf54b2ab	-0.83085126
119	0xbf900f0c	-1.1254592
120	0x3e45bf81	0.19311334
121	0xbf2abfa4	-0.6669867
122	0xbe265f9e	-0.16247413
123	0xbf6fdda6	-0.93697584
124	0x4038d641	2.888077
125	0xbf9eac87	-1.2396401
126	0xbf8029f4	-1.0012803
127	0xc002bfa7	-2.0429475
128	0xbf65293f	-0.8951606
129	0x3f980e88	1.1879435
130	0x3f0b18c7	0.5433468
131	0x3f47d402	0.78057873
132	0xbf4574b2	-0.7713119
133	0xbee64640	-0.44975471
134	0xbdfbcbd7	-0.12294739
135	0xbf832957	-1.0246991
136	0x3f2ea646	0.68222463
137	0x3f011396	0.5042051
138	0x3eef4ef0	0.46739912
139	0x3e54bbcb	0.20774762
140	0xbf6915f0	-0.910491
141	0xbf304d50	-0.6886797
142	0xbf0c63a8	-0.54839563
143	0xbf392e6d	-0.72336465
144	0xbe58f6f6	-0.21187958
145	0x3f3880e1	0.72071654
146	0x3f63823a	0.88870585
147	0x3f82f6cd	1.0231568
148	0x3f43338c	0.7625053
149	0x3e4af2b2	0.19819143
150	0xbf075498	-0.52863455
151	0x3ee12e7d	0.4398078
152	0xbf239d07	-0.6391148
153	0xbea65222	-0.32484537
154	0x3f5b1205	0.8557437
155	0xbeab0ced	-0.334083
156	0xc01166cd	-2.2718995
157	0xbf2dbbdd	-0.6786478
158	0x3f845246	1.0337608
159	0x3ee010f8	0.43762946
160	0xbe9cae6b	-0.3060182
161	0xbd7f20eb	-0.062287252
162	0xbe2c9325	-0.16853006
163	0xbe982fa6	-0.29723853
164	0x3f075cb9	0.5287586
165	0x401d9fe4	2.462884
166	0xbe3764ed	-0.17909594
167	0xbecbe330	-0.39821768
168	0xbec91f35	-0.39281622
169	0xbf4bb422	-0.79571736
170	0x3f3bf04b	0.7341353
171	0x3f5de91a	0.8668381
172	0xbe72bf8b	-0.2370588
173	0x40081863	2.1264884
174	0x3e6a514a	0.22882572
175	0x3f175bff	0.5912475
176	0x3fc4d4a9	1.5377399
177	0x3f3876a7	0.7205605
178	0x3f374d93	0.71602744
179	0x3f3f96e3	0.7483961
180	0x3ef2912b	0.4737638
181	0xbeea48bf	-0.45758626
182	0xbe2dccc0	-0.16972637
183	0x3fabc2c2	1.341881
184	0xbed31f1f	-0.4123468
185	0x3ecbd9a0	0.39814472
186	0xbe48b840	-0.19601536
187	0x3e2dd39e	0.16975257
188	0xbf60e85e	-0.87854564
189	0xbeb0fe17	-0.34568855
190	0xbe22ae26	-0.15886745
191	0xbf00864d	-0.50204927
192	0xbf6486a8	-0.8926797
193	0x3f7c5d50	0.98579884
194	0x3f3adfb3	0.7299759
195	0x3f275ede	0.6537913
196	0xbf11da49	-0.569737
197	0xbef649a6	-0.48103064
198	0x3d9d4405	0.07678989
199	0xbf6fdece	-0.9369935
200	0x3f157816	0.5838636
201	0x3ecec276	0.40382737
202	0x3ec34698	0.38139796
203	0x3cb654dd	0.022257263
204	0xbf09dd67	-0.5385346
205	0xbf01c620	-0.5069294
206	0xbf10c96e	-0.5655736
207	0xbf399b52	-0.72502625
208	0xbe33f900	-0.17575455
209	0x3f4c1292	0.79715836
210	0x3f3cca55	0.73746234
211	0x3f47c7a1	0.78038985
212	0x3f47b04c	0.7800338
213	0xbd8bf455	-0.06833712
214	0xbf2a8efb	-0.6662442
215	0x3eb3a6fc	0.35088336
216	0xbf38ef21	-0.7223988
217	0xbebe7d6e	-0.3720507
218	0x3f610bdb	0.87908715
219	0xbdb1555d	-0.0865886
220	0xc00e6dca	-2.225451
221	0xbf23c616	-0.6397413
222	0x3f78d3d8	0.9719825
223	0x3ef0d999	0.47041014
224	0xbe69bcc9	-0.22825922
225	0x3f86aa90	1.0520802
226	0xbe3391c9	-0.17536081
227	0x3fba3528	1.4547472
228	0xbe101cc0	-0.14073467
229	0x3d419ced	0.047268797
230	0x3e3835c9	0.17989267
231	0x3d5be25a	0.053682663
232	0xbe93e7c6	-0.28887767
233	0xbeb45765	-0.35222927
234	0xbe08662d	-0.13320227
235	0xbee2666f	-0.44218776
236	0x3e39a3b4	0.18128854
237	0xbd248054	-0.040161446
238	0x3f3a33b9	0.7273517
239	0xbf736bf8	-0.9508662
240	0xbf05b8b1	-0.5223494
241	0xbe3cd290	-0.18439698
242	0xbde2699a	-0.11055298
243	0x3e9987c3	0.2998639
244	0xbcab90d1	-0.020943077
245	0x3e6bfaf7	0.23044954
246	0x3e03e5a7	0.12880574
247	0xbe81a67a	-0.25322324
248	0x3e033538	0.1281327
249	0x3edd495d	0.43220034
250	0x3e020375	0.12696631
251	0x3e4c67f4	0.1996153
252	0xc003b7a1	-2.0580828
253	0x3e8187fa	0.25299054
254	0x3f68b553	0.9090168
255	0xbe7f322e	-0.24921486

fc1.bias f4 [32]
0	0x3f01a047	0.5063519
1	0x3ec7e347	0.39040586
2	0x3db4001b	0.087890826
3	0x3efe7539	0.4969881
4	0x3f5fae3f	0.87375253
5	0x3f3307b7	0.69933647
6	0x3f4f4a40	0.8097267
7	0x3e220fd8	0.15826356
8	0xbdedd41d	-0.11612723
9	0x3f369dce	0.7133454
10	0xbe0ad2e2	-0.13557008
11	0x3f86fdf6	1.0546253
12	0x3f55bb81	0.83489233
13	0x3f4d6d17	0.8024458
14	0x3f924c06	1.142945
15	0x3fa5c33d	1.2950207
16	0x3e312b4b	0.17301671
17	0x3d550b38	0.052012652
18	0xbe134370	-0.14381194
19	0xbe5c3175	-0.21503241
20	0x3f1254b3	0.5716049
21	0xbd9ad89a	-0.07560845
22	0xbe0a3090	-0.13495088
23	0xbe6205d7	-0.2207254
24	0x3f133c3f	0.57513803
25	0xbea2aae6	-0.3177101
26	0x3e6dacc7	0.2321044
27	0x3de3abd2	0.111167565
28	0xbe4256ea	-0.18978468
29	0x3f4212cb	0.75809926
30	0x3f37d556	0.718099
31	0x3eef8599	0.46781614

fc2.weight f4 [3, 32]
0	0xbf141e4a	-0.5785872
1	0xc00e4164	-2.2227411
2	0x3ef081b7	0.46973965
3	0x3fa5a0ef	1.2939738
4	0xbf3b7cd6	-0.7323736
5	0xbfacd33d	-1.3501965
6	0xbf373cbd	-0.71577054
7	0xbf321b80	-0.6957321
8	0xbc0c4667	-0.008561707
9	0xbf3e2a15	-0.7428296
10	0x3d2e55fd	0.042562474
11	0xbf78c014	-0.9716809
12	0xbf5d8f2b	-0.8654658
13	0xbf20f705	-0.6287692
14	0x407f8698	3.99259
15	0x40bf2f64	5.974535
16	0xbca6e913	-0.02037481
17	0x3e354a33	0.17704086
18	0x3f6da0a5	0.9282325
19	0xbebaa6b7	-0.36455318
20	0x4081d5bf	4.057342
21	0x3d0668c9	0.032814775
22	0x3ced3a62	0.028958503
23	0x3d97b0f6	0.074067995
24	0xc058a6c6	-3.385179
25	0xbd7db368	-0.061938673
26	0x40630d7b	3.5476978
27	0x3d9119c0	0.070849895
28	0x3dd6d501	0.10489846
29	0x403080c1	2.7578585
30	0xbf32d554	-0.6985676
31	0xbff5dc76	-1.9207904
32	0xbf213eb8	-0.62986326
33	0xc007c036	-2.1211066
34	0x3ec2e711	0.38066915
35	0x401164e5	2.271783
36	0xbf31b57f	-0.69417566
37	0xbfcc928f	-1.5982226
38	0xbf2d0bb8	-0.67596006
39	0x3f2e5c8c	0.68109965
40	0x3d648d96	0.05579909
41	0xbf18a1bc	-0.5962179
42	0xbe17d485	-0.14827164
43	0xbf77d085	-0.9680255
44	0xbf56317f	-0.83669275
45	0xbf4d11bd	-0.8010519
46	0x408060c3	4.0118117
47	0x406fd05f	3.747093
48	0xbe025658	-0.1272825
49	0x3f8e5b51	1.1121618
50	0xbf9bcbd0	-1.2171574
51	0x3f7a61fd	0.9780577
52	0x401e73c8	2.4758167
53	0x3da99362	0.08280064
54	0x3d7e4191	0.062074248
55	0x3d95af98	0.073088825
56	0xc04ac713	-3.1684005
57	0x3d0a784e	0.033806138
58	0x3fb48cb7	1.4105443
59	0xbf713bcd	-0.94231874
60	0xbcdb39c6	-0.026760947
61	0x408d9d73	4.42547
62	0xbf4b6986	-0.7945789
63	0xbfd29b30	-1.645361
64	0xbf063ce6	-0.52436674
65	0xbf8a4499	-1.0802184
66	0xbf8ecb5b	-1.1155809
67	0x3f7b8991	0.98256785
68	0xbf513609	-0.81723076
69	0xbebbbda2	-0.36668116
70	0xbf2f8e87	-0.68576854
71	0x3eda0c36	0.4258744
72	0x3ba9a78b	0.0051774434
73	0xbf41dc9a	-0.75727236
74	0xbd022588	-0.031774074
75	0xbf6962cc	-0.9116638
76	0xbf421e37	-0.75827354
77	0xbf515557	-0.81770843
78	0x40a9903c	5.2988567
79	0x407eb84b	3.9799984
80	0xbf391cda	-0.7230965
81	0x3f74ef86	0.95677984
82	0x3f8e99e6	1.1140716
83	0x3f45bf7b	0.772453
84	0x3fa7ff65	1.3124815
85	0xbd591c0d	-0.053005267
86	0xbdd9fe3b	-0.10644194
87	0x3c2ebe4d	0.010665488
88	0xc053f1f5	-3.311643
89	0xbe36a0b2	-0.17834738
90	0x3f13d47c	0.577461
91	0xbfb30b34	-1.3987794
92	0xbdbd9d48	-0.09258515
93	0x4086856f	4.2037883
94	0xbf38371c	-0.7195909
95	0xbea7a783	-0.3274499

fc2.bias f4 [3]
0	0xbfb74823	-1.4318889
1	0xbf8e07c5	-1.1096121
2	0xbfa3cb36	-1.279639
