saves/07022021165514_acrobot_dqn.pt (torch, 27479 bytes, 8 tensors)

lstm.weight_ih_l0 f4 [128, 6]
00000000: ab5c 8dbf f55f 0b40 0e18 48c0 b381 bdbf
00000010: a3a6 853d fe33 fdbe 7fdb 823f 4148 41bf
00000020: 3b9a 943f 3c72 43be edf4 febe 06ba dcbd
00000030: c9f4 81bf 8ca7 f5bf 4c29 1640 9d46 0940
00000040: c3cd dfbe baf4 58be f67d b33f ff61 87bc
00000050: 95a5 443f 40a4 70bd 7fbc 913f 504f e33e
00000060: f3f5 ab3f 2ba7 3c3f 2d55 0840 c8e6 1b3f
00000070: bd33 853f 2a65 983f 1bc3 553e a1d9 8b40
00000080: 0575 113f db2f 26c0 719c b9be 5b65 8f3f
00000090: 389f c53f afa7 81bb d490 373f ea9c 423f
000000a0: a2cd 343f 512a 103f f460 4040 d978 cebd
000000b0: df0c 933f d19d b2bf e69c d0bf 7f78 31bf
000000c0: 3c12 92be 4fee 66c0 1272 4ac0 0c30 9c40
000000d0: 7d40 7b3e a334 57bf 1969 5740 dc89 39bf
000000e0: b8db 8c3e 2344 873d ac72 8dbf 7181 28be
000000f0: 8c7e 2f40 64a9 b7bf 6458 0540 e7a0 c0bf
00000100: 721b b3bf c86f 6ebf f406 d63f 8038 a73e
00000110: 64ee 9d3f fd1b f53e 468c 813e b669 efbe
00000120: a1d4 8abe 094b 96bf 4ef5 c73f 8ebf 0540
00000130: 60b6 8ebe 995b 02bf edfe b5be 8f78 47c0
00000140: 950d 4dc0 e16d adbf c2de 99bf 5ff3 92bf
00000150: 84b9 1640 323d b0bf 2e13 fd3f 4e73 a5be
00000160: 8aa2 19bf 8b0e 14bf 69eb 8e3e af5e 3940
00000170: ea99 a43f d384 2e3f 39a0 cebe 6f2d 99be
00000180: 30b8 3c40 d7cb 563f 37d4 c63e ba3b 5dbf
00000190: 6559 93bf 90f2 f4be d9e5 bd3f be2a e43c
000001a0: 0421 f33e 56d9 e43e 1891 1a3e 40d2 5f3e
000001b0: ea83 dcbf a604 5cbf 6543 37bf ea6f 183f
000001c0: 847b 8f3f 989d d8be 41b9 03be 9770 223f
000001d0: 6eb8 94c0 b5f8 75bf 388f 343f 9989 813f
000001e0: 9354 df3f 5640 963f 19cf 0540 da74 c03c
000001f0: b4bc 0cbf 7d62 8abf bc45 48be 405d b63f
00000200: 1ccc a33f 7109 47c0 952c 9b3e 0768 863f
00000210: f88b 0fbe f52e 6e40 e1a6 0ac0 55c4 bfbf
00000220: f27c 823f be66 e03f 074d aa3f 66b3 003e
00000230: 9638 4f3f def6 473e aa35 983f e458 0e3f
00000240: c153 aa3f f335 3ebf 48bb 8f3f 6c23 84ba
00000250: fb4e e23d 49e8 efbc 4602 1440 bf08 12c0
00000260: 184f 0140 954f 3cbe b209 91bf e1a3 79bf
00000270: b04a 803f a28c bdbf de33 0340 21c5 a53e
00000280: 7e14 0b3f 33d2 8c3f f8d0 133f db56 843f
00000290: 1205 693f f17b 533f 4a79 4e3f b2b3 d03e
000002a0: 187c f8be 0c5d db3f b0b0 c93f 76fd 20c0
000002b0: 2c50 24bf cc66 103e c387 af3e 4553 32c0
000002c0: 5424 1b3f 5942 c13f d957 b2be 4f7b 9fbf
000002d0: e962 09c0 1846 78bf 8371 58c0 55b4 ed3e
000002e0: 0a62 80bf ab79 31bf a620 0140 9ff3 80bf
000002f0: b43a a03f e6ba 6c3d 8606 63be e01d f0be
00000300: cf29 283e 9890 2abd 4067 59bd 80df dabc
00000310: 6e42 893d d91f 1d3e cd27 17be 26df cd3d
00000320: 0bcb 32be 235d 113e 90e4 76bc 0b2b 2ebe
00000330: de51 8f3d bc42 e9bd a873 ffbc 8c08 893d
00000340: 4cad 8dbd 70bf 4d3c 48ec 1fbd da0a 05be
00000350: 425e b83d 70ee 273d 8070 063c 681e 823d
00000360: 700e 1d3d a004 fbbb 947b 26bd 5199 1b3e
00000370: fe15 df3d 7298 07be 2207 eb3d 2880 03bd
00000380: 00ae 043d 1da7 2e3e 7008 8a3c 6b19 283e
00000390: 55b1 243e c176 153e 149d 36bd 40e4 e8bd
000003a0: 70a7 3e3c 301f 173d 41cf 1e3e 70e8 aebc
000003b0: b655 d1bd 7a07 9c3d 9430 f0bd fa86 943d
000003c0: 8092 db3a 246e 1b3d 9d54 113e 8699 b23d
000003d0: f167 83bd 420e c93d 40fa 273c 9ec9 b63d
000003e0: d0f5 26be 525d debd 54c0 253d d587 82bd
000003f0: f207 d53d 3fb9 debd dc44 803d 45ef 183e
-1.1043905 2.1777318 -3.1264682 -1.4805206 0.06525924 -0.4945373 1.0223235 -0.75500876
1.1609567 -0.19086546 -0.4979624 -0.10777669 -1.0152828 -1.9191756 2.3462706 2.144935
-0.4371167 -0.21187106 1.4022815 -0.01652622 0.7681516 -0.05875039 1.138565 0.44396448
1.3434433 0.7369258 2.1301987 0.6089902 1.0406414 1.1905873 0.20875208 4.370316
0.5681918 -2.5966709 -0.36252168 1.1202806 1.5439215 -0.003956757 0.71705365 0.7602068
0.7062627 0.5631457 3.0059175 -0.100816436 1.1488303 -1.3954412 -1.6297882 -0.6932449
-0.28529537 -3.6082952 -3.1632123 4.880865 0.24536319 -0.8406469 3.3657897 -0.7247598
0.27511382 0.06604793 -1.105062 -0.16455628 2.7420988 -1.4348569 2.08352 -1.5049103
-1.3992751 -0.93139315 1.6720872 0.32660294 1.2338376 0.47872916 0.25302333 -0.4676034
-0.27115348 -1.1741649 1.5621736 2.0898166 -0.27873516 -0.50921017 -0.35546055 -3.1167333
-3.203954 -1.3549157 -1.2021105 -1.1480521 2.355073 -1.3768675 1.9771478 -0.32314533
-0.6001364 -0.5783469 0.2791398 2.896404 1.2859471 0.68171424 -0.40356615 -0.29917476
2.948742 0.83904785 0.38833782 -0.8641926 -1.1511656 -0.4784131 1.4835769 0.027852412
0.47486126 0.44697064 0.15094411 0.21857548 -1.7227757 -0.8594459 -0.7158721 0.5954577
1.1209569 -0.42307734 -0.12863638 0.6345305 -4.6475134 -0.9608262 0.70531034 1.0120116
1.7447685 1.1738384 2.0907652 0.02349322 -0.5497544 -1.0811306 -0.19557852 1.4247208
1.2796664 -3.1099513 0.3030745 1.0500497 -0.14018238 3.721616 -2.1664355 -1.4981791
1.019438 1.7531354 1.3304757 0.12568435 0.8094572 0.19527766 1.1891377 0.55604386
1.330681 -0.7430107 1.1229029 -0.0010081357 0.110502206 -0.029285567 2.3126388 -2.2817838
2.0204525 -0.18389733 -1.1331084 -0.97515684 1.0022793 -1.4808543 2.0500407 0.3237696
0.54328144 1.1001648 0.57740736 1.0339006 0.9102336 0.82610995 0.8065382 0.40762097
-0.48532176 1.7137771 1.5757046 -2.51547 -0.6418483 0.14101714 0.34283265 -2.7863324
0.6060231 1.5098373 -0.34832647 -1.2459506 -2.146662 -0.96981955 -3.3819282 0.46426645
-1.0029919 -0.69326276 2.0176177 -1.0074347 1.2517915 0.057795428 -0.22170457 -0.46897793
0.16422199 -0.0416418 -0.053076982 -0.026717901 0.067021236 0.1534418 -0.14761277 0.10052328
-0.17460267 0.14195685 -0.015069142 -0.17008607 0.06998037 -0.11389682 -0.031183079 0.06691083
-0.069178194 0.012557849 -0.039043695 -0.12992421 0.09002353 0.040998876 0.008205533 0.06353456
0.038343847 -0.0076604635 -0.040645197 0.15195204 0.108928666 -0.13241747 0.1147597 -0.03210464
0.0323925 0.17055936 0.016849726 0.16415946 0.16083272 0.14596082 -0.044583395 -0.1137166
0.0116366 0.036894977 0.15508749 -0.02135107 -0.10221426 0.076186135 -0.117280155 0.07252307
0.0016752034 0.037946835 0.14192434 0.087206885 -0.064163096 0.098171726 0.010252535 0.08925174
-0.16304708 -0.10857643 0.04046662 -0.06373564 0.10401906 -0.10875177 0.06263134 0.14935024

lstm.weight_hh_l0 f4 [128, 32]
00000000: 364c b53d be23 f73d e147 103e 9816 eebd
00000010: 61ae 333e 50d5 8f3c 00af 153d 4ca1 4f3d
00000020: 60d0 93bc f06e 6a3d 6aaf 8e3d 58ea 80bc
00000030: 903e bfbc 5243 86bd 915c cebd 55ef 89bd
00000040: 1878 a2bc dc6c 8bbd c06c 51bc 7b78 2a3e
00000050: 002e fdb9 2c00 533d a638 fcbd 594e 2a3e
00000060: 6f22 21be 00ff debb 1739 183e 3a3a 78bd
00000070: baeb 9dbd 2c8b 05bd 27aa 013e c3c3 2cbe
00000080: 14e0 1cbe c8a0 86bd 4a2c 6ebd 4038 60bc
00000090: f7ef 2abe a037 af3c febc ed3d 0817 3fbd
000000a0: 5aeb cf3d 7caf 823d 0cdc 33be dcb4 0f3d
000000b0: 20bd f0bb 14ae 8c3d 23d0 333e 6e70 7cbd
000000c0: f336 0a3e baa7 e13d b431 77bd 0004 6c3c
000000d0: f2bd 63bd 3b73 0c3e 548c 823d 1e57 fd3d
000000e0: 6865 92bc 8cca 35bd 5d98 b6bd 09e1 023e
000000f0: aa09 f63d 8730 31be 32e6 a4bd 79e2 1fbe
00000100: 5d2a 1f3e e007 6ebc e74a 333e fc5f 0f3d
00000110: f08a 253d de85 bfbd c6b4 d7bd 5882 0dbe
00000120: d882 3bbd b15d 013e b1ef b6bd 7333 1a3e
00000130: 6a1a 903d 0020 6a38 434e 09be da25 e73d
00000140: c6cd b0bd 32c8 e53d 8bdf e6bd 79f0 1a3e
00000150: 8a13 993d 0174 2a3e d985 0cbe a08b 2fbe
00000160: 8e8b ab3d 66d1 6abd a759 133e 26af eebd
00000170: cefb 8f3d 4da9 023e 6241 fdbd 471d 24be
00000180: aa1c 823d 809d 11be 0e62 d7bd 5ab9 963d
00000190: cd03 23be 0682 19be 13f2 ccbd ce5f b13d
000001a0: 4a6f f3bd 9f34 213e 1627 aa3d 329d 9a3d
000001b0: f098 65bc 4976 dbbd 2e51 943d 68f0 b7bc
000001c0: f6cb e73d 88bd c93c f4e1 00be e088 33bd
000001d0: 723f ff3d a983 003e 1df1 303e 7a15 a73d
000001e0: 00fc dd3b 5c9a c8bd 065c ec3d d5dc 233e
000001f0: 8e7e dabd 5797 1d3e 1fcb b4bd c9d5 003e
00000200: 09c8 97bd 1080 cfbc a063 6b3c a725 8bbd
00000210: 50c7 703d 16f3 ae3d b674 9c3d e037 65bc
00000220: 6f32 e4bd 3a0a 07be f262 ce3d 18cd 27be
00000230: 3269 fc3d 2e08 20be 82b5 0fbe 9277 7cbd
00000240: 5fc7 8bbd bed9 d7bd 96db cf3d b4cd c1bd
00000250: b0de 263d 3894 43bd 7a65 a3bd a9c5 183e
00000260: f228 993d 1882 19bd 16ad 1abe c082 be3b
00000270: 92df 7ebd 70d6 333d 6770 c9bd f44f 77bd
00000280: c568 28be 66bf fcbd a8bf debc f6a7 70bd
00000290: d0bf d8bc 0c2f a4bd c71a 92bd 8f8f 0fbe
000002a0: 57de 253e 3640 e43d f178 243e 58b8 263d
000002b0: 0032 8b3a 74a8 0f3d caef b53d 4a85 f53d
000002c0: 26be bf3d 6e7b ae3d 0e81 f3bd ec68 7cbd
000002d0: 3276 ce3d 3621 b1bd 349e 003d 4e26 31be
000002e0: 1c30 cbbd ec01 0bbe feb3 fb3d c7cd 05be
000002f0: 48c0 553d 30ac 7b3c 5886 afbc 42e5 893d
00000300: 86c7 9b3d d0ce 123d 3b36 2f3e 78ae 26be
00000310: 9649 07be f036 8abd 72d5 d23d a6ef e63d
00000320: ec0e 04be 58ba e3bc f231 ad3d 985b 863d
00000330: 2e23 9c3d 6cab 0d3d 08b8 77bd 558d 2e3e
00000340: ba6e b43d a3cb f8bd c338 33be 2cbf 30bd
00000350: c8e0 963c 94b8 6cbd aba7 cdbd 606b 6e3d
00000360: becc 8d3d 9892 663d 1188 263e 385e 3fbd
00000370: 78da 4abd 8024 41bd 246a 093d a052 833b
00000380: dab2 57bd 87fd 16be 01fb 9dbd c0ab ec3c
00000390: db19 e5bd 379b 283e d482 03bd b851 883c
000003a0: 396c 16be 086e 6d3d 57ed 94bd 697a 123e
000003b0: ae89 03be d8e6 03be 00c4 973b 62cd f33d
000003c0: 9b6a 263e 985c 893c 2077 aebb 4fc9 08be
000003d0: a5fd 233e 7d91 303e c2d1 9d3d 31c8 27be
000003e0: 00fd d7ba 3012 e6bc 42ca a73d f5b2 163e
000003f0: 6815 573d 4f9d 10be 9ef3 a63d bf33 0abe
0.08852427 0.12067364 0.1408992 -0.11625403 0.17546989 0.01755777 0.036543846 0.050690934
-0.018043697 0.057234704 0.06967051 -0.015736744 -0.023345262 -0.06555809 -0.100762494 -0.06735102
-0.019832656 -0.06807873 -0.012782276 0.16647522 -0.00048290193 0.051513836 -0.12315492 0.1663145
-0.15735792 -0.0068053007 0.14865528 -0.060602404 -0.07710977 -0.032603428 0.12662564 -0.16871552
-0.15319854 -0.06573635 -0.058147706 -0.013685286 -0.16693102 0.021388829 0.11608313 -0.046652824
0.101523116 0.06381127 -0.1756441 0.03508459 -0.007346764 0.0686914 0.17559867 -0.06163066
0.13497524 0.110183194 -0.060350135 0.014405251 -0.055601068 0.13715832 0.06374422 0.12370132
-0.01787062 -0.044382617 -0.0891578 0.12781157 0.12013562 -0.17303668 -0.08051719 -0.15613736
0.15543504 -0.014528245 0.17509042 0.035003647 0.040415704 -0.09351705 -0.10532527 -0.13819253
-0.04577908 0.12633397 -0.08932436 0.15058689 0.07036288 5.581975e-05 -0.1340876 0.112865165
-0.08632998 0.11219825 -0.11273106 0.15130796 0.0747443 0.16645814 -0.13722934 -0.17143106
0.08376227 -0.057328604 0.14389668 -0.11654501 0.0703045 0.12759896 -0.123659864 -0.16026793
0.063531235 -0.14220238 -0.10516749 0.07359572 -0.15919419 -0.14991006 -0.100071095 0.086608514
-0.11886461 0.1574273 0.08308236 0.07549514 -0.014013514 -0.107159205 0.07242046 -0.022453502
0.11318199 0.024626508 -0.12586194 -0.043831706 0.12463273 0.12550224 0.17279477 0.08158393
0.0067744255 -0.09795067 0.115409896 0.1600221 -0.1066867 0.15389763 -0.08827805 0.12581553
-0.074112006 -0.02532962 0.014367014 -0.06794291 0.05878383 0.08542459 0.07639448 -0.013990372
-0.11142432 -0.13187495 0.10077466 -0.16386831 0.12324752 -0.1562812 -0.14034083 -0.06163747
-0.068251364 -0.10539578 0.101493046 -0.09463063 0.040739715 -0.047748774 -0.079783395 0.14919151
0.07478513 -0.037477583 -0.1510509 0.0058139265 -0.062224932 0.043905675 -0.09835892 -0.060378984
-0.16446216 -0.12341194 -0.027190998 -0.05875393 -0.02645865 -0.08016786 -0.071340136 -0.14019607
0.16198097 0.1114506 0.1606176 0.040703148 0.001061976 0.03507276 0.08883627 0.119883135
0.0936244 0.08519636 -0.118898496 -0.0616235 0.10081138 -0.086489126 0.031400874 -0.17299768
-0.099212855 -0.13574952 0.1229019 -0.13066779 0.052185327 0.015360877 -0.021426365 0.067331806
0.076064155 0.035841763 0.17110531 -0.16277492 -0.13211665 -0.0674876 0.10294618 0.11276178
-0.12896317 -0.027798817 0.08456792 0.06560439 0.076238975 0.03458731 -0.06047824 0.17046101
0.08810182 -0.121482156 -0.17502122 -0.043151066 0.01841773 -0.057793215 -0.10041746 0.05820787
0.06923817 0.056292146 0.16262843 -0.046720713 -0.049524754 -0.04715395 0.03354849 0.0040076524
-0.0526608 -0.1474515 -0.07713891 0.02889049 -0.11186572 0.1646546 -0.03210719 0.016640529
-0.14689721 0.057966262 -0.072718315 0.14304508 -0.1284549 -0.12881029 0.0046315193 0.11904408
0.16251604 0.016767785 -0.0053242594 -0.13358043 0.16014726 0.17243 0.07706024 -0.1638496
-0.0016478598 -0.028084844 0.081928745 0.14716704 0.05251065 -0.14122508 0.08151935 -0.13496302

lstm.bias_ih_l0 f4 [128]
00000000: 833a cd3d 0801 8f3f b994 0b3f b1cb f83f
00000010: c41d 8e3f 0c55 263f a5cc e63f ebe1 ab3f
00000020: 9a00 c6bd cc77 ed3f ced8 ac3f 16b1 fc3f
00000030: 7ca4 98bd 02f7 91be fc16 0040 4ac0 3b3f
00000040: 504c 553f 26bb 2b40 cc98 94bf d9f6 94bd
00000050: 7b8d 9d3f d443 2e3f ac23 903d ee2c f33f
00000060: d800 df3f 9900 fe3e 7ef0 ee3e cbfe 0140
00000070: b80e 103f 129d ecbe 0566 8c3e d7e9 0040
00000080: 4917 293e 0a70 d13d f66e c03d 90fb a93c
00000090: 10b7 ab3c 2e2d 1cbe b956 1dbe baa8 cd3d
000000a0: 2082 783c 5960 0cbe 43d6 a7bd 1cf0 893d
000000b0: 789b 00bd b81a a53c 5055 033c 8bb1 8ebd
000000c0: 91e1 1fbe a89e 1cbe 282d f03c de3a 2bbe
000000d0: 10b0 223c e2ed f73d c038 d23c c64f fd3d
000000e0: acd9 3ebd 50b4 c73c 8000 b6ba 0608 f8bd
000000f0: bc87 82bd 46c9 c63d 8456 fdbd c433 43bd
00000100: c43e c53f 45dc f93f bc92 1140 dbae f9bf
00000110: 0e1f 1340 aefd 0840 6f57 2840 50e5 05c0
00000120: 991d 8f3f b8fe e0bf 8fbb 2f40 54d2 0fc0
00000130: 711a 2ac0 92ed 983f 458b 3540 129e dabf
00000140: 6f90 01c0 7983 2bc0 a034 38be 59d1 a73f
00000150: dfd7 fa3f 2f73 0140 fc43 203f 375d f8bf
00000160: 2fb3 28c0 45bd 0840 bfb5 2b40 3acc fbbf
00000170: 2b0f acbd 6960 ed3f 430c f0bf f0a3 f73f
00000180: fcff e2be d109 673f a2a4 9abe 6866 c13f
00000190: 1f87 343f 3316 43bf af28 c33f aed1 d13f
000001a0: 59c3 c3bf 011a cf3f 5357 d73f fbc4 ae3f
000001b0: a6db b3be ad9c d0bf 428e 0940 c75b 573f
000001c0: 11ec 623f 13ff 1440 2dbd c0be 5467 2cbf
000001d0: 0ceb c63f e87f 55be d26c 1ebf c622 e73f
000001e0: b28c 0240 6288 df3e d7f9 3c3f 67a4 ea3f
000001f0: c42e 6abf d1f7 35bf 53ae a73e 7124 f93f
0.10020926 1.117219 0.5452381 1.9437162 1.1102834 0.6497352 1.8031203 1.342832
-0.096680835 1.8552184 1.3503664 1.9741542 -0.07453248 -0.28508765 2.0014029 0.73340285
0.8331957 2.6832976 -1.160913 -0.07273645 1.2308801 0.6807225 0.07038054 1.8998086
1.7422132 0.4960983 0.46667856 2.0311763 0.5627246 -0.46213585 0.27421585 2.0142725
0.16512789 0.10226448 0.09396164 0.020749837 0.020961314 -0.1525161 -0.15365113 0.10041948
0.015167743 -0.13708629 -0.08195164 0.0673525 -0.031398267 0.020154342 0.008015946 -0.069674574
-0.1561339 -0.15294898 0.029318407 -0.16721675 0.009929672 0.121059194 0.025661826 0.12368731
-0.046594307 0.024377972 -0.0013885647 -0.12110905 -0.063735455 0.097063586 -0.12370017 -0.04765679
1.540978 1.9520346 2.274581 -1.9506487 2.2987704 2.1404834 2.6303365 -2.0921211
1.1180907 -1.7577734 2.7458227 -2.2472124 -2.6578639 1.1947501 2.8366253 -1.7079489
-2.0244405 -2.6798995 -0.17988825 1.3110763 1.9597129 2.0226552 0.62603736 -1.9403447
-2.6359365 2.136552 2.682968 -1.96717 -0.084013306 1.8545047 -1.8753742 1.9346905
-0.44335926 0.90249354 -0.3020373 1.5109377 0.7051868 -0.7620575 1.5246791 1.6392114
-1.529399 1.6179811 1.6823524 1.3653864 -0.35128516 -1.6297814 2.1493077 0.84124416
0.8864146 2.3280685 -0.3764433 -0.67345166 1.5540481 -0.20849574 -0.61884797 1.8057487
2.0398374 0.4365874 0.73818725 1.8331422 -0.9147761 -0.7108126 0.32750186 1.9464246

lstm.bias_hh_l0 f4 [128]
00000000: a2ca 8a3e 08bd 903f 3310 f13e 9594 0240
00000010: 1fa4 973f 4f3b e03e beb5 f13f 947f 993f
00000020: 425d 80bd 1c7a f03f d5a6 ad3f 8cba 0040
00000030: df71 2ebd 67a0 223c 496a f43f 7c94 403f
00000040: 245c 523f 6e5d 1d40 3728 9cbf ab77 f3bd
00000050: bea0 a03f 3c86 3f3f 31a6 ca3d 18c0 0540
00000060: 09ad fc3f 3d48 eb3e 674e 0d3f ccd5 fa3f
00000070: 40da 993e 61bf 17bf f5f3 0e3d 0388 f33f
00000080: d5c6 32be 3c8a 143d 6482 4b3d 5c27 803d
00000090: be8d 25be 95a9 183e 7e91 cd3d 5ecf 33be
000000a0: 9010 6a3d 0c7f 2ebd 8ea4 03be b6a3 7dbd
000000b0: 4c64 1ebe be7b f0bd 1a3e e13d 1e1a e73d
000000c0: 2ae1 a9bd cf39 31be 9e2d d43d aa0f 9d3d
000000d0: 9aa1 e2bd 9292 fabd e018 b8bd ecc2 793d
000000e0: ab1e 143e 1c2e 0f3d 276e 273e b377 2a3e
000000f0: fc97 15be 29a5 0f3e 08f7 c6bc 842b f9bd
00000100: 8d4f c23f a52e ec3f c39f 1a40 c6da 06c0
00000110: c352 1940 b3aa 0340 67bf 2d40 1d45 0fc0
00000120: cfb2 8b3f 73f1 e4bf 6f3d 3640 dfda fbbf
00000130: 6ab1 29c0 23b3 b13f 6329 3540 dc32 e2bf
00000140: eb55 08c0 a25a 2bc0 52c8 73be 66c1 bc3f
00000150: cb6a ea3f 7015 de3f c485 6c3f d378 07c0
00000160: 0243 26c0 038b 0440 9854 1d40 0d3d fbbf
00000170: 3c69 7abe 10bf c93f 61eb 01c0 7e5c 0b40
00000180: 986a d0be 41de 583f 6bee 98be a095 bd3f
00000190: 38c5 2d3f e80d 35bf 2987 d33f 69d5 c53f
000001a0: 7ee5 e1bf 5770 d23f 4b04 cf3f c3f3 953f
000001b0: 68b1 94be 4911 c7bf a887 0d40 8e9c 4b3f
000001c0: bc6a 953f 190a 1040 b3a9 eabe 10cd 2dbf
000001d0: 96d8 b43f b9fd 63be e6ec 2cbf 0e54 ca3f
000001e0: eb6d f53f 7e92 2e3f 40b7 3a3f 5fc8 e93f
000001f0: 8097 76bf 2721 14bf c9e2 b03e 6748 e53f
0.27107722 1.1307688 0.47082672 2.0403187 1.1846961 0.4379525 1.8883588 1.1992059
-0.062677875 1.8787265 1.3566538 2.011386 -0.042589065 0.009925938 1.9094936 0.7522657
0.82171845 2.4588275 -1.2199773 -0.11888059 1.2549055 0.748142 0.0989498 2.0898495
1.9740306 0.4595355 0.5519776 1.9596496 0.30049324 -0.59276396 0.034900624 1.9025882
-0.17458661 0.036264643 0.049684897 0.06257507 -0.16167352 0.1490844 0.10037516 -0.17559573
0.0571447 -0.04260163 -0.12855741 -0.061923705 -0.15467948 -0.11742352 0.10998173 0.11284278
-0.082949 -0.17307208 0.10360263 0.07669003 -0.11065979 -0.12234987 -0.089891195 0.060976908
0.14464824 0.034956083 0.16350614 0.16647224 -0.14608759 0.14027847 -0.024287716 -0.12166503
1.5180527 1.8451735 2.416001 -2.1071029 2.3956764 2.0572937 2.7148073 -2.2385933
1.0913943 -1.7886184 2.8474996 -1.9676169 -2.6514535 1.3882793 2.830651 -1.7671771
-2.130244 -2.6774068 -0.23806885 1.474652 1.8313841 1.7350292 0.9239161 -2.1167495
-2.5978398 2.0709846 2.4582882 -1.9628006 -0.24454206 1.5761433 -2.0299914 2.1775203
-0.40706325 0.8471413 -0.29869398 1.4811287 0.67879057 -0.70724344 1.6525623 1.5455753
-1.764816 1.6440533 1.6173185 1.1715015 -0.290416 -1.555215 2.2114048 0.7953576
1.1673198 2.2506163 -0.45832595 -0.67891026 1.4128597 -0.22264756 -0.6754898 1.5806901
1.9174169 0.6819228 0.7293587 1.8264273 -0.9632492 -0.57863086 0.34548023 1.791272

fc1.weight f4 [32, 32]
00000000: 9b57 26bf 2e76 17bf e53c 933d 862e 7b3e
00000010: 6142 08bf 1e88 2e3e 2ecf b3be 5f87 f23e
00000020: f60b 4c3f 3514 513f 0f68 96bd 6b2c 083f
00000030: 2857 203f 2d97 7b3f ddda a7be 708f ec3e
00000040: 0d66 3a3f d9f4 333e 3d58 92bf c910 683f
00000050: 4d6f 1abf 78eb 6fbf b098 cd3f d3d2 833c
00000060: 36ba af3e 4ff6 cebe c729 a9be 06d1 48be
00000070: af09 803e 6b09 e8be 2812 85be 8528 3bbf
00000080: 858c 35be 5d5b a1be 1f05 cfbe fc12 af3c
00000090: e7be adbe 0187 89bf bfc3 1f3f 2277 b63f
000000a0: 1f5e e0bf c3f2 1240 4526 4abf 2fe2 5dbf
000000b0: 0a26 a93f b950 b2bf e1c9 043f 2605 bfbe
000000c0: 5595 1940 4780 09bf 6067 f63f 6985 c3bf
000000d0: bbfa 0e3f 1c2e 26bf b0ea f0bf 96e3 573f
000000e0: bfac c33e 2c21 fd3e e106 dbbe 442f 33bf
000000f0: 174e 66c0 984a bfbf 6f13 e3bf bd49 07bf
00000100: 4aa4 2b3f 75c5 933e 6595 033f 5f90 63bf
00000110: eff5 333f 100f 323f 493e 1d3f fdea 4fbf
00000120: b603 3e3f 6d79 2bbf e158 183f 20c4 2bbf
00000130: a7cc 1f3e ec10 a43f 8658 1c3f 1373 10bf
00000140: aa40 1cbf b088 34bf ba2c a3be 069d 903e
00000150: aae1 4e3e f2d6 ad3e 6652 2540 49d0 70bf
00000160: 90a4 21bf 2664 0a3f d592 983e 468f 01bf
00000170: e7ca 413f 65d6 583f 87eb eebe a5f1 4c3f
00000180: 4bbb c33f 4e62 9e3d 352e 2740 b8be 813f
00000190: e694 293f 8590 013f c013 b5bc c1c4 5a3f
000001a0: 5eba d23f 85f7 eb3e 0217 aa3e 14f9 b5be
000001b0: 2b64 2abf a2e2 0e40 b785 ba3a ce8b c43e
000001c0: 27ba ca3f 4ec6 edbe 2d75 08bf 0393 b93f
000001d0: 8428 393e 5370 9a3f 9f9c 973d 0ad8 3b3f
000001e0: 21df 673d f0fc 9d3f e6cf 3d3e 42a4 883e
000001f0: 6ff4 0340 d34b 0d40 1b22 af3f 2468 73bf
00000200: d405 a63c e846 113e 36bd 003e e7f9 28bf
00000210: b1c4 fb3e 33c4 793e 9af3 533e 184d 32bf
00000220: 50c2 423f b6e9 27bf 2401 ea3e 2d1c 1cbf
00000230: e43b 3e3e 21af bf3f 8d1a 823e 0baf 74be
00000240: aca6 14bf 9ce1 f4be 199b 48bd f01d 8f3e
00000250: 89c9 803d 0254 123e e495 2240 8301 39bf
00000260: 2376 c2be 303a ae3e 0288 9e3e bfb2 b4be
00000270: 19dc 473f 9297 043f a830 0abe 4f05 a93e
00000280: 334c f9bd 4355 52bf 9ebd 06bd cc3d 093f
00000290: 33fb 76bf 5726 90bf 4c24 46bf a51c 4b3f
000002a0: 315c 10bf ac54 ab3f ab82 e7bc 5d53 db3e
000002b0: 6d64 92bd 5f18 503f f8d1 e3be 034e 693e
000002c0: 0cdc 333f 6ef0 e03d e164 bb3f e182 dfbe
000002d0: 71da f5be a2e7 aebe 9cb2 2dbf 867d 26be
000002e0: 02ff 22bd 382a a5bf 8f2a 7bbf c6ed 913c
000002f0: ac30 29bf 8f84 1a3f 8b44 58be d3d1 c3bf
00000300: 55fc 123e 37f0 a83e 9e15 8a3e cf63 4cbf
00000310: 7408 b03e 5622 1c3f 7599 be3e 2e42 1abf
00000320: 7990 423f 5e40 37bf f9e8 383f ff6a 4dbf
00000330: 4a9b 2d3d 3ed6 c63f 1810 2e3f 9ee4 09bf
00000340: 7b5c 18bf 5afe eebe 8d6a a5be 3afa 2a3f
00000350: 6b9e 363e 2b17 523e c0ac 2140 9d2d 66bf
00000360: edc5 cdbe bb76 3b3f bfbb f33e 66f8 46be
00000370: 63cd 113f 145b 373f 6aa3 f9be cba5 d23e
00000380: 0512 123d 0e5b 053d 04d5 df3e 509a f4be
00000390: f30c 593e 16f3 fa3e bc1b 233e b5fe 2bbf
000003a0: df6a 413f 20e7 ddbe 71df 1a3f cdef c4be
000003b0: 57f2 e2bd e420 d43f 2de1 f63e 867e 5abe
000003c0: c012 b3be 8945 e7be 79bd a1be b0f1 303f
000003d0: 36cc 42bd 2b9b 76be 8b0b 2a40 88c2 19bf
000003e0: edd0 b2be e903 053f 30a6 f73e 16b2 46be
000003f0: 4bb6 033f 0b61 4c3f 8be5 dfbe 36dc 5d3e
-0.64977425 -0.591647 0.07189349 0.24529466 -0.53226286 0.17044112 -0.35119003 0.47368905
0.7970575 0.8167146 -0.07344066 0.53192776 0.6263299 0.9827755 -0.32784167 0.46203184
0.7281197 0.1757387 -1.1433178 0.9065061 -0.6032608 -0.9371867 1.6062222 0.01609174
0.34321755 -0.40422294 -0.33039686 -0.19610986 0.25007388 -0.45319685 -0.25990415 -0.731087
-0.17729385 -0.31515017 -0.40433595 0.021371357 -0.3393471 -1.0744325 0.6240806 1.4255106
-1.7528723 2.296067 -0.78964645 -0.86673254 1.3214734 -1.3930885 0.5187054 -0.37308615
2.3997395 -0.5371136 1.9250298 -1.5275089 0.55851334 -0.6491411 -1.8821621 0.84331644
0.38217732 0.4943937 -0.42778686 -0.69993997 -3.5985162 -1.4944639 -1.7740306 -0.5284689
0.6704756 0.28861585 0.5139983 -0.8889217 0.7029714 0.69554234 0.61423165 -0.8121794
0.7422441 -0.66982156 0.5951062 -0.6709614 0.15605412 1.2817664 0.61072576 -0.5642559
-0.6103617 -0.7052107 -0.3187006 0.282448 0.20203272 0.33953053 2.5831542 -0.9406782
-0.6314173 0.54059064 0.29799524 -0.5060924 0.7570023 0.8470214 -0.46664068 0.8005622
1.5291532 0.07733594 2.6121953 1.0136328 0.66242826 0.50611144 -0.022104144 0.8545647
1.6463125 0.4608728 0.3322068 -0.35541594 -0.66559094 2.2325826 0.0014230524 0.38387913
1.5838059 -0.46440357 -0.53303796 1.449799 0.18081862 1.2065529 0.0740292 0.73376524
0.056609277 1.2342815 0.18536338 0.2668782 2.061794 2.207753 1.3682283 -0.9508078
0.020266451 0.14187205 0.12572178 -0.6600632 0.491735 0.2439125 0.20698395 -0.69648886
0.7607775 -0.6559099 0.45703995 -0.6098049 0.18577534 1.497532 0.25410882 -0.23894899
-0.5806682 -0.47828376 -0.048976038 0.27952528 0.0628844 0.14289859 2.5403986 -0.7226793
-0.37980756 0.3402877 0.3096314 -0.35292622 0.7807022 0.5179378 -0.13495123 0.33011863
-0.12172737 -0.8216135 -0.032895677 0.5360992 -0.9647705 -1.12617 -0.77399135 0.79340583
-0.5639067 1.3385215 -0.02826055 0.4283704 -0.07148061 0.8128719 -0.4449613 0.22783665
0.7025764 0.10983358 1.4640161 -0.4365454 -0.4801822 -0.34161097 -0.6785066 -0.16258821
-0.039793976 -1.2903509 -0.98111814 0.017813575 -0.6608989 0.6035852 -0.21119897 -1.5298408
0.1435407 0.3299577 0.26969618 -0.79839796 0.3438145 0.6098989 0.37226453 -0.6025723
0.760017 -0.7158259 0.7223049 -0.8024139 0.042384423 1.5534132 0.6799331 -0.5386447
-0.59516114 -0.4667843 -0.32307854 0.66788065 0.17833869 0.2051665 2.5261688 -0.8991335
-0.40190068 0.73228043 0.47604176 -0.19430694 0.5695402 0.7162335 -0.48757488 0.41142115
0.035661716 0.03255754 0.43717206 -0.4777398 0.21196346 0.49013585 0.15928549 -0.6718553
0.755537 -0.43340397 0.60497195 -0.38464203 -0.11081379 1.6572537 0.4821867 -0.21337327
-0.34975243 -0.4517024 -0.3158987 0.69118786 -0.047558032 -0.2408263 2.6569545 -0.60062456
-0.34925023 0.5195909 0.48368979 -0.19403872 0.5145003 0.79835576 -0.43729815 0.21666035

fc1.bias f4 [32]
00000000: 6102 2a3d 40fb 273f d509 363f 813e 013f
00000010: 7443 da3e edcf f7be 3672 3e3f 12b3 0d3f
00000020: 7641 483f cfda 36be 30d9 603f 3084 223f
00000030: d22e 703f 5647 d63f 22c2 f33c 1ac8 283e
00000040: f8c9 313f 57d4 a43e 43c8 053f ac1b 99bb
00000050: caef 543f b703 5f3f 15e9 c3be aa6f 88bc
00000060: d836 22be f7f0 01be d4e4 363f 8357 68be
00000070: 6357 4f3f f86e e53f 8e32 c13e 1a6e a83e
0.041506175 0.6561775 0.7110875 0.50486 0.42629588 -0.48400822 0.7439302 0.55351365
0.78224885 -0.17856906 0.878314 0.6348295 0.9382144 1.674052 0.029755656 0.16482583
0.69448805 0.32193252 0.522587 -0.004672488 0.8317839 0.87115043 -0.38263765 -0.016654808
-0.15841234 -0.12689577 0.71442914 -0.22689633 0.80992717 1.792449 0.37733883 0.328965

fc2.weight f4 [3, 32]
00000000: 8ae5 463e 35b1 933f 539a 3bbf fd06 24c0
00000010: c723 1dbf 6ff9 91bf 8288 2dbf 6f6f 02bf
00000020: 8b80 57bf 10d2 a33e 09f6 3abf 2e4c 30bf
00000030: 9962 50bf 469b 5a40 70c0 45bf 4447 cdbd
00000040: 8fd2 7bc0 370a 01bf 2088 f0be 915b 8d3e
00000050: b09e 39bf 511b 44bf fc3d 4fc0 5f81 863f
00000060: a166 aebf ba77 a4bf ccac afbf 69d3 773e
00000070: 03e7 62bf f361 5a40 5729 efbe 4b21 d6be
00000080: 8cba 79be 553e 47bf 723d 3dbf 5367 03c0
00000090: 4307 ffbe f965 57bf a0bc 18bf e150 e1be
000000a0: ed68 5cbf ab12 473f 579f 58bf 9393 1fbf
000000b0: f084 56bf 29fc 9340 78f9 98bf 5e11 273b
000000c0: 5854 14c0 229c 28c0 314b dbbe 018e 273f
000000d0: 91f0 47bf b4fc 48bf a0ef 1cc0 9ee2 f63e
000000e0: 1661 14bc d2d9 fa3f 4d6c edbf e67e b3be
000000f0: e1b2 5cbf b0ea 7c40 99d5 bcbf 9004 a3be
00000100: 02ca f1be 0127 6940 3335 20bf 3c5b 0ec0
00000110: e82f 0dbf 82ac 7c3f 358e 3ebf 5d59 2bbf
00000120: f5a8 3cbf 7e78 14c0 6ee6 56bf eb59 37bf
00000130: 9288 5cbf f87b 8f3f eb4d 123f 5ed7 ffbd
00000140: 3493 6bc0 5ac7 da3f ed07 08bf 19e9 943e
00000150: 431d 4abf e4a2 46bf 5653 42c0 7b54 b5bf
00000160: b673 c5be b294 51bf 0303 6dbd 0450 b03d
00000170: 16e5 4dbf 48c9 8740 d9ac e1bf cd08 56be
0.194235 1.1538454 -0.73282355 -2.5629265 -0.61382717 -1.1404246 -0.6778642 -0.50951284
-0.84180516 0.31996202 -0.7303167 -0.6886624 -0.8140045 3.4157271 -0.7724676 -0.100233585
-3.9347265 -0.5040621 -0.46978855 0.27608922 -0.7250776 -0.7660418 -3.2381582 1.0508231
-1.362507 -1.2849038 -1.3724608 0.2420174 -0.88633746 3.4122283 -0.46711227 -0.41822276
-0.24387568 -0.77829486 -0.73921883 -2.0531814 -0.49810228 -0.8413997 -0.5966282 -0.44007018
-0.86097604 0.7776286 -0.84618133 -0.62334555 -0.83796597 4.6245313 -1.1951132 0.002549253
-2.317648 -2.6345296 -0.42830804 0.65451056 -0.7810145 -0.78510594 -2.4521255 0.4821977
-0.00905635 1.9597723 -1.8548676 -0.35057753 -0.8621045 3.9518242 -1.4752685 -0.31839418
-0.47224432 3.6430056 -0.62581176 -2.2243185 -0.55151224 0.98700726 -0.7443574 -0.6693323
-0.7369531 -2.3198543 -0.8394536 -0.7162158 -0.8614589 1.1209707 0.57150143 -0.1249225
-3.6808596 1.7092087 -0.53137094 0.2908409 -0.789509 -0.775923 -3.0363364 -1.4166406
-0.38564843 -0.81867516 -0.0578642 0.08609012 -0.8042768 4.2433205 -1.7630874 -0.20901795

fc2.bias f4 [3]
00000000: a496 adbf b4c4 c4bf 21d3 90bf
-1.3561597 -1.5372529 -1.1314431
