saves/07022021211542_acrobot_dqn.pt (torch, 27479 bytes, 8 tensors)

lstm.weight_ih_l0 f4 [128, 6]
0	0xbf9949d6	-1.1975658
1	0x3ff35e3c	1.9013133
2	0xbf9ab1e7	-1.2085541
3	0xbf71bbe1	-0.94427305
4	0x3daebe29	0.08532364
5	0x3d53a9e1	0.05167568
6	0xc00d5891	-2.2085307
7	0x3f954fa1	1.1664926
8	0xc051a954	-3.27596
9	0x3fea202d	1.8291069
10	0x3e65fa5d	0.22458787
11	0x3dc37340	0.095434666
12	0x3fd617fe	1.6726072
13	0xbab47d38	-0.0013770228
14	0x3ec4a025	0.3840343
15	0x3dfb1f21	0.12261797
16	0xbc1fb7a3	-0.009748372
17	0xbe09e792	-0.13467243
18	0x3fde354b	1.7360014
19	0xbcb4c306	-0.02206565
20	0x3f12b7f6	0.5731195
21	0xbbd88633	-0.0066077947
22	0xbd4c8737	-0.04993364
23	0xbc2f72fe	-0.010708569
24	0x3fefd1d6	1.8735912
25	0xbe7cc690	-0.2468512
26	0x3f3fadd6	0.7487463
27	0xbe2663c3	-0.16248994
28	0xbd49ec72	-0.049297757
29	0xbe5eb431	-0.21748425
30	0x40024e6f	2.0360372
31	0xbd8e176a	-0.0693806
32	0x3f235f98	0.6381774
33	0xbdd203f9	-0.10254664
34	0x3e06727f	0.13129614
35	0xbccb0c59	-0.024786161
36	0xbf16bbad	-0.5888012
37	0x3fbd94f6	1.4811084
38	0xbf8bebaa	-1.0931294
39	0xbfe855ed	-1.8151222
40	0x3dd56c74	0.104210764
41	0xbe43d984	-0.19125944
42	0xbfa33529	-1.2750598
43	0xbf5bd437	-0.8587069
44	0xbfa1e53c	-1.2648082
45	0x400ca4e6	2.1975646
46	0xbd619931	-0.055077735
47	0xbe0553ed	-0.13020296
48	0x3fb92e36	1.4467227
49	0x3ee9b164	0.4564315
50	0x3f069a62	0.5257932
51	0x3ea5770e	0.32317394
52	0x3d9b8e67	0.075955205
53	0xbd6b8519	-0.05749998
54	0x3f434f4c	0.7629287
55	0xbe621810	-0.22079492
56	0x3f65b762	0.89732945
57	0x3e594b6b	0.21220176
58	0x3e81ad59	0.25327566
59	0xbe1c17f9	-0.1524352
60	0x3fb6f56a	1.4293644
61	0xbe9b4801	-0.30328372
62	0x3f85fb7d	1.0467373
63	0xbebc593c	-0.3678683
64	0x3e53c8ea	0.20682111
65	0xbe420e2c	-0.18950719
66	0x40005e5e	2.0057597
67	0xbf83e1c7	-1.0303277
68	0x3edfed23	0.43735608
69	0xbf43f8db	-0.765516
70	0x3e1dfd27	0.15428601
71	0x3d4b6059	0.04965243
72	0x3fdb77bd	1.7145916
73	0xbfbd1d6d	-1.4774605
74	0x3f77ddc6	0.96822774
75	0xbf464cd9	-0.7746101
76	0xbd81decd	-0.06341324
77	0xbe155b67	-0.14585648
78	0xbedf190c	-0.43573797
79	0x3fcd69f0	1.6047955
80	0xbf4ab726	-0.7918571
81	0xbffa631e	-1.9561498
82	0xbd877cb5	-0.06615583
83	0xbdaa0073	-0.08300867
84	0xbfdc6197	-1.7217282
85	0x4026bf1c	2.6054144
86	0xbfc7ecff	-1.56192
87	0x3f054fa5	0.5207465
88	0xbd094c71	-0.033520166
89	0x3dbc75a8	0.09202129
90	0x3fda200b	1.7041029
91	0x3e477d05	0.19481285
92	0x3f0e1f1e	0.5551623
93	0x3e66aed2	0.22527626
94	0x3d7f064e	0.062261872
95	0xbe7dd02b	-0.24786441
96	0x3fc03a09	1.5017711
97	0xbfd2bcfe	-1.6463926
98	0x3f9978c2	1.1989977
99	0xbf519fc9	-0.8188444
100	0x3e73d7e7	0.23812829
101	0xbd42093d	-0.04737209
102	0x3fbd9899	1.4812194
103	0x3f0cbea7	0.5497841
104	0x3cda0a92	0.026616368
105	0x3f30bea4	0.69040895
106	0x3d738440	0.059452295
107	0xbe132473	-0.14369373
108	0x3fb57db4	1.4178987
109	0xbfd840c3	-1.6894764
110	0x3f8632dc	1.0484271
111	0xbf7bb769	-0.98326737
112	0x3c83f8fe	0.01610994
113	0xbde2ed2c	-0.11080393
114	0x3ff76990	1.932909
115	0x3d8ba113	0.06817832
116	0x3ed7cd26	0.42148703
117	0x3e554834	0.20828325
118	0x3e63360f	0.2218859
119	0xbe06f3a6	-0.13178882
120	0xbf8f978c	-1.1218123
121	0x3f08cad4	0.5343449
122	0x3d46605f	0.04843175
123	0xbeb4258c	-0.35184896
124	0x3cf79262	0.030221168
125	0xbdf7da3c	-0.12102172
126	0x3f937adf	1.1521872
127	0xbe70bfa8	-0.23510611
128	0x3f2e7c10	0.68158054
129	0x3e1d9815	0.15390046
130	0x3e376d46	0.17912778
131	0xbe7428fd	-0.23843761
132	0xbe79abbc	-0.24381918
133	0xbfa4584c	-1.2839446
134	0xbffe0c4b	-1.9847502
135	0x3fd5d2b7	1.670493
136	0x3e1a94b0	0.15095782
137	0xbd44d59f	-0.048055287
138	0x3fd53596	1.6656978
139	0x3f9b68f0	1.2141399
140	0xbec14c1d	-0.37753382
141	0x3f5f8399	0.8731018
142	0xbd7610fe	-0.0600748
143	0xbdf776b8	-0.12083191
144	0xbfeee0d7	-1.8662366
145	0xc044f78c	-3.077609
146	0xbe85705a	-0.2606228
147	0xbfa94cf2	-1.3226607
148	0xbcc61bfc	-0.024183266
149	0xbe52b559	-0.20576991
150	0xbe0f0513	-0.1396678
151	0x3f5d1386	0.86357915
152	0xc02d2cc1	-2.7058566
153	0xbfbd0d37	-1.4769658
154	0xbbf48371	-0.007461958
155	0xbe2e4f77	-0.17022501
156	0x3fe1e49d	1.7647892
157	0xbfa66bf8	-1.30017
158	0x3f48ca0c	0.784333
159	0xbf5566c6	-0.83359945
160	0xbc970acb	-0.018437764
161	0xbdc2c805	-0.09510807
162	0xc026a7fb	-2.6040027
163	0xbfde2262	-1.7354243
164	0xbe2cfc06	-0.16893014
165	0x3f91d269	1.1392337
166	0x3d480ac2	0.048838384
167	0xbe573f27	-0.21020184
168	0x3fc6bafc	1.5525813
169	0x3dbe5aa8	0.09294635
170	0x3f19d5cc	0.60091853
171	0x3e85c874	0.26129496
172	0x3e7bd77d	0.24593921
173	0xbde250b1	-0.11050547
174	0x3fe33980	1.7751923
175	0x3f2dd5b3	0.67904204
176	0x3ef0465f	0.4692869
177	0x3e918bec	0.28427064
178	0xba849df6	-0.0010117877
179	0x3dbd33a5	0.09238366
180	0x3ff63724	1.9235578
181	0x3ebf62c5	0.37380043
182	0xbdd10334	-0.10205689
183	0x3f1440c7	0.5791134
184	0x3cb9e365	0.022691438
185	0xbdd33157	-0.10312145
186	0x3fc12daf	1.5092067
187	0x3f548cf1	0.8302756
188	0xbe031377	-0.12800394
189	0x3f64d942	0.8939401
190	0x3db3edb2	0.08785571
191	0xbe151dbe	-0.14562127
192	0x3d4fb790	0.05071217
193	0x3e128f3f	0.14312457
194	0x3db02e9e	0.086026415
195	0xbdfe7ee0	-0.12426543
196	0xbe2d5278	-0.1692599
197	0x3d8843e8	0.06653577
198	0xbd60223a	-0.05472014
199	0xbd024050	-0.031799614
200	0x3d119080	0.035538197
201	0x3e0e1ce7	0.13878213
202	0xbd49038c	-0.04907565
203	0xbd866aff	-0.06563377
204	0xbd71e1ea	-0.05905334
205	0x3e14b64f	0.1452267
206	0xbcd62268	-0.026139453
207	0xbdc76182	-0.09735395
208	0x3db22b8a	0.08699711
209	0x3d0ae2b4	0.033907607
210	0x3d4dc560	0.05023706
211	0x3df68ad2	0.120381966
212	0xbde1a415	-0.11017624
213	0xbd070120	-0.032960057
214	0x3e33e167	0.17566453
215	0xbe04c9ea	-0.12967649
216	0x3da1b04e	0.078949556
217	0x3e198c75	0.14994986
218	0x3d3dcf00	0.04633999
219	0x3e0a44db	0.13502829
220	0x3dbe68d2	0.09297337
221	0x3defd23e	0.117100224
222	0xbdff1d2d	-0.12456737
223	0x3dcb8d36	0.09939043
224	0xbc0b2bc0	-0.0084943175
225	0xbe14e100	-0.14538956
226	0xbd9107a8	-0.070815384
227	0xbd3c19f4	-0.04592319
228	0x3e2a5999	0.16635741
229	0xbad7ef00	-0.0016474426
230	0x3dcabace	0.098989114
231	0xbd2f8048	-0.042846948
232	0xbe324d95	-0.17412408
233	0xbdc713d3	-0.09720578
234	0x3d73ed9c	0.059552774
235	0x3c1c34a0	0.009534031
236	0xbe006699	-0.12539138
237	0x3e23ded7	0.16002975
238	0x3e2faa23	0.17154746
239	0xbc81fb78	-0.01586698
240	0xbcced738	-0.025249109
241	0x3dc348a6	0.09535341
242	0x3d1be300	0.03805828
243	0xbe324042	-0.17407325
244	0xbdf65ea8	-0.12029773
245	0xbe1a0ff4	-0.15045148
246	0x3dfba13e	0.12286614
247	0x3d87c1b0	0.0662874
248	0x3e1cd245	0.15314586
249	0x3e34d117	0.17657886
250	0x3dbe18da	0.09282084
251	0xbd981dda	-0.07427569
252	0x3df9eebe	0.122037396
253	0x3d8adb88	0.067801535
254	0x3e2cab59	0.16862239
255	0x3caacd00	0.020849705

lstm.weight_hh_l0 f4 [128, 32]
0	0x3d96403e	0.07336472
1	0xbe16a19d	-0.14710088
2	0xbd037358	-0.032092422
3	0x3d238164	0.03991832
4	0x3de9b802	0.1141205
5	0xbd73734a	-0.05943612
6	0xbbee6040	-0.0072746575
7	0x3e26f039	0.16302575
8	0x3dc45e46	0.09588294
9	0x3e31323d	0.1730432
10	0x3e01b8f1	0.12668206
11	0x3c0a39c0	0.00843662
12	0xbd03e838	-0.032203883
13	0x3defd2d6	0.11710136
14	0xbdd1d9ff	-0.102466576
15	0xbcb44ab8	-0.022008285
16	0x3d1237f0	0.035697877
17	0xbcae1b30	-0.021253198
18	0xbc4c33a0	-0.01246348
19	0x3e2bb6a7	0.16768895
20	0xbdaf6534	-0.08564225
21	0xbd443a70	-0.047907293
22	0xbd0e4828	-0.034736782
23	0x3e0464d7	0.12929092
24	0xbe09e858	-0.13467538
25	0x3d7f4ce8	0.062329203
26	0xbd9f83c5	-0.07788805
27	0x3dca243a	0.09870191
28	0xbd5c1a50	-0.05373603
29	0x3d778ea0	0.060438752
30	0xbdd7b3e1	-0.10532356
31	0xbdb22ba8	-0.08699733
32	0x3de39fee	0.111144885
33	0xbde69a91	-0.1125995
34	0xbd0aedcc	-0.033918187
35	0xbd848fa2	-0.06472708
36	0x3d8ed25c	0.069737166
37	0x3d59abd8	0.0531424
38	0x3d547d60	0.05187738
39	0xbe32f2c0	-0.17475414
40	0xbe1f1783	-0.15536313
41	0xbdefe5b4	-0.11713734
42	0xb98b4200	-0.0002656132
43	0xbd682e1e	-0.056684606
44	0x3d3ea28c	0.046541736
45	0x3dbfc4de	0.09363721
46	0xbe1a110d	-0.15045567
47	0x3dae0c5a	0.084984496
48	0x3defff82	0.11718656
49	0x3bed55c0	0.007242888
50	0x3c809f38	0.015700921
51	0xbe022649	-0.12709917
52	0x3df6b63e	0.12046479
53	0x3e31b6a5	0.1735483
54	0x3dfce072	0.12347497
55	0xbe1bf218	-0.1522907
56	0x3d0c0a5c	0.034189567
57	0xbc8e9c38	-0.017408475
58	0xbd7ad534	-0.061238483
59	0x3e0e9a6d	0.13926096
60	0x3d6d0458	0.05786547
61	0xbdb071fb	-0.0861549
62	0xbd09f830	-0.033683956
63	0x3daefa86	0.08543877
64	0x3e2def01	0.16985704
65	0x3e2b4a2b	0.16727512
66	0xbe19ad3d	-0.15007491
67	0xbde96b76	-0.1139745
68	0xbe0a7b58	-0.13523614
69	0x3de4ff7a	0.11181541
70	0x3d89fe72	0.06737985
71	0x3d14aa90	0.036295474
72	0x3d281cdc	0.041043147
73	0xbe22a35a	-0.15882626
74	0xbe1233f2	-0.14277628
75	0xbdf9fc5e	-0.12206338
76	0xbc088bd0	-0.008334115
77	0xbd344914	-0.044015005
78	0x3d90135c	0.070349425
79	0xbe1597d0	-0.14608693
80	0x3d78e980	0.060769558
81	0x3d1c0aac	0.038096115
82	0xbcd51680	-0.026011705
83	0x3dd2cb56	0.102926895
84	0xbc805628	-0.015666083
85	0x3d6c735c	0.057727203
86	0xbdaad38a	-0.08341129
87	0x3da7c0e2	0.08191086
88	0xbdf66173	-0.12030306
89	0xbca7ce68	-0.020484164
90	0x3d703f28	0.05865398
91	0xbdcae37d	-0.09906671
92	0xbda86b26	-0.08223562
93	0x3e21701b	0.15765421
94	0xbdaa429d	-0.08313487
95	0xbdc02741	-0.09382487
96	0xbe33eb4b	-0.17570226
97	0xbd17f5e0	-0.03709972
98	0x3e2f2c99	0.17106856
99	0x3dcbf68a	0.09959133
100	0xbe2b3b46	-0.1672183
101	0x3d5f94e0	0.054585338
102	0xbe0b11e7	-0.13581048
103	0xbd1bac74	-0.03800626
104	0x3c0a1790	0.008428469
105	0x3dd0bb8e	0.10192023
106	0x3e1967eb	0.14981048
107	0xbd00f2ec	-0.03148167
108	0x3e1fa27b	0.15589325
109	0xbdf1fefc	-0.118162125
110	0xbd5c6f08	-0.053816825
111	0x3d625ba0	0.05526316
112	0xbc05f9a0	-0.008177191
113	0xbdb54809	-0.0885163
114	0xbe0c8bcd	-0.13725205
115	0xbe009c0c	-0.12559527
116	0x3e075e85	0.1321965
117	0x3d90337e	0.07041071
118	0x3d5c3ce4	0.053769007
119	0x3db16be2	0.08663155
120	0x3d5a5058	0.053299278
121	0xbdd039ee	-0.10167299
122	0xbd7c1a8a	-0.061548747
123	0xbd2c9320	-0.042132497
124	0x3d2c2d68	0.04203549
125	0x3e2faf49	0.1715671
126	0xbc9d5400	-0.019205093
127	0xbdaef200	-0.085422516
128	0x3e0b8ad3	0.13627176
129	0x3d2ac634	0.041692927
130	0x3cdf52b8	0.027261123
131	0xbd15e9e4	-0.03660001
132	0xbe1b0646	-0.15139112
133	0xbca35b20	-0.019940913
134	0x3e2a07a1	0.16604473
135	0x3dd910e2	0.10598923
136	0xbe1980c0	-0.1499052
137	0x3ca0dff8	0.019638047
138	0x3c772ad0	0.015085891
139	0x3d96728e	0.07346068
140	0xbe07bcce	-0.13255617
141	0xbcc0b888	-0.023525491
142	0x3e0c5095	0.13702615
143	0x3e2bae61	0.16765739
144	0xbdde5238	-0.10855526
145	0x3c402ad0	0.011728957
146	0x3e26be93	0.16283636
147	0x3e2cc4eb	0.16871993
148	0xbe046efa	-0.12932959
149	0xbd129ee4	-0.03579606
150	0x3db49b5a	0.088186935
151	0x3ce455c8	0.027872935
152	0x3e1440cb	0.14477842
153	0xbe237898	-0.15963972
154	0xbe0e41ca	-0.13892284
155	0xbe2f2504	-0.17103964
156	0xbd7339a2	-0.059381135
157	0x3d90fff4	0.07080069
158	0x3e27650b	0.16347139
159	0xbdafd2a9	-0.08585102
160	0x3dd1e90e	0.1024953
161	0x3d93bd48	0.07213837
162	0xbe053421	-0.13008167
163	0xbde704a7	-0.11280184
164	0x3e08b957	0.13351952
165	0xbdd144ee	-0.102182254
166	0x3d005ec0	0.03134036
167	0xbd463d48	-0.048398286
168	0xbe03c35e	-0.12867495
169	0x3e174d75	0.14775641
170	0x3c606500	0.013695955
171	0x3d8276ea	0.06370337
172	0xbc1f3b60	-0.009718746
173	0xbe2f5700	-0.17123032
174	0xbddd49f2	-0.108051196
175	0xbe1d3e4d	-0.15355797
176	0x3db51f0a	0.08843811
177	0x3e2667ff	0.16250609
178	0xbd3f9510	-0.046773016
179	0xbe164b88	-0.1467725
180	0xbd9298c9	-0.07158048
181	0x3e0ea393	0.13929586
182	0xbe0cf0ee	-0.13763782
183	0x3d5826dc	0.052771434
184	0xbd8cff59	-0.06884641
185	0x3e2e2c3d	0.17009063
186	0xbd9d583d	-0.07682846
187	0xbd44e0d4	-0.048065975
188	0x3e04f1a3	0.12982802
189	0xbdcf86fa	-0.101331666
190	0x3da4bf2e	0.08044277
191	0xbe2b2f9c	-0.1671738
192	0x3bb90420	0.0056462437
193	0xbdc46d01	-0.09591103
194	0xbdae3ca9	-0.08507664
195	0x3dd46692	0.10371126
196	0xbddf426a	-0.10901339
197	0x3e1e4637	0.15456472
198	0x3c6f6710	0.014611974
199	0xbd1f52b0	-0.038897216
200	0x3cf55d80	0.02995181
201	0xbe296ce0	-0.16545439
202	0xbe1dc9e4	-0.15409046
203	0x3c9dbf90	0.019256383
204	0xbdc2cddd	-0.095119216
205	0x3d2a334c	0.041552827
206	0xbd84bd71	-0.064814456
207	0x3ced4a68	0.028966144
208	0xbe09662a	-0.13417879
209	0xbd39989c	-0.045311555
210	0xbe0488e6	-0.12942848
211	0xbe03c3fa	-0.12867728
212	0xbc987c98	-0.018614098
213	0x3b824d60	0.003976509
214	0x3d40304c	0.04692106
215	0x3d2e7684	0.042593494
216	0xbd4b60a4	-0.04965271
217	0x3da9f062	0.082978025
218	0xbe200d50	-0.15630078
219	0x3e1c6e3d	0.15276428
220	0xbd858cf7	-0.065210275
221	0xbda5a28d	-0.08087645
222	0xbda55ed6	-0.08074729
223	0x3e178227	0.14795743
224	0x3d4f22d8	0.05057034
225	0xbd8d6137	-0.06903308
226	0x3c30a210	0.010780826
227	0x3e257665	0.16158445
228	0x3dca13e2	0.098670736
229	0x3c9897f8	0.018627152
230	0x3deac8f6	0.114641115
231	0xbda9207d	-0.0825815
232	0x3bb93680	0.005652249
233	0x3c184d40	0.009295762
234	0xbe0bb8d2	-0.13644722
235	0xbe216df9	-0.15764607
236	0x3d1856e4	0.03719224
237	0x3db9e5f6	0.09077065
238	0xbbd65140	-0.0065404475
239	0xbe02a762	-0.12759164
240	0xbc80e728	-0.015735224
241	0x3d10e5cc	0.0353754
242	0xbe20090a	-0.15628448
243	0xbdc1edc2	-0.09469177
244	0xbd2b1118	-0.04176435
245	0xbe26f86f	-0.16305707
246	0x3d8bd06e	0.06826864
247	0x3e112083	0.14172558
248	0x3d1e830c	0.038699195
249	0xbdd3186a	-0.10307391
250	0xbe088495	-0.13331826
251	0x3e2d15a3	0.16902785
252	0x3daca302	0.08429529
253	0xbd870dee	-0.06594454
254	0xbcf03458	-0.029321834
255	0x3d9ee4ea	0.07758506

lstm.bias_ih_l0 f4 [128]
0	0x3e00c670	0.12575698
1	0xbf07c1ab	-0.5302989
2	0x3ed69b1f	0.41915223
3	0x3f00f0d7	0.5036749
4	0x3e410d90	0.1885283
5	0x3f072007	0.52783245
6	0x3df3f367	0.1191166
7	0xbf826c37	-1.0189275
8	0x3e830f89	0.2559779
9	0x3ec6d159	0.38831595
10	0x3e6bf67f	0.2304325
11	0x3ed7af50	0.4212594
12	0xbd79216a	-0.06082288
13	0x3ef5995d	0.4796857
14	0xbe6f8dd0	-0.23393941
15	0x3e28fb6e	0.16502163
16	0x3dcf6e4d	0.1012846
17	0x3f254d2d	0.64570886
18	0x3e51a3f8	0.20472705
19	0x3f106b76	0.5641397
20	0x3eb88bc7	0.36044142
21	0x3de2c487	0.11072641
22	0x3edb9b4d	0.42891923
23	0x3fd75f7c	1.6826015
24	0xbf54a10a	-0.83058226
25	0xbf95dbae	-1.1707666
26	0x3db770c2	0.08957054
27	0xbf6abbd4	-0.9169285
28	0x3ec892fc	0.3917464
29	0x3ea0fe77	0.3144414
30	0x3f2e0699	0.6797882
31	0x3f626495	0.88434726
32	0xbd99e2cf	-0.075139634
33	0x3c75b660	0.014997095
34	0x3ca1cb00	0.019750118
35	0x3e2fe909	0.1717874
36	0xbbb1b380	-0.0054230094
37	0xbc4ca130	-0.012489602
38	0x3ded57fa	0.11589046
39	0xbe20b948	-0.15695679
40	0xbe138bb3	-0.1440876
41	0xbb83bd40	-0.004020363
42	0xbe2832d6	-0.16425642
43	0x3d288020	0.041137815
44	0x3dba31c6	0.09091525
45	0x3d36ac6c	0.044598028
46	0xbe04b6c2	-0.12960342
47	0x3df4bc4a	0.11949976
48	0xbdbeb28a	-0.093113974
49	0xbdcb7b46	-0.09935622
50	0x3de57736	0.11204378
51	0xbdc0fec7	-0.09423595
52	0x3d93c69e	0.072156176
53	0xbdbd411f	-0.092409365
54	0xbd78fc48	-0.06078747
55	0x3d16d35c	0.03682266
56	0x3e0ab1b9	0.13544358
57	0xbd62ca5a	-0.05536876
58	0xbda905da	-0.08253069
59	0xbd054eb4	-0.03254576
60	0x3df43eea	0.119260624
61	0x3e0b0735	0.13576968
62	0xbdf09232	-0.117466345
63	0x3d9ba21e	0.07599281
64	0x3feda385	1.8565527
65	0x3ff970fe	1.9487607
66	0x4014fbcd	2.3278687
67	0xbfe9f099	-1.827655
68	0xc016beff	-2.3554075
69	0x4022a7b4	2.5414858
70	0xbece2918	-0.40265727
71	0xbf596e07	-0.84933513
72	0x3ff4232d	1.9073235
73	0x3fca8c62	1.5824091
74	0x3fa3bc64	1.2791867
75	0x400bbcd1	2.1833994
76	0xc00c75fa	-2.1947007
77	0xbd2abd0b	-0.04168419
78	0xbfe0ad0a	-1.7552807
79	0x3fedca2c	1.8577323
80	0xc00fcb61	-2.2467883
81	0xc02ba7f1	-2.6821253
82	0x401ea697	2.4789178
83	0xc0110198	-2.2657223
84	0xbe02581f	-0.12728928
85	0xc0124e43	-2.2860267
86	0x3e57d0c7	0.21075736
87	0x3fb8c9b2	1.4436553
88	0x3fc27d6e	1.5194528
89	0xbed829ea	-0.42219478
90	0x400a07e4	2.1567316
91	0x3fb3742f	1.4019831
92	0xbffd3a7e	-1.9783475
93	0x3f6665e3	0.89999217
94	0x402307c3	2.5473487
95	0x40045cfe	2.0681758
96	0xbf3fba26	-0.74893415
97	0xbeb28423	-0.34866437
98	0x3e35303a	0.17694178
99	0x3f03e468	0.51520395
100	0x3ee7e988	0.45295358
101	0x3e51113b	0.20416729
102	0xbea27c8e	-0.31735653
103	0xbf91b7e8	-1.1384249
104	0x3bf78f97	0.007554959
105	0xbdc94450	-0.09827483
106	0x3e95d463	0.292636
107	0x3c7be7f8	0.01537513
108	0x3ebf49f2	0.37361103
109	0xbea4e3a3	-0.32204923
110	0xbec89ba1	-0.39181235
111	0x3e01b8ed	0.126682
112	0x3ee50ddd	0.4473714
113	0x3eb5504d	0.35412827
114	0x3efd542a	0.49478275
115	0x3dde46da	0.108533576
116	0xbe4248b4	-0.18973047
117	0xbdd99c4d	-0.10625515
118	0xbe493451	-0.19648863
119	0x3f3c5f47	0.7358288
120	0xbf0f1670	-0.5589361
121	0xbfa27f03	-1.2695011
122	0x3f2d375a	0.67662585
123	0xbf466fb9	-0.77514225
124	0x3e2296b7	0.15877806
125	0x3e47e147	0.1951953
126	0x3ef0a4bb	0.4700068
127	0x3edbfafc	0.42964923

lstm.bias_hh_l0 f4 [128]
0	0x3dc564c7	0.096383624
1	0xbf049b22	-0.51799214
2	0x3f0253b5	0.50908977
3	0x3f269f97	0.65087265
4	0x3d89e77d	0.06733606
5	0x3ec07a50	0.37593317
6	0x3d97afb2	0.07406558
7	0xbf94bf15	-1.1620814
8	0x3ef8219a	0.48463136
9	0x3e942df5	0.28941312
10	0x3e9fa449	0.31180027
11	0x3e907ba5	0.28219333
12	0xbce5c752	-0.028049145
13	0x3e0d9020	0.1382451
14	0xbed299a7	-0.41132852
15	0x3e9c30ae	0.3050589
16	0xbd5042e5	-0.050845046
17	0x3f2e07b8	0.6798053
18	0xbdccce8c	-0.10000333
19	0x3f046a67	0.5172486
20	0x3ed8156b	0.4220384
21	0x3ea35221	0.31898597
22	0x3ec30d60	0.38096142
23	0x3fba1078	1.4536276
24	0xbf3e7d2c	-0.7440975
25	0xbf847848	-1.0349207
26	0x3d83c092	0.06433214
27	0xbf281b07	-0.6566624
28	0x3eca2f0d	0.39489022
29	0x3e9a2eca	0.30113822
30	0x3f210f57	0.6291403
31	0x3f47e2b0	0.7808027
32	0xbdbf0e36	-0.093288824
33	0xbca056e0	-0.019572675
34	0x3d86e07a	0.06585784
35	0x3e118a05	0.14212807
36	0xbcbf7430	-0.023370832
37	0x3e158e3b	0.14605038
38	0x3c8845c8	0.016634837
39	0xbd3847c0	-0.0449903
40	0x3d97cd2a	0.07412179
41	0x3d69f678	0.057119817
42	0xbc023300	-0.00794673
43	0x3d3736fc	0.04473017
44	0x3e062093	0.13098364
45	0x3da1d362	0.07901646
46	0xbd08764c	-0.03331594
47	0xbd9e6c63	-0.07735517
48	0x3e2369d9	0.15958346
49	0x3e28336d	0.16425867
50	0x3dff6a86	0.124714896
51	0x3e118447	0.14210616
52	0xbe126f7a	-0.14300337
53	0xbd632026	-0.05545058
54	0xbda7605a	-0.081726745
55	0x3dc70da6	0.097194
56	0xbca1d308	-0.019753948
57	0xbc7bf960	-0.01537928
58	0xbc2dff60	-0.010619968
59	0x3d5c1fa4	0.053741112
60	0x3d9e4822	0.07728602
61	0xbd12477c	-0.035712704
62	0x3dc15816	0.09440629
63	0xbe23e583	-0.1600552
64	0x4004c22c	2.0743513
65	0x4008daea	2.1383615
66	0x40086bdf	2.131584
67	0xbfd37f06	-1.652314
68	0xc0108a26	-2.258432
69	0x4028d97e	2.6382747
70	0xbf246f66	-0.6423248
71	0xbf364f27	-0.71214527
72	0x4004fee2	2.0780568
73	0x3fb8ee78	1.4447775
74	0x3fa3ab6f	1.2786692
75	0x40059969	2.0874884
76	0xc014b370	-2.323452
77	0x3c0f5563	0.008748385
78	0xbff1cb12	-1.8890097
79	0x3ff096d9	1.8796035
80	0xc01c7c2f	-2.4450796
81	0xc030e5b2	-2.7640195
82	0x4013c761	2.3090441
83	0xc01a44fc	-2.4104605
84	0x3d9af5a0	0.075663805
85	0xc006523c	-2.0987692
86	0x3db6d882	0.08928014
87	0x3fab2b1f	1.3372535
88	0x3fbba0a4	1.4658399
89	0xbf236018	-0.638185
90	0x40196c4a	2.3972344
91	0x3fd55d03	1.666901
92	0xbff28210	-1.8945942
93	0x3f4105e1	0.75399595
94	0x40234691	2.551182
95	0x401089a9	2.258402
96	0xbf2e0be7	-0.6798691
97	0xbf17adaf	-0.59249395
98	0x3e19daf5	0.15024932
99	0x3ef993c8	0.4874556
100	0x3e689348	0.22712433
101	0x3e3960e0	0.18103361
102	0xbf106207	-0.5639958
103	0xbfa7d3ab	-1.3111471
104	0x3e6c1081	0.2305317
105	0xbd9fad39	-0.077967115
106	0x3e1b31ca	0.15155712
107	0x3e646834	0.22305375
108	0x3e780ca6	0.24223575
109	0xbed93165	-0.42420498
110	0xbe3b106f	-0.18267988
111	0x3e68a175	0.22717841
112	0x3ec9752a	0.39347202
113	0x3ea928ff	0.3303909
114	0x3ebb77d9	0.36614874
115	0x3d2133c9	0.039356027
116	0x3ddb0aef	0.10695445
117	0xbd9b0ee7	-0.07571202
118	0xbda82792	-0.082106724
119	0x3f0d36fa	0.5516201
120	0xbed4040b	-0.41409335
121	0xbf876c5e	-1.0579946
122	0x3f3b9d6b	0.73287076
123	0xbf6b7373	-0.91973037
124	0x3e6c77c6	0.23092565
125	0x3e5afc30	0.21385264
126	0x3e64ff27	0.22362958
127	0x3f28541a	0.6575333

fc1.weight f4 [32, 32]
0	0x3fbc5348	1.4712915
1	0x3fbdd11d	1.4829441
2	0x3e0bba5b	0.13645308
3	0xbebb94a4	-0.3663684
4	0xbe7cc857	-0.24685799
5	0x3e6e139c	0.23249668
6	0xbe46b8bc	-0.19406408
7	0xbee2588c	-0.4420818
8	0x3ed61158	0.41810107
9	0xbd228b32	-0.03968353
10	0x3e5735d7	0.21016632
11	0x3f1ed85e	0.620489
12	0xbeafe701	-0.3435593
13	0xbefc3d4e	-0.49265522
14	0xbeb520f4	-0.35376704
15	0x3e81c761	0.25347427
16	0xbf062adf	-0.52409166
17	0xbea76a2b	-0.32698187
18	0x3e410fb9	0.18853654
19	0xbf060747	-0.52354854
20	0xbeb1f47a	-0.34756833
21	0xbe957e1d	-0.2919778
22	0xbf7b39d9	-0.98135144
23	0x3f6ea570	0.9322119
24	0x3fdaa84a	1.7082608
25	0xbe837377	-0.2567403
26	0x3e97914e	0.29603046
27	0x3f97faed	1.1873451
28	0xbe92f1cc	-0.287001
29	0x3eaf16aa	0.3419698
30	0x3ed9bdaf	0.4252753
31	0x3f0328e7	0.5123429
32	0x40080221	2.12513
33	0x3f995351	1.1978551
34	0x3f3a8cbf	0.7287101
35	0xbf05c75e	-0.52257335
36	0xbf245047	-0.64184994
37	0x3f1eb5e1	0.61996275
38	0xbf3dc0b9	-0.74122196
39	0xbf488b61	-0.78337675
40	0x3f297664	0.66196275
41	0x3ef84efa	0.48497754
42	0x3f052176	0.5200418
43	0x3f6e4a06	0.930817
44	0xbf2598e4	-0.6468642
45	0xbed6a81c	-0.41925132
46	0xbe93da97	-0.28877708
47	0x3edba2d9	0.4289768
48	0xbf40e983	-0.7535631
49	0xbf2bb3f5	-0.6707147
50	0x3efa2a98	0.4886062
51	0xbef5ba5a	-0.47993737
52	0x3e450267	0.19239198
53	0xbed0cd01	-0.40781406
54	0xbf5b2af1	-0.856124
55	0x3f896b62	1.0735896
56	0x3fba37e1	1.4548303
57	0xbea240f3	-0.31690177
58	0x3f19f76b	0.60143155
59	0x3fbc4760	1.4709282
60	0xbe9f9d27	-0.31174585
61	0x3e857107	0.26062796
62	0x3f2cca08	0.67495775
63	0x3f87f2db	1.0620989
64	0x3d81b286	0.06332879
65	0x3dae8547	0.085215144
66	0xbb8ef248	-0.0043623783
67	0xbc890037	-0.016723735
68	0x3dd86b5d	0.10567353
69	0x3d9c35d8	0.076274574
70	0x3dcc7a3f	0.09984254
71	0x3e883753	0.2660471
72	0x3ce8d321	0.028420987
73	0xbe16f4ca	-0.14741817
74	0xbe1cde81	-0.15319254
75	0xbe22aa60	-0.15885305
76	0x3e09376a	0.13400045
77	0xbe09b89a	-0.13449326
78	0xbd8c9a04	-0.06865314
79	0x3cebfd1c	0.028807215
80	0xbd72264e	-0.05911856
81	0x3e28952e	0.16463158
82	0xbd360c1a	-0.044445135
83	0xbd37ca4e	-0.044870667
84	0x3d6916e6	0.056906603
85	0xbd2ec433	-0.04266758
86	0xbe425e46	-0.18981275
87	0x3b09af8e	0.002100918
88	0xbd608842	-0.054817446
89	0xbd7b0abf	-0.061289545
90	0xbe0eae98	-0.1393379
91	0xbccefa69	-0.02526589
92	0xbdac80d5	-0.0842301
93	0xbe150673	-0.14553241
94	0xbc75a533	-0.014993
95	0x3e34cf1c	0.17657131
96	0xbed3c424	-0.4136058
97	0x3f119e78	0.5688243
98	0xbf9205dc	-1.1408038
99	0xbe224ee0	-0.15850401
100	0xbe028b08	-0.12748349
101	0xbff34387	-1.9004983
102	0x3f8d4097	1.1035336
103	0xbf08e94b	-0.53480977
104	0xbeb60e4b	-0.3555778
105	0xbf362dd3	-0.7116367
106	0xbf81fc4c	-1.015512
107	0x3c5646f9	0.013078445
108	0x3fb97a7f	1.4490508
109	0x3f68f0dc	0.9099252
110	0xbf44c4d0	-0.7686281
111	0xbf355e30	-0.70846844
112	0x3ff2e329	1.8975574
113	0x3cda6e0c	0.026663803
114	0xbf92c9c4	-1.1467824
115	0x3f66e99b	0.90200204
116	0xbf01362d	-0.5047329
117	0x3f735ea0	0.9506626
118	0xbe8aa871	-0.27081636
119	0xbe8326c0	-0.256155
120	0x3f9f7df6	1.2460315
121	0xbfb4e881	-1.4133455
122	0xbf50b84b	-0.8153121
123	0x3f2a7d72	0.66597664
124	0x3f027945	0.5096629
125	0xbf3c2cae	-0.73505676
126	0xbf2b17b4	-0.66833043
127	0xbe45f07f	-0.19330023
128	0xbf2e8554	-0.6817219
129	0x401a99e1	2.415642
130	0xbf97f84c	-1.1872649
131	0x3c645723	0.013936791
132	0x3e2d9231	0.16950299
133	0xbfb088a3	-1.3791698
134	0x3ed50383	0.41604242
135	0xbffb6d38	-1.9642706
136	0xbf14896a	-0.5802218
137	0xbfc43b2b	-1.5330557
138	0xbf996a9e	-1.1985662
139	0xbe02af9f	-0.12762307
140	0x3f9d1d2b	1.2274526
141	0x3f90429e	1.127033
142	0xbfbd6f48	-1.4799585
143	0xbf3804d7	-0.71882385
144	0x3fdb5b17	1.7137173
145	0x3e7e3b41	0.24827291
146	0xbf960fed	-1.172361
147	0x3f5c232b	0.8599116
148	0xbf5b68e1	-0.8570691
149	0x3f8c00bc	1.0937724
150	0xbc477960	-0.012174934
151	0xbee52788	-0.44756722
152	0x3f95bc86	1.1698158
153	0xbf9a665c	-1.2062488
154	0xbf395107	-0.7238926
155	0xbd55d355	-0.052203495
156	0x3f53548c	0.82550883
157	0xbf94992e	-1.1609247
158	0xbf7506b1	-0.95713335
159	0xbf1bb74e	-0.60826576
160	0x3fb21844	1.3913655
161	0x4002d1df	2.0440595
162	0xbeb66c0c	-0.35629308
163	0x3e8326d0	0.2561555
164	0xbe5cc3ae	-0.21559021
165	0xbee0d939	-0.43915728
166	0xbec4d0fd	-0.38440695
167	0xc01fd265	-2.4972165
168	0x3f0e6a54	0.55630994
169	0xbf9c40fb	-1.220733
170	0xbef4b4f3	-0.47794303
171	0x3f00b993	0.50283164
172	0x3da27f02	0.07934381
173	0xbfb7f63b	-1.4372019
174	0xc05282b1	-3.2892268
175	0x3e983df6	0.29734772
176	0x3f958e73	1.1684097
177	0xbf20f8da	-0.6287972
178	0xbf24dda3	-0.6440069
179	0x3f11116f	0.56667227
180	0xbf4ffba3	-0.8124334
181	0xbda9a865	-0.08284072
182	0xbf9d53cd	-1.2291199
183	0xbe58188f	-0.21103118
184	0x40473e44	3.1131754
185	0xbff955a9	-1.9479266
186	0xbe64b537	-0.22334753
187	0x3f95557f	1.1666716
188	0x3e0b8af6	0.13627228
189	0xbf7c74a6	-0.9861549
190	0xbee2bc9b	-0.4428452
191	0x3f1d68bf	0.61487955
192	0x3ff20a88	1.8909464
193	0x3fb58582	1.4181368
194	0x3f228e5f	0.6349849
195	0xbf19cc06	-0.6007694
196	0xbf349cbb	-0.7055165
197	0x3f26a881	0.65100867
198	0xbf20fc77	-0.6288523
199	0xbed7f95a	-0.42182428
200	0x3f0a61da	0.5405556
201	0x3ecdabd6	0.40170163
202	0x3e9c74fa	0.30557996
203	0x3f504538	0.8135562
204	0xbf242e74	-0.6413338
205	0xbf3f97ff	-0.748413
206	0xbe6843c0	-0.22682095
207	0x3f0e7a87	0.5565571
208	0xbf4d803a	-0.80273783
209	0xbf54909c	-0.83033156
210	0x3f195531	0.59895617
211	0xbf490f24	-0.7853873
212	0x3dbdce18	0.09267825
213	0xbf04b0ba	-0.51832163
214	0xbf399208	-0.7248845
215	0x3faefa1c	1.3670077
216	0x3fd35962	1.6511652
217	0xbe42d425	-0.19026239
218	0x3f3a550f	0.7278604
219	0x3f9190c0	1.1372299
220	0xbecc3edb	-0.39891705
221	0x3f1d5f5f	0.6147365
222	0x3f13649c	0.5757539
223	0x3f5138c0	0.8172722
224	0x3fe94252	1.8223364
225	0x3fa4858d	1.2853256
226	0x3ed19bd6	0.40939206
227	0xbf0dd803	-0.5540773
228	0xbf07faa5	-0.5311683
229	0x3f068a6d	0.5255497
230	0xbeb88678	-0.36040092
231	0xbece63dc	-0.40310562
232	0x3e93a2eb	0.28835234
233	0x3d6eea51	0.05832893
234	0x3ed99fab	0.4250463
235	0x3ed6e7a1	0.41973594
236	0xbe6e2ff7	-0.23260485
237	0xbf2cdcfc	-0.67524695
238	0xbddc7e26	-0.107662484
239	0x3ecac8ac	0.39606225
240	0xbecceb76	-0.40023392
241	0xbf101189	-0.56276757
242	0x3e8c7db7	0.27439663
243	0xbedc3a16	-0.43013066
244	0xbe975efc	-0.29564655
245	0xbe12ef53	-0.14349107
246	0xbf1194a7	-0.5686745
247	0x3f8b241a	1.0870392
248	0x3fce0b41	1.6097184
249	0xbe5b487b	-0.21414368
250	0x3f15e824	0.58557343
251	0x3f803f5c	1.0019336
252	0xbe16d881	-0.14731027
253	0x3ea2c1d1	0.31788495
254	0x3eee60f2	0.46558338
255	0x3ee5ea96	0.44905537

fc1.bias f4 [32]
0	0x3f0eb0e2	0.5573865
1	0x3f4f2278	0.8091197
2	0xbe640f7c	-0.22271532
3	0xbc4f3e8a	-0.012649188
4	0x3eebc79c	0.46050727
5	0x3f27394e	0.65321815
6	0x3f498fda	0.78735125
7	0x3f271f41	0.65282065
8	0x3d7aab58	0.061198562
9	0x3ec78d0c	0.38974798
10	0x3f248d62	0.64278233
11	0xbdbdf697	-0.09275549
12	0xbdd879ca	-0.105701044
13	0x3f0bc14e	0.54591835
14	0xbea10f7f	-0.31457135
15	0xbe8dd867	-0.27704164
16	0x3f4f17ce	0.808957
17	0x3eba6dd9	0.36411932
18	0x3e062253	0.13099031
19	0x3f040d3f	0.5158271
20	0xbf755014	-0.95825315
21	0xbe49be8e	-0.19701597
22	0x3ecd4a63	0.40095815
23	0x3f0dae25	0.5534385
24	0x3f4880a4	0.7832129
25	0xbe2a5b96	-0.166365
26	0xbe0c4381	-0.13697626
27	0x3dc5e932	0.09663619
28	0xbe25672f	-0.16152643
29	0x3e7f7761	0.24947883
30	0x3ea9bb95	0.33150926
31	0x3f116d59	0.56807476

fc2.weight f4 [3, 32]
0	0xbf108d7d	-0.56465894
1	0xbf480173	-0.7812721
2	0x3dc3b289	0.09555537
3	0xbef2c256	-0.47413892
4	0xbececd51	-0.4039102
5	0xbf4d2158	-0.80129004
6	0xbf4285ea	-0.75985587
7	0xbf141a26	-0.578524
8	0xbf841d59	-1.0321456
9	0xbee408cd	-0.44537964
10	0xbf4d78ca	-0.80262434
11	0x3f2dbec1	0.6786919
12	0xbd9ea889	-0.07746989
13	0xbf33b678	-0.702003
14	0xc0234612	-2.5511518
15	0xbf1be6e6	-0.608992
16	0xbf4204b1	-0.7578841
17	0xbef70d06	-0.48252124
18	0x3f497e27	0.7870812
19	0xbf190dd4	-0.59786725
20	0xbf98c7a2	-1.1935923
21	0xbdacea54	-0.08443132
22	0xbddcf6cf	-0.107892625
23	0xbef1be79	-0.47215632
24	0xbf440984	-0.7657702
25	0x3e036b13	0.12833814
26	0xbd2b5752	-0.041831322
27	0xbf4773f0	-0.7791128
28	0x3d9ced9a	0.076625064
29	0xbe82e306	-0.2556383
30	0xbea38472	-0.31936985
31	0xbf0141d9	-0.504911
32	0xbf09cff6	-0.5383295
33	0xbf3dd4ba	-0.7415272
34	0xbc690b7b	-0.014223929
35	0xbf0c3d27	-0.5478081
36	0xbf052c2c	-0.52020526
37	0xbfc31b64	-1.5242734
38	0xbf4000c5	-0.75001174
39	0xbf188304	-0.59574914
40	0xbf6671b7	-0.90017265
41	0xbeece03a	-0.4626482
42	0xbf46290d	-0.7740639
43	0xbd8fc47d	-0.07019899
44	0xbda781c0	-0.08179045
45	0xbf1c4891	-0.6104823
46	0xc020c4fd	-2.5120232
47	0xbec8a872	-0.39191014
48	0xbf4e3c57	-0.8056082
49	0xbed7cc14	-0.42147887
50	0xbf136680	-0.5757828
51	0xbf164fc1	-0.58715445
52	0xbef78bb2	-0.48348767
53	0xbca5d418	-0.020242736
54	0xbe2812eb	-0.16413467
55	0xbf09f87a	-0.5389477
56	0xbf46ecc8	-0.7770505
57	0xbd1dd82e	-0.038536243
58	0xbe1c602f	-0.15271066
59	0xbf28a185	-0.6587146
60	0x3e074745	0.13210781
61	0xbebcdc07	-0.36886618
62	0xbe9a5049	-0.30139378
63	0xbf23ce30	-0.6398649
64	0xbefdd398	-0.49575496
65	0xbf437988	-0.76357317
66	0x3cdcff0c	0.026977085
67	0x3ea5b3e6	0.32363814
68	0x3f1a355b	0.60237664
69	0xbf2016e9	-0.6253496
70	0xbf45e79c	-0.7730653
71	0xbf1899d0	-0.596097
72	0xbf8f2ef2	-1.1186202
73	0xbedf534a	-0.43618232
74	0xbf24b13a	-0.64332926
75	0xbf2e53ee	-0.68096817
76	0x39e6b53d	0.00044004052
77	0xbf1cd081	-0.6125565
78	0xbff26b6b	-1.8939031
79	0x3eb0d63b	0.34538445
80	0xbf477393	-0.7791073
81	0xbf01a51b	-0.50642556
82	0xbf109721	-0.56480604
83	0xbf2e07a4	-0.6798041
84	0xbf0a15f0	-0.53939724
85	0x3e2508d1	0.16116644
86	0xbdbbb3b1	-0.09165133
87	0xbef6d591	-0.48209813
88	0xbf527ddb	-0.8222329
89	0xbd668f82	-0.056289203
90	0x3d8125f8	0.0630607
91	0x3ead1f69	0.33813027
92	0x3d924ace	0.07143174
93	0xbeb518e4	-0.35370553
94	0xbe995f40	-0.29955482
95	0xbf24aa79	-0.6432262

fc2.bias f4 [3]
0	0xbfbc9144	-1.4731832
1	0xbf9a84f9	-1.207183
2	0xbf9a93f6	-1.2076404
