saves/07022021162010_acrobot_dqn.pt (torch, 27479 bytes, 8 tensors)

lstm.weight_ih_l0 f4 [128, 6]
00000000: 7332 1f40 b41a dfbc 64d1 2d40 21b8 c13f
00000010: 0dec 4a3f 518e dabe 1346 9c3f 014c 2740
00000020: 8bea bc3f ee74 32c0 8329 48bf 21bb 8f3f
00000030: cb88 113f 8db0 9e3f 4745 19bf 3304 88bf
00000040: 9fe3 9a3e f894 693f 66aa 1240 e80e 07c0
00000050: a8e5 043e c8c3 5fbf 80ce b8bf d400 a3bd
00000060: 50cb 42bf 5101 c13f 843e 61bf 0d21 9dbf
00000070: afbc 46bf 04a6 1e3e 613a 703f 81c7 86bf
00000080: 956d f6bd 8619 f6bf 4f72 f43d afd6 76be
00000090: e2d2 ef3d e975 fdbe 703c edbf 8590 283f
000000a0: ab17 d03d 9037 0cbf 7319 afbe b4fe 9cbf
000000b0: af7a f9bc b78d 9f3f 43d7 6bbe 8ab5 8fbe
000000c0: a799 f4bf cc99 39c0 c753 943e dee1 8740
000000d0: e2d5 333d 3633 8fbf 1b6a 043f a7b6 203f
000000e0: a80c 78bf 7a03 a73f 0e62 90bf e2cd 023e
000000f0: a803 ae3e bbeb 3dc0 ab57 c9bf fc83 903f
00000100: 80bc a93f 575f c53d acc0 a5bd 337c f53f
00000110: 66f9 fa3f d7ea 6b3e 9e3a 6cbf 642c a2be
00000120: 51b1 1cc0 6ed0 1040 a0ce 243f 3e0e 9dbf
00000130: d119 613d 5864 753f 80bd 653d 64f6 dfbf
00000140: 0f88 5340 09ea db3d 9d2d 0f3f 7905 32bf
00000150: f8eb a9bd 76f1 b8bf 5b4e 7e3e 4736 c13f
00000160: b592 bb3e da18 50bd c19c 3e3c 57fe 11c0
00000170: 3893 bb3f 1306 bb3f 2e4e a7bd f007 b2bf
00000180: 4498 a13f 8fb7 803e 128b ee3e 8409 463f
00000190: 263b 07be 62f4 22bf a170 cc3f df49 623f
000001a0: 4380 0c40 72a0 10be 8ca1 bd3e ce3d 33bf
000001b0: e85c 25c0 5127 32c0 23d5 92bf 2789 be3f
000001c0: 791f c03d 2294 82bf 093d 243f 4639 51c0
000001d0: 2965 e23d 1880 8cbe 4a4d 273f ad2a 07bf
000001e0: 12c1 9cbf 90fd c23f eb55 8bbf 30d0 31c0
000001f0: a975 12bf 5883 243f 88a7 0abf aa1b 45bf
00000200: a8b3 013f 1a8e 1040 821a 0d3f 234b 71bf
00000210: 1e93 74bf b911 df3f e2f2 6e3f b4ca 42c0
00000220: 93d3 f73e ad25 bd3e ad4d b33f 761b 20c0
00000230: d8c1 86bc b465 bbbf e4b3 0c3f 79c8 003f
00000240: 0b9a d53f 8121 d4bf dd66 89be 0444 7d40
00000250: 0e17 e7bd fc55 23bf a292 b0bf c376 5fbf
00000260: f6df df3d e21f 58bf d663 163f 6252 0bbf
00000270: 083e e43e 675a 97be 3269 c53f b123 9dbf
00000280: c2d9 253f 5a11 16bf 93a5 5a3f f2f6 fa3e
00000290: 0e04 8c3f b894 83bf 1ce8 f03e a417 a53f
000002a0: 2893 fabe 0223 63c0 032a 863f 72d6 87bf
000002b0: d0d2 193f 1954 813e 5069 d1bd 721e cb3f
000002c0: 545e 373f 290a 55bf 9ff6 4c3e f37b 473f
000002d0: ad81 81bc e4d8 fb3f 4700 c53c 9797 d4bf
000002e0: 4dd4 683f 3d58 933f a3d1 3640 0426 97bf
000002f0: 22d6 2f3f 0f14 413e 7f8c 713e 9a62 06be
00000300: e062 0a3c 0a1d f23d 4028 5f3b 6856 90bd
00000310: 2422 e5bd 3204 d83d be60 963d e8b9 acbd
00000320: 8012 ce3a a285 bbbd bc7d 29be c028 f43b
00000330: 7ae7 d83d 0cc0 0fbd 947a a1bd 8c96 073d
00000340: 0072 9fbc dea7 58bd feb7 843d 3100 8ebd
00000350: 630f c4bd 919a d1bd faad 8c3d 0fcc c7bd
00000360: b569 193e 5e91 f83d 203f 6dbd 4e49 e93d
00000370: a0a6 a4bd 1551 07be 45e2 1f3e 7eb0 bc3d
00000380: 093b aebd 16c0 de3d 1989 163e 2e39 e63d
00000390: 1023 283c 3ae9 86bd 180f 73bd e6ef fb3d
000003a0: 00a1 1fbb 1dae 323e 0040 9237 f830 6a3d
000003b0: 7f91 2fbe 70c6 14be 703e 443d 8024 2ebc
000003c0: 1ad0 54bd d22c 98bd 9993 0f3e d353 d9bd
000003d0: 40ea 783d 6c71 1fbd adb9 0cbe 14ba 9cbd
000003e0: 41c5 debd 505b ba3c 22ef db3d fe55 0cbe
000003f0: 1b09 02be c019 cbbc 40bc e93c d404 f6bd
2.4874542 -0.027234413 2.7159052 1.5134317 0.79266435 -0.42686704 1.2208885 2.614014
1.4759077 -2.7883868 -0.7818834 1.1228982 0.56849355 1.2397629 -0.59871334 -1.0626281
0.30251786 0.91242933 2.2916503 -2.1102848 0.12978232 -0.87408113 -1.4438019 -0.07959142
-0.7609148 1.5078527 -0.87986016 -1.2275711 -0.7763166 0.15493017 0.9383908 -1.0529634
-0.1203262 -1.9226539 0.11935865 -0.24105333 0.117101446 -0.4950402 -1.8534069 0.6584552
0.10160764 -0.5477228 -0.34199104 -1.2265229 -0.030454008 1.2465123 -0.23031335 -0.2806819
-1.9109391 -2.900012 0.28970167 4.2463217 0.043905146 -1.1187503 0.51724404 0.62778705
-0.9689431 1.3047936 -1.1279924 0.1277385 0.33987164 -2.9675128 -1.5729879 1.1290278
1.3260651 0.09637325 -0.0809339 1.9178528 1.960736 0.23038803 -0.9227694 -0.31674492
-2.4483225 2.2627215 0.64377785 -1.2269971 0.05495626 0.9585624 0.056088924 -1.7497067
3.3051794 0.10737998 0.55928975 -0.695396 -0.082969606 -1.4448688 0.24834578 1.5094689
0.36635366 -0.05080495 0.011634053 -2.2811487 1.4654303 1.4611229 -0.081692085 -1.3908672
1.2624593 0.25140044 0.46590477 0.7735827 -0.13206157 -0.6365415 1.5971872 0.8839397
2.1953285 -0.14123705 0.37037313 -0.7001618 -2.5837955 -2.7836497 -1.1471294 1.4885606
0.09381003 -1.0201457 0.6415563 -3.2691207 0.11054451 -0.27441478 0.6535231 -0.52799493
-1.224642 1.5233631 -1.0885595 -2.7783318 -0.57210785 0.64262915 -0.5416188 -0.76995337
0.5066476 2.2586732 0.5511857 -0.94255275 -0.95536983 1.7427284 0.9333936 -3.043622
0.48403606 0.36942807 1.400808 -2.501676 -0.016449854 -1.4640412 0.5496199 0.50305897
1.6687635 -1.6572725 -0.2683629 3.9572763 -0.11283694 -0.63803077 -1.3794749 -0.8729059
0.10931389 -0.8442365 0.5874609 -0.5442258 0.44578576 -0.2956116 1.5422728 -1.2276517
0.647854 -0.58620226 0.85408896 0.4901653 1.0938737 -1.027976 0.47052085 1.289784
-0.48940396 -3.5490117 1.0481571 -1.0612319 0.600873 0.25259474 -0.10225165 1.5868666
0.7162831 -0.8321863 0.20015953 0.77923506 -0.015808905 1.9675565 0.024047984 -1.6608762
0.90948945 1.1511303 2.8565452 -1.1808476 0.68686116 0.18855308 0.23588751 -0.13123551
0.008446425 0.11821945 0.003405109 -0.07047731 -0.111881524 0.10547675 0.07342671 -0.08433896
0.0015722066 -0.09156348 -0.1655187 0.007451147 0.10591026 -0.03509526 -0.07884708 0.033102557
-0.01946354 -0.052894466 0.06480406 -0.0693363 -0.09573247 -0.10234559 0.06869121 -0.09755718
0.1498173 0.121371016 -0.05792153 0.11390935 -0.08039594 -0.13214524 0.15613659 0.09213351
-0.08507354 0.10876481 0.14700736 0.11241375 0.010262266 -0.06587453 -0.059340566 0.12301616
-0.0024357438 0.17449231 1.7434359e-05 0.057175606 -0.17145346 -0.14528823 0.047911108 -0.010628819
-0.051956274 -0.07430424 0.14021148 -0.10611691 0.060770273 -0.038926527 -0.13742705 -0.07652679
-0.10877467 0.02274862 0.1073897 -0.13704678 -0.12698786 -0.024792552 0.028532147 -0.1201264

lstm.weight_hh_l0 f4 [128, 32]
00000000: b477 4d3d 7119 eabd a201 5bbd 72e4 c13d
00000010: 2205 0dbe 2285 83bd 988a 313d 5be3 c8bd
00000020: 36a6 26be a523 083e 088e 873c b48e e3bd
00000030: ea0a 8dbd beea d8bd b804 3b3d f6be af3d
00000040: d624 e23d c1cf 083e c898 843c 603a 393d
00000050: 4831 dd3c c075 ffbc 8fa3 23be f461 c4bd
00000060: 7cb1 083d e88b 98bc 3fea 92bd e617 9d3d
00000070: f3ba 13be 7f00 043e b091 8abc fff4 88bd
00000080: 9249 cc3d 1069 03bc 2643 9f3d b05e fabd
00000090: d39f 90bd f122 2a3e 41a5 2cbe a87d ea3c
000000a0: f89c 893d 4ae8 b2bd 5b5d b6bd da2f f43d
000000b0: f075 c7bd 4e3f c2bd 9860 c9bc 9ce2 1ebe
000000c0: 9ede a03d 15b6 06be 44e7 18be 9731 113e
000000d0: e897 8fbd e4a5 7c3d b078 d63c c03c 673d
000000e0: 3013 27bd 747c a8bd 5934 0b3e b5e4 c5bd
000000f0: a55f 0c3e d80c d9bc 3a83 be3d 0917 1ebe
00000100: 8056 71bc a8cb c83c ec2b 4bbd 0f72 093e
00000110: a964 343e 915c 083e 8d04 113e 6195 03be
00000120: d031 053d f8a5 9ebc 524d d73d 79d4 2a3e
00000130: c64a 13be 9ce6 44bd 007e 5ebc c67f 9d3d
00000140: 40e6 243b f0f9 0dbc 40f1 95bb 3dff babd
00000150: 21b2 263e 0a8b df3d 59ad 033e a827 fcbd
00000160: e095 893c 9c7e 5cbd fe88 e53d a0ac 42bc
00000170: 8856 753d 4c19 25bd a8d5 253d e455 17bd
00000180: da50 e03d 4cd3 0bbd 5dae e4bd d826 febc
00000190: 5164 23be b26c b7bd 9440 2bbd bcae 09bd
000001a0: b4c7 683d d280 d93d 6971 87bd 0778 1abe
000001b0: b2a2 fa3d d58a 303e 3003 38bc 60cc a4bd
000001c0: 6cdd 083d b909 2a3e 8371 cabd 9471 8d3d
000001d0: fe3c b4bd 7073 073d 7c0f 853d f4ed 433d
000001e0: ded9 18be aa4d ea3d fe05 ea3d b340 8dbd
000001f0: 58e7 ee3c 00a8 c13c a843 f23c 000e 773b
00000200: a1e8 16be b576 1abe 4031 a2bb 04a3 743d
00000210: 2f46 16be 0085 943c 2733 103e ada9 243e
00000220: aafa cc3d fe90 cd3d 5d88 2d3e 624b 08be
00000230: bb76 14be f9e7 133e 847b 903d 2638 b53d
00000240: 62fd 34be c1d6 293e d822 babd c319 083e
00000250: 90f4 5f3c 4ed9 a13d b253 2abe 83f8 19be
00000260: 2376 043e 8d28 173e 0a22 66bd 5a92 fcbd
00000270: e427 5abd 908f fdbc c047 183b 0cfb 7f3d
00000280: 8d24 97bd f06b c3bc 50a8 aa3c 98da 27bd
00000290: 4899 a5bd 997a 193e 007a 753a 484b 4e3d
000002a0: 5330 d9bd 27af afbd 2295 ffbd ebbe 143e
000002b0: 06a6 d23d e7c1 0c3e 5d9d 243e 000e a339
000002c0: 27af 173e 1afc d1bd 106e 8c3c 7b1d 02be
000002d0: bdee d6bd 3ed3 92bd c986 093e cf20 1c3e
000002e0: 3306 97bd 40ae a93b ac7f 1c3d e013 4bbc
000002f0: 6941 15be 598c ecbd f465 433d f00a 643d
00000300: a5bb 163e e0c5 b93b a593 29be f5fc 033e
00000310: 903f 5a3d c271 d33d e6ab e4bd 12dd cb3d
00000320: c041 79bb ab59 0f3e 1ec0 b13d 2cb1 28bd
00000330: 2269 e93d 50ac d7bc fe84 d53d 52a1 2abe
00000340: 00e0 d039 8871 a5bd 990d 023e eca9 e4bd
00000350: 1076 293c 117e 053e 7b68 dabd 1cf0 523d
00000360: 0eae f23d 66f1 c13d d256 fb3d 538b 93bd
00000370: ff08 173e f448 1ebd 6689 03be a011 78bc
00000380: e0f2 4d3c f784 03be a7da 95bd aaf3 993d
00000390: 3f57 2ebe 86c0 28be d1a2 31be 30b4 4a3c
000003a0: 4ec8 02be 7a5c a53d dcb3 0e3d 9c82 483d
000003b0: 1097 f03c 4467 27bd 8ec0 c43d d9d9 1cbe
000003c0: 4e31 f83d cc4a d3bd b414 683d 7e2f b0bd
000003d0: 7b40 21be d44b 4dbd 5b1d 2d3e c93b e3bd
000003e0: 5ee0 af3d 20a0 2f3c a0d6 2b3c e026 04bc
000003f0: 2a61 f43d f8a5 fb3c c6df 9abd e0a7 30bc
0.050162986 -0.11430634 -0.053468354 0.094674006 -0.1377149 -0.064218774 0.043345064 -0.098089896
-0.16274342 0.13294847 0.016547218 -0.11111203 -0.06886847 -0.105916485 0.045658797 0.08581345
0.11042182 0.13360502 0.016186133 0.045221686 0.027001038 -0.031184077 -0.15980361 -0.095889956
0.033372387 -0.0186214 -0.07173585 0.07670574 -0.14426784 0.12890814 -0.016915172 -0.06687354
0.0997497 -0.008020654 0.077764794 -0.122250915 -0.07061734 0.16614892 -0.16859914 0.02862437
0.067193925 -0.08735712 -0.08904525 0.119231895 -0.09739292 -0.09484731 -0.024582192 -0.15516132
0.07854961 -0.13155396 -0.14931971 0.14179073 -0.07011396 0.061681643 0.026180595 0.05645442
-0.040789783 -0.082268625 0.13594188 -0.09662763 0.1370836 -0.026495382 0.09302373 -0.15438475
-0.014730096 0.024511173 -0.049602434 0.13422416 0.17616524 0.13316561 0.14161892 -0.12849952
0.032518208 -0.01936625 0.105127946 0.16682614 -0.14383993 -0.04807149 -0.013579845 0.076903865
0.0025161654 -0.008665547 -0.0045758784 -0.09130714 0.16278888 0.109151915 0.12859096 -0.12312251
0.016795099 -0.05383168 0.1120777 -0.011881977 0.059896976 -0.040307328 0.04048696 -0.036947146
0.10952921 -0.034137055 -0.1116607 -0.031024382 -0.15956236 -0.08956279 -0.041809633 -0.033613905
0.056831077 0.10620274 -0.06613428 -0.1508485 0.12238063 0.1724046 -0.011231229 -0.08046794
0.03341429 0.16605271 -0.09884932 0.06906429 -0.08800696 0.033069074 0.06497094 0.04783435
-0.1492686 0.114405945 0.11426924 -0.06897106 0.029163048 0.023639679 0.029573277 0.0037697554
-0.14737178 -0.15084346 -0.0049497187 0.059725776 -0.1467521 0.018129826 0.14082013 0.16080351
0.10008748 0.10037421 0.1694655 -0.13310006 -0.14498417 0.1444396 0.07054809 0.088486
-0.17674783 0.16585828 -0.09088677 0.13291077 0.013669148 0.07902776 -0.1663349 -0.15036206
0.1293569 0.14761563 -0.056184806 -0.12332602 -0.0532607 -0.030952245 0.0023236126 0.062495276
-0.073800184 -0.02385518 0.02083221 -0.04097995 -0.08085877 0.14988174 0.0009364188 0.050364763
-0.1060492 -0.085783295 -0.12479617 0.14525954 0.10285573 0.13745843 0.16075654 0.00031100214
0.14812909 -0.10253163 0.017142326 -0.12706558 -0.104947545 -0.071691975 0.13430323 0.1524689
-0.07374229 0.005178243 0.038207695 -0.012394875 -0.14575733 -0.11550207 0.047704652 0.055674493
0.14720018 0.0056693405 -0.16560228 0.12889464 0.053283274 0.10324432 -0.111655995 0.09954275
-0.0038033575 0.1399905 0.086792216 -0.04118459 0.113970056 -0.026327282 0.10425757 -0.16663101
0.00039839745 -0.08078295 0.127005 -0.111652225 0.01034309 0.13036372 -0.10664459 0.051498517
0.118496045 0.09469871 0.12272419 -0.07204308 0.14749525 -0.038643792 -0.12845382 -0.015140921
0.012570113 -0.12843691 -0.07317095 0.07517178 -0.17025469 -0.16479692 -0.17347266 0.012372062
-0.12771723 0.08074279 0.034839496 0.048952684 0.029368907 -0.040869966 0.096070394 -0.15317477
0.12118779 -0.10317001 0.05666037 -0.086028084 -0.15747254 -0.050121143 0.1690573 -0.110953875
0.085877165 0.010719329 0.010488182 -0.008065909 0.11932595 0.030718789 -0.07562213 -0.010782212

lstm.bias_ih_l0 f4 [128]
00000000: dcb9 5b3f b4de d73e 6739 fcbe 7ab3 953f
00000010: 2fd2 bebe 4475 a33e 1512 8ebe 2d3a 703f
00000020: 5794 bcbe 3131 8cbe 3e8b 8abf 09c2 183f
00000030: 9713 c13e e460 ce3f 01b7 8e3e cb94 793f
00000040: 863f 913e e0f0 8a3f f1fb 1cbf e82d 01bd
00000050: e4ac 72bf 15cd dabe 0e7e 073f 7a24 a0be
00000060: 9597 d03e 48f7 a63f 2f98 35be 6ac5 34bd
00000070: a391 933f 72b8 17bf 81bd 8b3e 480f bd3e
00000080: 8581 2a3e 7748 a9bd c82b debc f0d8 243c
00000090: f951 063e 58e9 21bd b85e f8bc 3233 bd3d
000000a0: 5278 ff3d 8e4f 853d 6f90 2bbe 2c2a 1cbe
000000b0: 5548 0b3e cc67 72bd 0ad9 26be 91bc 13be
000000c0: 667c 8d3d fe4c babd 86d1 04be 1952 253e
000000d0: c065 26bd 002b 71ba bc72 1abd 522e ce3d
000000e0: 0f24 083e d0a6 bbbc 008c a2bb c0c4 f6bb
000000f0: 550c 2a3e 80e4 dfbb c002 adbd 0049 72bc
00000100: 1ccf 843f 1287 7c3f 228a 3c3f 8298 663f
00000110: bace 91bf 9457 63bf c1fe d1bd 286e 15bf
00000120: 65a7 c73e 6015 5ebf 6e8a 58bc 7b2b 9c3d
00000130: ccff 48bf 7af3 9ebe 46a6 823f cbfe 113f
00000140: b340 0fbf 1e0f 6cbf 940a 22be 6fa6 c0be
00000150: 8f43 0e3e 854c efbe 712e b43f ac21 2fbf
00000160: 3c37 c43e 747b b73f 40e6 60bf 2449 203f
00000170: da69 963e ca93 183f 3950 8c3f 91a0 55bf
00000180: 3ffd 5cbe 45b7 383f 3896 74be cc84 963f
00000190: f7b0 903f 3fb2 a03e 1fe7 293f 4f6b 8f3f
000001a0: 884b f7bd b370 c83f 6d20 5c3f 01f7 60be
000001b0: 9263 823f ed60 593e 914f 813f 5f5f 303f
000001c0: 6843 953f 3e70 563e 9e48 dfbe 77ce 803f
000001d0: 156e 273e b17e acbe f39f 89be c659 8a3e
000001e0: b8f2 e8be e858 3f3e 66a3 023e 7932 f03e
000001f0: acdf f8bf ba23 babe 23ee 3f3f 654a 5c3f
0.85830474 0.42162097 -0.49262545 1.1695397 -0.37269732 0.31925404 -0.2774817 0.9383877
-0.36831924 -0.2738128 -1.0823743 0.59671074 0.37710258 1.6123319 0.27873996 0.97492665
0.28368777 1.0854759 -0.6132193 -0.03153792 -0.9479506 -0.4273459 0.5292672 -0.3127783
0.40740648 1.3044214 -0.17733835 -0.04413358 1.152882 -0.59265816 0.27293018 0.3692572
0.1665097 -0.08265775 -0.027120486 0.010061488 0.13117208 -0.039529175 -0.030318603 0.0923828
0.12474121 0.065093145 -0.16754316 -0.15250462 0.13601811 -0.05918102 -0.16293731 -0.14427401
0.06908493 -0.09096716 -0.12970552 0.16144599 -0.04062438 -0.0009199828 -0.037707075 0.10067429
0.13295005 -0.02290669 -0.004960537 -0.0075307786 0.16606267 -0.0068326592 -0.0844779 -0.014787912
1.0375705 0.986436 0.73648274 0.9007646 -1.1391213 -0.8880551 -0.102536686 -0.5837121
0.389949 -0.86751366 -0.013216598 0.07625481 -0.78515315 -0.31045133 1.0206993 0.5702941
-0.559581 -0.92210567 -0.15824348 -0.3762698 0.13892959 -0.46738067 1.4076673 -0.68410754
0.3832339 1.433455 -0.87851334 0.62611604 0.29377633 0.5960051 1.0961982 -0.8344813
-0.2158098 0.7215465 -0.23885429 1.1759276 1.1304005 0.3138599 0.6636829 1.1204623
-0.12074953 1.5659393 0.8598698 -0.21969225 1.0186636 0.2122838 1.0102407 0.68895525
1.1661196 0.20941254 -0.4361009 1.0063008 0.16350587 -0.33690408 -0.26879844 0.27021617
-0.4549768 0.18686259 0.12757644 0.46913508 -1.9443259 -0.36355382 0.7497274 0.8605102

lstm.bias_hh_l0 f4 [128]
00000000: 5bf5 593f 4b72 a83e 6822 23bf 61ee 873f
00000010: e868 9abe 1358 f13e 84fb 8dbe 0aa5 863f
00000020: 8eb6 28bf d2e8 a8be 2b89 5dbf 4483 f93e
00000030: b32b 413e 3bf3 aa3f 3866 e3bc 389c 7f3f
00000040: 85c8 de3c ee4a 943f 037b 02bf 8337 673d
00000050: dcec 84bf e809 bdbe 918c 453f 7f10 e1be
00000060: c967 183f da3e ae3f 6d90 0abe d53a 0cbd
00000070: 4cb4 733f 23fb 20bf cf25 a53e bd6e 8f3d
00000080: ab3a 28be 33de 053e c5d5 323e 08e5 be3c
00000090: 9eba e6bd 206c 293d 0b51 0e3e 422b a13d
000000a0: d463 0bbd 5070 d13c 709e 56bc e347 92bd
000000b0: cfb3 c7bd c9d4 29be 348a 2fbe 02e0 19be
000000c0: d017 38bc 6aa1 fe3d 10db d93c b8cc 6d3d
000000d0: 43b6 8cbd 8e14 ae3d 22a7 d63d bf7e ffbd
000000e0: 6774 babd e0f8 debc 1f3a 1a3e 1aaf f33d
000000f0: 1bf7 1cbe 707e 7d3d 2783 2d3e cc89 4ebd
00000100: ca89 623f cac8 823f 97d1 323f 2be9 7e3f
00000110: 4e90 84bf c3d5 84bf 9fa8 6ebe b8ef 19bf
00000120: 2805 083f a4aa 57bf 06fd 963d 2b07 853d
00000130: 2319 10bf 1e53 13bf abd9 9a3f b98d 3a3f
00000140: a478 32bf 1545 62bf 021c 24be 59c6 fabe
00000150: cf3e 8e3e 7738 c2be 613f b83f 7a48 5bbf
00000160: 4cc9 303f 0864 af3f 7ae8 6cbf 61cc 453f
00000170: a5c9 a93e 818a 503f 3f48 913f 1217 72bf
00000180: 0c89 dbbd 3dec 453f 761f 3abe e73d 813f
00000190: aec4 8f3f eee2 6d3e 204f 073f 4a77 5b3f
000001a0: 87c1 fbbc 4ae6 e83f 1efa 603f 572c a0be
000001b0: bc0f 4b3f 8a3d 2abd 9d01 9d3f 24b1 fe3e
000001c0: d30c bb3f 56aa 8abd 4be9 ccbe 511d 8d3f
000001d0: c0d2 d63e 80f2 80be bbb6 33bd 7423 023e
000001e0: 4b09 89be 40f1 213e 7d14 6b3e d89c 123f
000001f0: 31d5 e8bf 9a92 cabe d4d1 863f bc47 553f
0.8514001 0.328997 -0.63724375 1.0619622 -0.30158162 0.47137508 -0.27730954 1.0519116
-0.65903556 -0.32990128 -0.86537427 0.4873296 0.18864326 1.3355478 -0.027758703 0.99847746
0.027195225 1.1585367 -0.5096895 0.056449424 -1.0384784 -0.3692162 0.7716761 -0.43957898
0.59533364 1.3612931 -0.13531657 -0.034235794 0.95196986 -0.62883204 0.32255408 0.070035435
-0.1642863 0.13073044 0.17464359 0.02330257 -0.11266063 0.04136288 0.13898103 0.07869579
-0.03403075 0.02556625 -0.013099298 -0.071426176 -0.09751093 -0.16585077 -0.17142564 -0.15026858
-0.011236146 0.12433131 0.026593715 0.058056563 -0.06870701 0.08500014 0.10481097 -0.12475347
-0.09104233 -0.027218282 0.15061234 0.11898632 -0.15328638 0.06188816 0.16944562 -0.050424382
0.884915 1.0217526 0.6985106 0.99574536 -1.0356538 -1.0377735 -0.23306511 -0.60131407
0.5313287 -0.8424475 0.07372479 0.06495508 -0.56288356 -0.575487 1.2097677 0.728725
-0.69715333 -0.8838666 -0.16026309 -0.48979452 0.27782294 -0.37933704 1.4394342 -0.85657465
0.69057155 1.3702402 -0.9254223 0.7726498 0.33161655 0.8146134 1.1350173 -0.9456645
-0.10719499 0.77313596 -0.18176064 1.0097016 1.1231897 0.23231098 0.5285511 0.85728896
-0.03073193 1.8195279 0.8788165 -0.3128383 0.79320884 -0.041562594 1.2266117 0.49744523
1.4613289 -0.0677077 -0.40021738 1.1024572 0.41957664 -0.25185013 -0.043875437 0.12708837
-0.26764902 0.15814686 0.22957034 0.57270575 -1.8190061 -0.39564973 1.0532784 0.8331258

fc1.weight f4 [32, 32]
00000000: 82d3 833d b666 2ebe dc72 013e 0ce9 75be
00000010: 2bd7 7e3f 180e 5dbf c8ae 1f40 71ae bf3d
00000020: 9ba5 9d3d 8f78 b0be c0ed d4be 9fb4 3fbd
00000030: eb1d 353f 3c0d 01bf d915 91bf 4227 283f
00000040: 4092 29bf 8cf6 46be 826a 94be 1cb6 d43e
00000050: ad84 e8be 77c2 a13e 13a4 723f c63e b6bf
00000060: 2354 473d 6615 1f3f 7fdc afbf 4ba2 0840
00000070: 6111 9b3f 851c 8d3f 2fda cb3e 4f71 823f
00000080: 505d 9bbe 51cf 6bbf 08d9 04c0 7e50 7dbf
00000090: 109a 6b3e 4f05 e83f fe7d 1d40 981a 883e
000000a0: 821b f73f 4ffc b03e 9749 a43f b2b9 c83f
000000b0: 95d7 4abf ac11 cd3e e892 2f3f be8d 8c3f
000000c0: 5604 1fbf 60b4 f03e b9f3 f6be be19 82bf
000000d0: 72af 2ebf 747c b1be 7cef 96bf 7a83 efbe
000000e0: c927 7bbe 6315 123f 5f41 893f 49de 953f
000000f0: 4429 2f40 45f3 193f dee3 6f3e 54e4 0340
00000100: 95d8 03bf 2664 ebbf 6c62 87bf 87d9 943f
00000110: 7c04 ac3e f226 913f deb8 433f 7e24 c33e
00000120: d34e 1740 76bf 133f a00c 993e c4f4 0cbf
00000130: 7be2 903e 4dac 383f 9532 78be a22d 24bf
00000140: 2541 e13e eda4 3d40 5be9 cebf 15dc 753e
00000150: e5bf 133e a1c2 433f d2b6 2c3e eea4 813e
00000160: 3c88 1440 db37 023f b010 953f 2d1c 273e
00000170: fe84 953f ac7a f9be b749 0d3f 2387 b83f
00000180: 68fd 1b3e 3dce 4b3f 880f c83f 8e48 343f
00000190: 1eac c4bd e669 7b3f bf20 3b40 95f7 a23f
000001a0: 46a8 3840 dbaf b33f 8c66 473e bc45 3fbf
000001b0: ac32 603e 7865 293e 4483 6cbf 20d8 a6bf
000001c0: f536 0cbf 3830 fe3f 05bd c3bf af4f d5bf
000001d0: 988d b13e 9325 4c3f 167c 27bf d3f4 c43e
000001e0: 6af0 24be 3ba9 833f 15ac 923e ba32 133e
000001f0: bf54 1d3f e172 893f 34bc 22bf 6478 6f3f
00000200: 4133 b33e d1cd 2f3d 54db 2b3f 43f3 543f
00000210: 9313 0a40 0f75 ce3e 75d4 bbbf 39ba 16bf
00000220: 895d f6bf 539b 33bd 1de5 8c3f 7084 b7be
00000230: 8449 023f 4867 f93a dc1d 64bf c36a b8bd
00000240: 9301 54be cdea 42bf dc5b 7cbf 7b0b bdbc
00000250: 2f21 9d3f 7699 8ebe 2094 ef3e 1c17 38bf
00000260: fecb 83be 5ab6 753f d9fa 94bc e05f 5a3f
00000270: 9229 03c0 c8a0 7c3f 0187 743f f92a 19be
00000280: c7e0 fd3e 4844 fa3a 62bc 563f 6b6f 1f3f
00000290: 03fb 1d3f d22b f1be fe3d 53bf ea1e 25bf
000002a0: d2e5 7cc0 6d41 b5bf 23d9 333f b504 743e
000002b0: 4b98 29bf 5e40 02bf 7bca 35bf 7b71 c03e
000002c0: da61 16be 3012 bbbf 779e 903f 3eaa 6fbe
000002d0: 86f8 49be 9d24 4cbe 0e25 ff3e e769 eebe
000002e0: 2a67 553f 5994 0c3f 1af0 abbd ea33 8a3e
000002f0: 5f25 4fc0 82c2 f43d 8dbc d93b 56e0 12be
00000300: 3ad8 83be e101 e7be 12cd df3d 0e5b 163f
00000310: 73cd d43f 082b 16bf e188 053e bee6 47bf
00000320: 8b7e 18bf 7adc 98bf 75fb b93e ca6b 8fbf
00000330: 6ad9 373f b6e7 a43e 6eda d0bf 925f 043f
00000340: 4739 62bf 27d5 c6be 9e1b a83e 359f 14be
00000350: 1087 dabe 6da1 07bf 827b 523f 2ed7 35bf
00000360: 17f6 51be b9c5 153f a739 81bf d37a f83f
00000370: 5995 913c 31a8 273f 730f f83e 6989 1f3e
00000380: cd26 bfbe 79e9 973d 5568 cf3e 809a 9e3f
00000390: 052e 5d3f 3b44 1cbe 47fb 82bf 1435 8c3f
000003a0: a361 92be 62bc aa3f fdc8 0440 9df1 5dbf
000003b0: f461 433f daf3 57be 8ce6 473f 0a8e d4bf
000003c0: 81ea 37bf 896b 28bf 7219 6cbe db64 9b3f
000003d0: 3bd0 5d3f 3d38 37be cd92 923e 11c8 45be
000003e0: 5208 3a40 5bfe 78bf eaee ecbe 824b af3e
000003f0: f84a 633f 0d29 ac3e 2cf9 48bf 2a62 0dbf
0.06436826 -0.17031369 0.12641472 -0.24014682 0.9954707 -0.8634963 2.4950428 0.09359444
0.07697602 -0.3446698 -0.4158764 -0.046803113 0.70748776 -0.5041082 -1.1334792 0.656849
-0.66238785 -0.19429988 -0.2898751 0.41545188 -0.45413724 0.31593677 0.9478161 -1.4237907
0.048664223 0.62142026 -1.3739165 2.1349056 1.2114679 1.1024328 0.39814898 1.0190829
-0.3034463 -0.92113215 -2.0757465 -0.98950946 0.23007989 1.812662 2.460815 0.2658279
1.930527 0.34567496 1.2834958 1.568167 -0.792352 0.40052545 0.68583536 1.0980756
-0.6211599 0.47012615 -0.4823282 -1.0164106 -0.6823646 -0.34665263 -1.1791835 -0.46779996
-0.24526896 0.57063884 1.0723075 1.1708461 2.7368937 0.60136825 0.23426768 2.060811
-0.5150235 -1.8389938 -1.0576911 1.1628884 0.3359717 1.134001 0.7645396 0.3811378
2.364186 0.5771402 0.29892445 -0.5506098 0.2829779 0.7213791 -0.24238046 -0.6413213
0.43995014 2.9631913 -1.6164964 0.24009736 0.1442867 0.76468855 0.16866615 0.25321144
2.320815 0.5086648 1.1645718 0.16319342 1.1681211 -0.48726404 0.55190605 1.441624
0.15233386 0.7961157 1.562974 0.7042321 -0.09603141 0.98208463 2.9238737 1.2731806
2.8852706 1.4038042 0.19472712 -0.7471578 0.2189433 0.16542614 -0.92387795 -1.3034706
-0.5477136 1.9858465 -1.5292059 -1.6664943 0.3467834 0.79744834 -0.65423715 0.38468036
-0.16107336 1.028602 0.28646913 0.1437482 0.6145744 1.0738183 -0.63568425 0.93543077
0.3500004 0.04292089 0.67131543 0.8318369 2.1574447 0.40323684 -1.4674212 -0.58877903
-1.9247295 -0.0438493 1.100742 -0.3584323 0.50893426 0.0019027973 -0.8910806 -0.09004738
-0.20703726 -0.7613953 -0.98577666 -0.023076763 1.2275752 -0.27851456 0.46792698 -0.7191026
-0.2574157 0.9598137 -0.01818602 0.85302544 -2.0494123 0.9868283 0.955185 -0.14957799
0.49585554 0.0019093836 0.838812 0.62279385 0.6171114 -0.47103745 -0.8251647 -0.64500296
-3.951527 -1.4160591 0.702532 0.2382992 -0.66248006 -0.50879467 -0.71012086 0.3758658
-0.14685765 -1.4614925 1.129836 -0.23404786 -0.1972371 -0.19935842 0.49832958 -0.46565172
0.8336054 0.5491386 -0.08395405 0.26992732 -3.236656 0.11951162 0.0066447915 -0.1434339
-0.25750905 -0.4511862 0.10927786 0.5873269 1.6625198 -0.5865941 0.13040496 -0.7808646
-0.5956809 -1.1942284 0.3632466 -1.120477 0.7181612 0.3220803 -1.631666 0.5170833
-0.8836865 -0.38834497 0.3283357 -0.14513858 -0.4268117 -0.5298069 0.8221971 -0.71031463
-0.20504032 0.58504826 -1.0095719 1.9412483 0.01777141 0.65491015 0.48449287 0.15579762
-0.3733429 0.07417578 0.40509287 1.23909 0.86398345 -0.15260403 -1.0232934 1.0953698
-0.28590116 1.333874 2.0747674 -0.866968 0.7632134 -0.21089116 0.7808616 -1.6605847
-0.718422 -0.65789086 -0.23056582 1.2140154 0.8664586 -0.17892547 0.28627625 -0.193146
2.9067578 -0.97263116 -0.46276027 0.34237295 0.8878627 0.3362507 -0.78505206 -0.5522791

fc1.bias f4 [32]
00000000: be4d f8bd 9deb 453e f11f 3cbe 7a53 9fbe
00000010: 8e77 dd3c f8e6 ec3e 80a7 b4be cd18 99bf
00000020: cd1c 3f3f 8f32 38bf 52bd 0e3f b2a2 d4be
00000030: 982f cabe 797b 523c 1d3a 2f3f 4901 72be
00000040: 32ca 1abe 68cd 6f3d baff 383e a918 2e3f
00000050: 8b28 d8bd a065 f1be 5c29 32bf 706d 7b3e
00000060: 5b8d d03e 42d8 033f 9a04 853f c588 933e
00000070: f21f cabe d416 51be 5a33 87be adb2 953e
-0.12124203 0.1932816 -0.1837156 -0.31118375 0.027034547 0.46269965 -0.35284042 -1.1960694
0.7465332 -0.71952146 0.5575763 -0.41530377 -0.39489436 0.012846821 0.6844805 -0.23633303
-0.15116194 0.0585455 0.18066302 0.6800638 -0.10554608 -0.47147846 -0.6959436 0.24553466
0.40732846 0.5150186 1.0392029 0.28815284 -0.39477497 -0.20418864 -0.26406366 0.2923788

fc2.weight f4 [3, 32]
00000000: aee8 01bf c6d8 19c0 71be 2dc0 27c7 4240
00000010: 36df 0dbf 3940 8dbf 4119 2cbf 5909 40c0
00000020: e072 cfbe 41d2 7bc0 9a91 2440 b515 d03f
00000030: bec3 3340 7d26 83bf cbc9 41bf 291a 46be
00000040: 2025 b1bf f28a 4ebf 8e56 13bf 8dc7 df3d
00000050: 7d56 58bf 4b3b eebf 1a1f d1bf 77c2 0c40
00000060: b19a 3ebf ea3a 11bf 31ed d93f 531f 1ec0
00000070: d00d a7bf 0e1c 40c0 a557 2b40 2efc 09bf
00000080: c281 5fbf f5f2 12c0 27e7 1bc0 126c 3040
00000090: 0da2 2fbf 1e20 3bbf 8fba 0ebf 8be8 56c0
000000a0: 3faf ddbe 364a 58c0 b27e 1f40 f0bf f73f
000000b0: 1377 2840 18c3 37bf 1250 39bf db5b 15bf
000000c0: 418c 92bf 1159 42bf b409 4bbf 38d3 2abf
000000d0: 0128 07bf 968c 8bbe a3f0 d8bf bf4e 0f40
000000e0: 1c48 14bf 535c 29bf cacf d13f b134 20c0
000000f0: eae2 94bf beab 54c0 10c1 4040 3802 2cbf
00000100: 92d1 8dbf 9991 1fc0 0e4c 41c0 c95b 5740
00000110: 79ee 30bf a3da b8be 0b66 23bf 7f78 6ec0
00000120: 72da 2fbf 4890 33c0 8e7c 0f40 5969 0840
00000130: 32d5 2740 beea f6be 7383 16bf e3e3 83bf
00000140: 336b 7ebf 7b0f 2ebf 30ab 47bf 423f a0bf
00000150: 4460 0fbf 3eb0 733f eaa2 e9bf 67f3 0440
00000160: f842 dfbe 3da8 5ebf f90c b83f f50f 2ec0
00000170: c14f 4fbf 6da9 4ac0 231e 5f40 3319 2fbf
-0.50745666 -2.4038558 -2.7147486 3.0434053 -0.5541872 -1.1035224 -0.67226034 -3.0005705
-0.4051733 -3.9347079 2.5713868 1.6256624 2.8088222 -1.0246121 -0.75698537 -0.19345917
-1.3839455 -0.80680764 -0.57553947 0.10926733 -0.8450697 -1.8611845 -1.6337616 2.1993692
-0.7445479 -0.5673052 1.702551 -2.4706619 -1.305109 -3.0017123 2.6772244 -0.5390042
-0.8730737 -2.296079 -2.4359834 2.756596 -0.68606645 -0.7309588 -0.55753416 -3.3579433
-0.43297765 -3.3795295 2.4921079 1.935545 2.6322677 -0.71782064 -0.723878 -0.58343285
-1.1449052 -0.75917155 -0.7931168 -0.66728544 -0.52795416 -0.27255696 -1.6948436 2.2391813
-0.5792253 -0.661565 1.6391537 -2.503216 -1.1631749 -3.3229823 3.0117836 -0.67190886
-1.1079581 -2.4932616 -3.020267 3.3649771 -0.6911388 -0.36104307 -0.6382758 -3.7261045
-0.68692696 -2.8056812 2.2419772 2.13143 2.6223874 -0.4822597 -0.58794326 -1.030392
-0.99382323 -0.6799237 -0.77995586 -1.2519305 -0.56006265 0.951908 -1.8252842 2.077356
-0.4360578 -0.8697546 1.4378959 -2.719724 -0.8098107 -3.166591 3.4862144 -0.68397826

fc2.bias f4 [3]
00000000: 42eb 25bf 8702 7abf fbc0 75bf
-0.648121 -0.97660106 -0.9599759
