saves/acrobot_dqn.pt (torch, 8607 bytes, 6 tensors)

fc1.weight f4 [32, 12]
00000000: 75d1 d6be 1664 343f 034d 7a3f bc10 233f
00000010: 19c9 bcbe fc19 0dbe aaed e8be bea4 8238
00000020: 224b 543e 3148 ad3e d7ee 54bf fd93 b03d
00000030: e259 063e 8d2c 12bf edbe b03c 3271 8fbe
00000040: 44a7 163f dbf6 613e 5891 efbe 92c3 4bbc
00000050: a962 1a3e 692c 243f 5369 ff3e 79db f23e
00000060: 840a 20bc 513f 173f cfc8 733d c198 2f3f
00000070: 8166 463e c175 033e 03c8 54be 3239 8b3f
00000080: 7a10 e1bd 1e2b a33e 462a 98be 135a 9bbc
00000090: 55f1 65be f328 bc3b f419 473d c36b 8fbe
000000a0: a46c c0be e9a1 a9bd b761 213f a555 40bf
000000b0: 27c3 0fbe 4789 383f 14e5 c8be 7f13 1bbf
000000c0: 029f 32be 4436 fd3e 05ba 2fbe 1712 35be
000000d0: 0a5b 003e d7db 1b3e 0c10 763f a9fe ff3e
000000e0: 8a0c 1f3f a4b9 8bbe 2274 313e 66e9 a23d
000000f0: a5d8 d53d 7906 07bf 301f 88be 744b 1f3f
00000100: 962d 9ebe 9565 6f3d 0b11 263f e546 3fbf
00000110: 9606 d1be b7a5 083f c395 c13c 9290 27be
00000120: 6e5a 4e3e c105 953e 19d2 cd3d da57 293e
00000130: 1e1e e2bd beec 4ebd 0320 533f d859 b33e
00000140: b131 1bbe 2dbd 4e3f 96fe ed3d 9b48 263e
00000150: 50a2 ac3e 22bb 383e 070d 4b3e f0a6 a33d
00000160: a123 3e3e 864f 273c 212c 6e3f 5cf0 acbe
00000170: 2ac9 243f b44e 2f3f b496 823c 7e9c 473e
00000180: f738 023e 3778 be3e b0a1 98bd 2b68 efbd
00000190: aaef 66bd ebf4 043e d8b5 e7be ae4e bb3f
000001a0: b379 8c3e 47e0 debe 33c3 f23e e56b ccbe
000001b0: 75dc 08be 083c f4bd f0da 6a3e 8de3 133d
000001c0: 9ccc e03d 8a4d a13e d207 603f 8ce7 a6be
000001d0: 08a8 8b3f dfe2 0dbf d708 e13e 703d 39be
000001e0: 8c00 fe3e f3f0 853e 9601 ebbd 1630 dfbe
000001f0: e762 afbe 793f 4cbe e873 0e3f 115e a03e
00000200: 6e2f 9fbe 4622 153c 78be dcbe 9911 0ebd
00000210: 5658 e4bd 5974 ddbe 16a1 08be a1ef f03d
00000220: 5a94 80be 4ab5 4dbc 7cf0 673f 3570 563e
00000230: c287 833f 3094 95bd d2e5 31bd d0b4 44be
00000240: ae5a f4bb 242f be3e 91a7 80be e691 d0be
00000250: 920b 8e3e a340 be3d 5d85 7d3f 1662 973e
00000260: 6f48 953e ece1 74bf a4c5 d7bc 82cb 2c3e
00000270: 6ce6 f33d a624 8d3e 9eb2 fdbe be77 e2be
00000280: ffe1 b23d 1517 e73d fcaf 343f f711 893f
00000290: 9b63 fd3c 00f7 97bf 1ce6 863d 8f20 0e3b
000002a0: e98c 88bf 2619 adbe fbd7 68be 9973 9cbe
000002b0: 7018 bfbd 0916 c3bd f4b9 08bf 2e06 b73d
000002c0: abdb b7be 0b71 dc3e fdbb f83c 2344 d2bc
000002d0: 57e2 23be 3e05 45be 3c6f 86be 12ea 443e
000002e0: 36b8 40be 8888 a23d c835 743f f2af 64bd
000002f0: fa93 0e3f 518b 253d fb25 8cbe a9ac 90be
00000300: bc71 c13e e61b dbbe 6b15 0bbd 3edd c6bb
00000310: 8875 89be 5f05 f3bd e488 0f3f 70a9 93be
00000320: 60c0 233f a1ae 243f ee27 2bbe 62cb fdbd
00000330: 365b f7bd d140 3fbf 9fd1 793c 7ec5 15be
00000340: 8d45 38be 6bbf 17bd 94b2 b0bd 8998 3abf
00000350: 7d83 19bf dec6 d13f c096 95be 21d5 cfbe
00000360: 7392 623e 4f91 d43e 9752 d73e bdf0 37be
00000370: 3f1d f7be bbb1 5abe 4e90 05bf 12c9 5bbe
00000380: 74ae c3bd dfd1 843f 220a 1abf 169c a8be
00000390: b498 fcbd 733c d8be ca2f 0c3e 4916 a4be
000003a0: 8099 c6bc 37a6 8dbd 7fd4 1e3f adb3 40bf
000003b0: 8363 583f 94bb 82be facf 5a3e 4bde ea3d
000003c0: 97e2 283d f88c 4c3f 7bf4 b9be e94b 29be
000003d0: 5af2 0f3e 5b09 db3d ae61 4d3f 6e43 9b3f
000003e0: 16e0 0c3e ba46 61be 866a 36be ec86 5cbe
000003f0: 4bd0 81be 35e0 19be 4d06 a5bd fa01 29be
-0.41956678 0.7046522 0.9777376 0.6369741 -0.36872175 -0.13779444 -0.45493823 6.229569e-05
0.20731786 0.3384414 -0.8317694 0.086219765 0.13120225 -0.5709923 0.021575416 -0.2801605
0.5884898 0.22066824 -0.46790576 -0.012436764 0.15076698 0.64130265 0.49885044 0.4743307
-0.009768132 0.5908099 0.059517678 0.6859246 0.1937504 0.12837888 -0.20779423 1.087683
-0.10989471 0.31868833 -0.29719752 -0.01896385 -0.22455342 0.005742186 0.048608735 -0.28011903
-0.37582886 -0.08282835 0.63039726 -0.75130683 -0.14039288 0.7208447 -0.39237273 -0.60576624
-0.17443469 0.49455464 -0.17160805 -0.17682682 0.12534729 0.15220581 0.96118236 0.49998978
0.6212851 -0.2729007 0.17329457 0.079546735 0.10441712 -0.5274425 -0.26586294 0.6222451
-0.30894154 0.058446486 0.64869756 -0.7471755 -0.40825337 0.5337786 0.023630982 -0.16363743
0.20151684 0.29105952 0.100498386 0.16537419 -0.11040901 -0.050518744 0.8247072 0.35029483
-0.15155675 0.8075741 0.11620824 0.16238634 0.33717585 0.18040136 0.19829188 0.07990825
0.18568279 0.010211831 0.93036085 -0.3377713 0.6436945 0.68479466 0.015941001 0.19493291
0.12717043 0.37201092 -0.074527144 -0.1168979 -0.056380905 0.12984054 -0.45255923 1.4633386
0.274366 -0.43530485 0.4741455 -0.39926067 -0.13365348 -0.119255126 0.2293508 0.03610568
0.10976526 0.3150447 0.8751193 -0.3259853 1.0910654 -0.554243 0.43952057 -0.18089843
0.49609792 0.26160392 -0.11474912 -0.43591374 -0.34255144 -0.19946088 0.5564561 0.31321767
-0.31090873 0.00910241 -0.43114066 -0.03468475 -0.11149661 -0.4325283 -0.133427 0.117644556
-0.25113183 -0.01255543 0.90601325 0.20941241 1.0275805 -0.07303655 -0.043432064 -0.192096
-0.007457099 0.3714534 -0.25127843 -0.40736312 0.27743202 0.09289672 0.9903162 0.2956702
0.29156825 -0.9565723 -0.02633936 0.16874507 0.11909184 0.27567023 -0.49550337 -0.4423198
0.087345116 0.112836994 0.7058103 1.0708607 0.030931285 -1.1872253 0.06586859 0.0021686887
-1.0668002 -0.3380825 -0.2273864 -0.30556944 -0.09330833 -0.09525687 -0.5340874 0.089367256
-0.3590978 0.43054995 0.030363077 -0.025667256 -0.1600431 -0.19240281 -0.2625674 0.19229916
-0.18820271 0.079361975 0.95394564 -0.055831857 0.55694544 0.040416066 -0.27372727 -0.2825673
0.37782085 -0.42794722 -0.033955973 -0.0060688546 -0.26847482 -0.11866259 0.56068254 -0.28840208
0.63965416 0.6432896 -0.1671445 -0.12392308 -0.12077944 -0.74708277 0.0152477315 -0.14626119
-0.17995282 -0.037047785 -0.08627811 -0.72889 -0.5996626 1.6388814 -0.29216576 -0.40592292
0.22126178 0.41517112 0.420552 -0.17962928 -0.482645 -0.21356861 -0.52173316 -0.21463421
-0.09554759 1.0376548 -0.6017171 -0.32931584 -0.12333813 -0.4223362 0.13690105 -0.32048252
-0.024243116 -0.069164686 0.62042993 -0.75274163 0.8452684 -0.25533736 0.213684 0.1146818
0.041231718 0.799026 -0.36319336 -0.16532864 0.14057294 0.10695144 0.8022717 1.2129953
0.13757357 -0.21999636 -0.17814073 -0.21535844 -0.25354227 -0.15026934 -0.080578424 -0.1650466

fc1.bias f4 [32]
00000000: a017 2bbf de13 843e f6c1 cd3e d32b 2cbf
00000010: 7e22 1b3f dd70 173e bdbb 603f 6775 343e
00000020: eb3c 313c a6a6 71bf c0a8 12bf 77b0 003f
00000030: e3ee 1e3f eb6a 513e 4f81 823f 0e38 543f
00000040: be65 113f 2bc3 0ebf 30eb 18bc 938e e23e
00000050: 6960 da3e 36d4 043f 8ebe 3e3e 1819 45bd
00000060: a520 af3d 91e1 643f 0816 92bf f136 08bf
00000070: 64c1 9dbe fb89 fb3e 8fd9 d53d f9f9 c7be
-0.66832924 0.25796407 0.40187043 -0.6725437 0.60599506 0.14789148 0.87786466 0.1762291
0.010817747 -0.9439491 -0.5728874 0.50269264 0.6208326 0.20450942 1.0195712 0.8289803
0.5679587 -0.5576655 -0.009333417 0.442494 0.4265168 0.5188631 0.18627378 -0.048119634
0.08551148 0.8940669 -1.1412973 -0.53208834 -0.30811608 0.49128708 0.10441887 -0.39057902

fc2.weight f4 [32, 32]
00000000: fb13 a4bf 25db 65be 9a1d 9ebe ad27 533f
00000010: c778 51be 9231 d9be fa6b b33e 7a61 36be
00000020: dbe4 b3bd 35bf e63d 4913 68bf eb3c c73e
00000030: 85fd 493e 8931 1d3d d070 3ebe 88cb 9c3e
00000040: 0724 dbbe 8f8e 6bbf d68e 2fbb a53f b73e
00000050: 5ac9 1abf e946 30be f577 833d 8833 cebe
00000060: a12f 8b3e cead ef3d 7325 6dbf 35a2 ccbd
00000070: 52f3 04bf 4406 1f3d 25f6 b63e e267 103f
00000080: 5d47 bebc e4f1 abbd e0d8 47be 5208 10bf
00000090: c30d 943e a267 6bbd b84e 093e 5f75 2c3e
000000a0: eea2 e2be e43a 67be 81ff 36be 01b4 ba3d
000000b0: 8908 d23e ba88 973d e169 13bd 0c97 983e
000000c0: c459 70bd b7b4 a73e 334e 55be 7be8 12bd
000000d0: c393 c53e 4784 79be 6bc5 23be a4a0 383d
000000e0: dfb2 a6bd 10f1 573e 1588 2bbe d3bf 1abe
000000f0: 0d56 7fbd a909 9d3e 0321 0e3e 3460 8cbe
00000100: 6919 5fbf 722f 9a3e 5491 40bf f9dc acbf
00000110: b61d d93e 0c19 e93e 798f 86be e77b 3b3e
00000120: ec16 4d3e 79cc ab3e 2f2f 0d3f 0828 9f3e
00000130: f5d1 393e bfb5 2dbe 462d 583f 8e41 0f3e
00000140: f824 37bd ee0e 153f 8e60 0abf 4feb 073f
00000150: c126 09be 733b bebf 3c6a edbe 2ae6 323e
00000160: b6a2 633d 12d6 3c3e 6431 2bc0 bf2a 8bbf
00000170: c320 66bf 1407 e63e 79ce f8be 179b 463f
00000180: 7a30 85be 5042 e1be 791a 9bbe 6667 a8be
00000190: 3d6b 493e 741f e93e 2e8c 223e 3080 c23e
000001a0: bf9d a0be c677 de3d d24d 21be c713 983d
000001b0: 7355 393e 8da4 ba3e 770c e7bd 90dd c23e
000001c0: 2dc0 a73d 70c1 af3e 2a9d 843d a4e0 523e
000001d0: cf93 fb3e fc1f 44bd a7fb 5cbf a405 b93d
000001e0: 1217 01bf 8ff6 c43e 22ca 2dbe b923 b4be
000001f0: bc55 93be 1664 db3e 1505 963e a4c0 0dbf
00000200: b81f 8cbe cb08 b7bc 24c6 253e fa70 afbd
00000210: 0480 6e3e a125 b53d c3c7 413e 2a4f c13e
00000220: 2c20 b33c 7925 8a3c 747c 47be 8b06 7b3e
00000230: b72e de3e 21f8 5e3e 9b64 8bbd 851d b23e
00000240: 02a4 4a3d 80ec eebd cdc9 7cbe 41af 463e
00000250: 6e0f 8c3e f214 59bc e37c 31be 4163 02be
00000260: d7ce 04bf 4589 0c3f d7c8 873e 6163 35bf
00000270: 701a 04bf ead1 0c3f c547 64bb 4eb0 edbe
00000280: ad89 44be 8e33 053d 247a 7ebe e5ec c7bc
00000290: ad5b 583e cd2b 2c3e 2bee d13d cbb9 313e
000002a0: cf1b 97be a247 373d e44b 2b3c 30a1 823d
000002b0: 6886 e23e 2c60 893e 24e8 47bd 7a19 b83d
000002c0: c7e1 cbbc 6116 323f c239 72be c998 a23e
000002d0: 344a 153e b313 5abe ddf9 3ebe 3423 e6bd
000002e0: 927e c0be 3695 c83e 16c7 fb3d 64e7 a9be
000002f0: 7555 dcbe db85 ca3e a19d a93d ac02 adbe
00000300: d63f a13d cf16 e3be 1353 9fbd 5ec5 85bf
00000310: 1e8e 8a3e d89d c53e c24d 4fbe 962d 743b
00000320: 6d1a dd3d 28dc cf3e a09f 28be 2c09 923e
00000330: 0865 283e 2cdc 963e d79a 003f 0415 9d3e
00000340: b8f8 613e 7709 613e d586 a1be 4799 7d3e
00000350: c980 173e 876b a63e e5ba 8dbe ce85 a93e
00000360: 0ef5 b6be a209 bf3d c2ac fdbe 891f 88be
00000370: 8f97 9fbe a5b1 0a3e fb3e 4b3e 868f c43c
00000380: a749 33bf 59a3 a93e 4090 d1be c961 433e
00000390: 72a9 a6bd c32c 173e db5d 913e 4f8f cabe
000003a0: b737 c2be 92b0 013f 3034 9b3d 9fd8 a03e
000003b0: 8b4e 33be eebd 06bf cafd 293f a3f1 bd3e
000003c0: b106 dd3d 27bd 36be 8d0d 05be 12c1 12bf
000003d0: 4bad 4e3c 6e2a 2f3e 18b5 1cbf 883b 133e
000003e0: aef0 62bd 8a35 513e ceb5 243e 6568 cfbe
000003f0: 8e50 2fc0 4170 de3c 4d35 723e d135 c03e
-1.2818598 -0.22446878 -0.3088196 0.82482415 -0.20456229 -0.42420632 0.35043317 -0.17810622
-0.08783885 0.112669386 -0.90654427 0.38913664 0.19725616 0.03837732 -0.18597722 0.30624032
-0.42800924 -0.920144 -0.0026788018 0.35790744 -0.6046349 -0.1721455 0.06419364 -0.4027369
0.27184775 0.117030725 -0.9263527 -0.09991876 -0.5193378 0.038824335 0.35734668 0.5640851
-0.023227388 -0.08395746 -0.19516325 -0.56262696 0.2891675 -0.05747188 0.13408935 0.16841649
-0.4426493 -0.22581059 -0.17870905 0.09116364 0.41022137 0.073991254 -0.035989646 0.2980274
-0.058679357 0.32755062 -0.20830612 -0.035866242 0.38589296 -0.24366866 -0.15993278 0.045075074
-0.08139586 0.21088052 -0.1675113 -0.15112238 -0.062337924 0.30671433 0.1387978 -0.27417147
-0.8714815 0.30114323 -0.75221753 -1.3504936 0.4240548 0.45526922 -0.26281336 0.18308984
0.20028275 0.33554438 0.5515012 0.3108523 0.18146499 -0.16963862 0.8444408 0.13989851
-0.04471299 0.58225906 -0.5405358 0.5309343 -0.1339369 -1.4861892 -0.46370113 0.17470613
0.055575095 0.18441036 -2.6748896 -1.087242 -0.8989374 0.44927275 -0.48595026 0.775804
-0.26013547 -0.43995905 -0.30293635 -0.32891387 0.19669814 0.4553181 0.15873787 0.37988424
-0.3137035 0.10862689 -0.15752342 0.07425647 0.18099003 0.36453667 -0.11281674 0.38059664
0.081909515 0.3432727 0.06475289 0.20593506 0.49136207 -0.047882065 -0.8632149 0.09034279
-0.5042583 0.3846936 -0.16971639 -0.35183504 -0.28776348 0.42849797 0.29300752 -0.5537207
-0.2736795 -0.02234306 0.16188866 -0.085664704 0.23291022 0.08845068 0.1892386 0.3775571
0.021865927 0.016863571 -0.19481069 0.24514215 0.43395016 0.21774341 -0.06806298 0.34788147
0.049472816 -0.116662025 -0.24686356 0.19402792 0.27355522 -0.013249623 -0.17332797 -0.12733175
-0.5187811 0.54896957 0.26520416 -0.70854765 -0.5160284 0.55007803 -0.0034832817 -0.46423572
-0.19193144 0.03251987 -0.2485128 -0.024404952 0.21128722 0.16813584 0.10250505 0.1735603
-0.29513404 0.04474605 0.010455105 0.063784 0.4424317 0.26831186 -0.04880537 0.08989234
-0.024887932 0.695654 -0.23654845 0.3175719 0.14579087 -0.21296577 -0.18650003 -0.11237183
-0.37596565 0.3917634 0.12293832 -0.3318435 -0.4303395 0.3955525 0.082820185 -0.337911
0.07873504 -0.4435334 -0.07779517 -1.0450857 0.27061552 0.38596988 -0.20244506 0.0037258617
0.10796056 0.40597653 -0.16467142 0.28522623 0.1644479 0.29464853 0.50236267 0.30680096
0.22067535 0.21976267 -0.3154818 0.24765502 0.14795221 0.32503912 -0.27681652 0.33109897
-0.35733837 0.09328009 -0.49545866 -0.2658656 -0.31170318 0.13544329 0.19848244 0.023994219
-0.7003426 0.33132437 -0.40930367 0.19080271 -0.08137788 0.14763169 0.2839192 -0.3956246
-0.37933132 0.5066005 0.07578313 0.3141527 -0.1751043 -0.5263356 0.66402876 0.37098417
0.10792292 -0.17845593 -0.1299345 -0.5732585 0.012614558 0.1710603 -0.6121383 0.14378178
-0.05540531 0.2043058 0.16084978 -0.40509334 -2.7392917 0.027153136 0.23653145 0.3754106

fc2.bias f4 [32]
00000000: 7041 c73e 3543 643f f465 4b3c c365 293f
00000010: 52ea 203f a29d 243f 8644 753f ff97 6f3e
00000020: fbf9 103f f5e9 253f cfe9 123f 9118 3a3f
00000030: 6d7e debd 88c7 393e c456 8d3d 5ac6 0f3f
00000040: b512 383f 8a25 d13e 79f1 163f a506 3dbe
00000050: 585c ce3e 536f 343f cc56 1a3f b5c8 62be
00000060: 9729 3d3e 13ce 453f fa8a 3c3f 5fb2 443f
00000070: 186a 563f ec0b 243f 44f0 ff3d 69f5 df3e
0.38917112 0.8916505 0.012414444 0.661709 0.62857544 0.6430303 0.95807683 0.23397826
0.5663144 0.64810115 0.57388014 0.72693735 -0.108639576 0.18142521 0.06901315 0.56162035
0.71903545 0.40848953 0.5896221 -0.18459566 0.40304828 0.7048237 0.6028869 -0.22146876
0.18472897 0.7726757 0.7364956 0.7683467 0.83755636 0.6408069 0.12496999 0.4374192

fc3.weight f4 [3, 32]
00000000: 4b12 28bf 2f2b 5cbe 1e98 2b3f 537d bebe
00000010: 39b8 a4be 9155 43be ce1a 1cbe 0d03 173e
00000020: 150b 96be 5f5f 26be 46ca 93be d225 23be
00000030: e1d9 453f e573 a8be 2280 a03d ad2e d4be
00000040: 1e8a 1ebe e489 07bf 72d2 0cbf abdd 513f
00000050: ad7e cdbe a1bc 17bf ac07 d0be 799c 2a3f
00000060: 2151 dfbe be7d b5be 59ae adbe 7e8c 4dbe
00000070: 5c0a 31be f134 92be c28f fcbe 198f 18be
00000080: f047 36bf 1ed2 2abe 0126 343f 933d 9bbe
00000090: ae44 a8be d77e d5bd 9220 88be 085e c9bd
000000a0: a1eb babe 2ea6 52be d9d0 a7be d317 a2be
000000b0: d2de 4e3f 3e9f a3be 2de3 0ebe 883f 99be
000000c0: 1425 7dbe bd2f e7be 8a14 d6be bb49 4e3f
000000d0: 247b f1be 68eb fbbe 73b0 e1be d1f7 1c3f
000000e0: d43f eabe ef00 5ebe 0811 a8be c39b a6be
000000f0: c018 37be d3d7 b4be 1832 dbbe e01d 0fbe
00000100: f41a 13bf 9938 c0bd 6957 283f 34b4 dabe
00000110: ad5c 92be 67ee 1bbe 42c5 eebe 2ae7 b7be
00000120: d924 b4be 23d6 23bd 0ec9 d4be 2c54 2fbe
00000130: 07bb 723f 5d19 6ebe ce29 143e b51a 93be
00000140: d533 8bbe 98e4 8dbe 22ab cdbe d184 3a3f
00000150: 42dc edbe 2893 edbe 2242 f2be 38c5 143f
00000160: 31c0 8fbf 052a 3abe a03c 9cbe 424c 8ebe
00000170: 7419 5dbe 3233 07be c85f cfbe 956f b0be
-0.6565291 -0.21500848 0.6702899 -0.3720499 -0.321718 -0.1907561 -0.152446 0.14747258
-0.2930533 -0.16247319 -0.2886526 -0.15932396 0.7728558 -0.3290092 0.078369394 -0.4144186
-0.15482375 -0.5294478 -0.55008614 0.81978863 -0.40135708 -0.592722 -0.40630853 0.6664501
-0.43616584 -0.35447496 -0.3392208 -0.20073125 -0.17289108 -0.28556016 -0.49328429 -0.14898337
-0.7120352 -0.16681716 0.7037049 -0.30320415 -0.32864898 -0.104245834 -0.2658735 -0.09832388
-0.36507896 -0.20571205 -0.32776526 -0.316588 0.80808747 -0.3195743 -0.13953848 -0.29931283
-0.24721175 -0.4515361 -0.41812545 0.80581254 -0.4716426 -0.49203038 -0.44079933 0.6131564
-0.45751822 -0.21680044 -0.32825494 -0.32540712 -0.17880535 -0.3532091 -0.42811656 -0.1397624
-0.57463 -0.09385795 0.6575838 -0.4271561 -0.2858633 -0.15227662 -0.4663487 -0.35918552
-0.35184363 -0.03999914 -0.41559643 -0.17121953 0.9481663 -0.23251863 0.14469072 -0.28731313
-0.27187982 -0.27713466 -0.40169626 0.7285891 -0.46457106 -0.46401334 -0.4731608 0.5811343
-1.1230527 -0.18180092 -0.30515003 -0.27792555 -0.21591741 -0.13203123 -0.40502763 -0.3446013

fc3.bias f4 [3]
00000000: 3a7a 3dbf f27d e5be 15db d1be
-0.7401463 -0.4482265 -0.4098746
