saves/cartpole_dqn_80flickering.pt (torch, 7455 bytes, 6 tensors)

fc1.weight f4 [32, 4]
0	0xbcbc658c	-0.02299764
1	0xbeb69e0e	-0.3566746
2	0x40b19271	5.549126
3	0xbe97008f	-0.29492614
4	0xbf219529	-0.63118225
5	0xbe263b3d	-0.16233535
6	0xbef957c8	-0.48699784
7	0x3de4089b	0.11134454
8	0x3f2a0bc7	0.6642422
9	0xbf0d13a8	-0.5510812
10	0x409f590e	4.979621
11	0xba0d7bf6	-0.0005397195
12	0xbefa468d	-0.4888195
13	0xbdf24237	-0.11829036
14	0x3f5b071f	0.8555774
15	0xbdb80579	-0.08985419
16	0x3eba78d1	0.364203
17	0xbc8d2bc8	-0.01723279
18	0xc088bb25	-4.272845
19	0xbc01bdff	-0.007918834
20	0x3e33b3e0	0.17549086
21	0x3e6a2e9d	0.22869344
22	0xbef824ef	-0.48465678
23	0x3e89a5a3	0.26884183
24	0x3f648be2	0.89275944
25	0x3f2e95e8	0.6819749
26	0xc0531cd2	-3.298634
27	0xbefdd82b	-0.49578986
28	0x4016062e	2.3441272
29	0x3b80b183	0.003927411
30	0x3e103b7d	0.14085193
31	0x3e889fe6	0.26684493
32	0x3ef064a5	0.46951786
33	0xbeef3ee2	-0.46727663
34	0x40ab2477	5.3482013
35	0xbd802153	-0.06256356
36	0xbe85b7d0	-0.261168
37	0x3e181e18	0.1485523
38	0xbe90d443	-0.28286943
39	0xbeb9a19a	-0.36256105
40	0xbdf0a9c7	-0.117511325
41	0xbf01fc8c	-0.5077598
42	0xbd37f99f	-0.04491579
43	0x3e1e9908	0.15488064
44	0x3fc24f1c	1.5180392
45	0xbe8fb38b	-0.28066668
46	0xbf21bbf6	-0.6317743
47	0xbddc69ef	-0.10762393
48	0xbffdc610	-1.9826069
49	0xbf184cc9	-0.59492165
50	0x3fe8177c	1.8132167
51	0x3f2e9571	0.6819678
52	0xbefb29a5	-0.4905521
53	0x3dd7c955	0.10536448
54	0x3f401a0a	0.7503973
55	0xbd043478	-0.0322766
56	0xbee725b0	-0.4514594
57	0xbec632bb	-0.3871058
58	0x3f1c21a6	0.60988843
59	0xbe91852a	-0.2842191
60	0x3e963603	0.29338083
61	0x3e92e257	0.2868831
62	0x3e80ad7b	0.25132355
63	0xbd89f555	-0.067362465
64	0x3f8a3b12	1.0799277
65	0x3e103b60	0.1408515
66	0xbecb0351	-0.39650968
67	0xbef1c34d	-0.47219315
68	0x3e576350	0.21033978
69	0x3ce4a3f8	0.027910218
70	0x3e8c3619	0.27385023
71	0xbe0570e7	-0.1303135
72	0xbeca2c3f	-0.39486882
73	0xbf122994	-0.57094693
74	0x3eb3bd84	0.35105526
75	0xbe2f44e8	-0.1711613
76	0xbeb2bdf0	-0.34910536
77	0xbe438a03	-0.19095616
78	0x3f3131fb	0.6921689
79	0x3ee23e58	0.4418819
80	0xbe58623f	-0.21131228
81	0xbf0d4c4e	-0.55194557
82	0xbe056f6b	-0.13030784
83	0xbe6e4b3d	-0.23270889
84	0xbf6df521	-0.9295216
85	0x3e80b1e2	0.25135714
86	0xc0b60572	-5.6881647
87	0x3dba31e8	0.0909155
88	0xc01ff150	-2.4991035
89	0x3dda0648	0.10645729
90	0xc02dcffe	-2.7158198
91	0xbeb98a2e	-0.36238235
92	0x3f963728	1.1735582
93	0x3a27ab70	0.00063960906
94	0x40b5f461	5.6860814
95	0x3e078b23	0.1323667
96	0x3e0c9d6b	0.13731925
97	0xbdd9f5b8	-0.1064257
98	0x3f1550e7	0.5832657
99	0x3ee08480	0.4385109
100	0xbda7be70	-0.0819062
101	0x3d592c90	0.053021014
102	0xbec65150	-0.38733912
103	0xbe8963f6	-0.26834077
104	0xbec357a1	-0.38152793
105	0xbf14c088	-0.5810628
106	0x3f3509ed	0.7071827
107	0x3efea31e	0.49733824
108	0x3f790c1f	0.9728412
109	0xbf646f0d	-0.8923195
110	0x4095468b	4.664861
111	0x3d4d33d0	0.05009824
112	0xbf180963	-0.59389323
113	0x3e0a51b3	0.13507728
114	0x3d7651b8	0.060136527
115	0x3e7bf851	0.24606444
116	0x3e8928a4	0.2678882
117	0xbe4006f4	-0.18752652
118	0x3f0f7828	0.5604272
119	0xbe8abdcb	-0.27097926
120	0xbe27a2b2	-0.16370657
121	0x3f0c2248	0.5473981
122	0xc0b44fef	-5.6347575
123	0x3db53cad	0.088494636
124	0xbf27de81	-0.6557389
125	0x3e5db28f	0.21650146
126	0xbe9be595	-0.30448595
127	0xbe354690	-0.17702699

fc1.bias f4 [32]
0	0xbf02987a	-0.5101391
1	0x3f37adfa	0.7174984
2	0x3f4a950e	0.7913369
3	0x3f913c08	1.1346445
4	0x3f46c35e	0.77641857
5	0x3fad4c40	1.3538895
6	0x3f8652b6	1.0493991
7	0x3ebe8a52	0.37214905
8	0x3f5948fe	0.84877
9	0x3f8d70b4	1.1050019
10	0x3f778e22	0.9670125
11	0x3ba203e9	0.004944314
12	0x3dd3bd6a	0.10338862
13	0x3fa3f9bb	1.2810587
14	0x3f78afa8	0.9714303
15	0x3f9117b0	1.1335354
16	0x3e3c83ff	0.18409728
17	0x3fa3df92	1.2802603
18	0x3f5701e5	0.83987266
19	0x3f900749	1.1252223
20	0x3fb0558a	1.3776104
21	0xbc7b17e3	-0.015325519
22	0xbc2da6a4	-0.010598812
23	0xbd24e09e	-0.040253274
24	0x3f799b7a	0.97502863
25	0xbef1cf9c	-0.47228706
26	0x3f8e3f95	1.1113154
27	0xbf0aa187	-0.5415272
28	0x3f7bb23e	0.9831885
29	0x3fa70e1b	1.305118
30	0xbf1a47a6	-0.60265577
31	0x3f8f2cc1	1.1185533

fc2.weight f4 [32, 32]
0	0xbd667e24	-0.05627264
1	0xbd54f800	-0.051994324
2	0xbd98b340	-0.07456064
3	0x3de74019	0.112915225
4	0xbde1e10a	-0.11029251
5	0xbdbd30c0	-0.09237814
6	0xbdcddd2a	-0.10051949
7	0xbd89a412	-0.06720747
8	0x3e2f28e9	0.1710545
9	0x3b4fd36b	0.0031711708
10	0x3e0e0b28	0.13871443
11	0x3dcb4daa	0.099269226
12	0x3d326dec	0.04356186
13	0xbe2b439d	-0.16725011
14	0xbd06682d	-0.032814194
15	0x3e1fbcd2	0.15599373
16	0x3ccef840	0.02526486
17	0xbcd80c2c	-0.026372992
18	0xbe1414e5	-0.14461096
19	0xbdabbb46	-0.08385329
20	0xbe0f956c	-0.14021844
21	0x3e088dbb	0.13335316
22	0xbdde4c6b	-0.10854419
23	0x3b3e5ec0	0.0029048175
24	0xbe1ecf48	-0.15508759
25	0xbd95cde1	-0.07314659
26	0xbd52d1bf	-0.05146956
27	0x3e275ef9	0.16344823
28	0x3e0c81c3	0.13721375
29	0xbde79649	-0.113079615
30	0x3db9f342	0.09079601
31	0xbcde082c	-0.027103506
32	0xc0be1426	-5.9399595
33	0x3f0a96fe	0.54136646
34	0xc04aaea3	-3.166909
35	0x3f6939ae	0.9110364
36	0xc0031e57	-2.0487268
37	0x3f183288	0.59452105
38	0xbfd03a96	-1.6267879
39	0x3f523c5a	0.8212334
40	0xc01af5f5	-2.421262
41	0x3f544f6d	0.82933694
42	0x3f5a61a7	0.85305256
43	0x3e912cc7	0.28354475
44	0xbef46f41	-0.4774113
45	0x3f84b3b5	1.0367342
46	0x3f5d2fc8	0.86401033
47	0x3f1376fa	0.5760342
48	0x3f73a4f0	0.9517355
49	0x3f851886	1.0398109
50	0x3f2fa19e	0.68605983
51	0x3f86aba0	1.0521126
52	0x3f525488	0.82160234
53	0xc06bb511	-3.6829264
54	0xbfef9ed8	-1.872035
55	0xc0652e35	-3.5809453
56	0x3f7de403	0.99176043
57	0xbd835186	-0.06412034
58	0x3f3ed1e2	0.74539006
59	0xc0837951	-4.108559
60	0x3f2bcfb5	0.6711381
61	0x3f590092	0.84766495
62	0xc097e785	-4.7470117
63	0x3f0f9963	0.56093425
64	0xbe1bb5ef	-0.15206121
65	0xbcd679b8	-0.026181087
66	0x3cad7520	0.021174014
67	0xbdb60cea	-0.08889182
68	0xbdddf87d	-0.10838411
69	0xbe4d62cb	-0.20057218
70	0x3d16fc86	0.03686192
71	0x3e04c715	0.12966569
72	0x3e16f025	0.14740045
73	0xbca8a0d1	-0.020584496
74	0x3d51f81f	0.051262017
75	0x3d21a060	0.039459586
76	0xbded008c	-0.1157237
77	0x3dfdfb44	0.12401441
78	0x3da12692	0.07868685
79	0x3aec2006	0.0018014915
80	0xb6a38000	-4.8726797e-06
81	0xbe3f49f7	-0.18680559
82	0xbe00eb6a	-0.12589803
83	0xbe111794	-0.1416915
84	0x3db28f53	0.08718743
85	0x3e12e988	0.14346898
86	0xbe0d1b40	-0.13779926
87	0xbe1c1f14	-0.1524623
88	0xbd77e061	-0.06051672
89	0x3d590960	0.052987456
90	0xbe04b974	-0.1296137
91	0x3d70ba3c	0.058771357
92	0xbe1ccc54	-0.1531232
93	0xbe37fcf5	-0.17967589
94	0x3da18ec3	0.07888558
95	0x3dd09e03	0.10186388
96	0xc0bc2fa6	-5.8808165
97	0x3f3cc0bd	0.73731595
98	0xc04ca88a	-3.1977868
99	0x3f8fd73b	1.1237558
100	0xbff55beb	-1.9168676
101	0x3f65faf7	0.89836067
102	0xbfda051c	-1.7032809
103	0x3f4729a6	0.77797925
104	0xc0217de3	-2.5233085
105	0x3f3a0851	0.7266894
106	0x3f50273f	0.81309885
107	0x3edb6b66	0.42855376
108	0xbe8d0800	-0.27545166
109	0x3f7d0daf	0.98849005
110	0x3f5977b2	0.84948266
111	0x3f56e07d	0.8393629
112	0x3f813ac4	1.0096059
113	0x3f8527d2	1.0402777
114	0x3f667608	0.9002385
115	0x3f90712f	1.1284541
116	0x3f9193ae	1.1373193
117	0xc073febf	-3.8124235
118	0xbfea8dab	-1.8324484
119	0xc05fda43	-3.4976966
120	0x3f98399b	1.189258
121	0x3ca1b808	0.019741073
122	0x3f570d1c	0.8400438
123	0xc07aac1c	-3.9167547
124	0x3f63bb23	0.8895742
125	0x3f6cd968	0.92519236
126	0xc096036b	-4.687917
127	0x3f51563b	0.817722
128	0xc09a6b65	-4.8256097
129	0x3f028cfc	0.50996375
130	0xc051eb36	-3.2799811
131	0x3f77c288	0.96781206
132	0xbffc3b67	-1.9705628
133	0x3f157a59	0.5838981
134	0xc00e5788	-2.2240925
135	0xbedd93dc	-0.4327687
136	0xc02ee35d	-2.7326272
137	0x3f1b64c4	0.6070063
138	0x3f3efe33	0.7460663
139	0xbf072b88	-0.528008
140	0xbfa755f2	-1.3073103
141	0x3f4ae289	0.79251915
142	0x3f2ccb58	0.6749778
143	0x3f0f18b5	0.55897075
144	0x3eacce0c	0.3375095
145	0x3f246cb4	0.6422837
146	0x3f1d1bf9	0.6137081
147	0x3f737b2c	0.9510982
148	0x3f152eed	0.5827473
149	0xc06867f7	-3.6313455
150	0xc03443d9	-2.816641
151	0xc09ffec0	-4.9998474
152	0x3f52f4af	0.8240461
153	0x3e2b55d9	0.16731967
154	0x3f5e247e	0.8677443
155	0xc07a4a8c	-3.9108
156	0x3f22c344	0.635792
157	0x3f503b86	0.81340826
158	0xc063eaae	-3.5611987
159	0x3f2940c7	0.6611447
160	0xbd6342fa	-0.055483796
161	0xbd7aae7c	-0.061201558
162	0x3dec6662	0.115429655
163	0x3dec98e8	0.11552602
164	0xbd8ee449	-0.06977136
165	0x3ccfb443	0.02535451
166	0xbdf1b49b	-0.11802026
167	0x3cb4dc70	0.022077769
168	0xbd2beb80	-0.041972637
169	0xbdb0dfaf	-0.08636414
170	0xbe1a1dae	-0.15050384
171	0x3dda1b12	0.106496945
172	0x3dd384be	0.10328053
173	0xbd0771e0	-0.033067584
174	0xbd75deb1	-0.06002683
175	0xbe0e502b	-0.13897769
176	0xbdf74f86	-0.12075715
177	0xbc7e5efd	-0.015525577
178	0x3bf61362	0.007509635
179	0x3d80cefe	0.062894806
180	0xbe4a10e0	-0.19733
181	0x3dee1371	0.11624802
182	0x3c70bf91	0.0146941105
183	0x3dd0990b	0.10185441
184	0xbe4c9daf	-0.19982027
185	0x3df8f882	0.12156774
186	0xbdd96b57	-0.106161766
187	0x3da5bc08	0.08092505
188	0xbd90bd21	-0.070673235
189	0x3d5b3376	0.053515874
190	0x3e078465	0.13234098
191	0x3d838afb	0.06422993
192	0xc09919b8	-4.7843895
193	0x3e8e7af1	0.27828172
194	0xc0411747	-3.0170457
195	0x3ed9ece4	0.42563546
196	0xc034e5b0	-2.826519
197	0x3e8d7d12	0.27634484
198	0xc02f4e8c	-2.7391691
199	0xbf45342e	-0.77032745
200	0xc00d846e	-2.2112079
201	0x3ec7cb2e	0.390222
202	0x3edf4e35	0.43614355
203	0xbf4f3c6e	-0.80951583
204	0xbf8b3b7c	-1.0877528
205	0x3f0ac699	0.54209286
206	0x3f0307a2	0.5118352
207	0x3ebfd9e0	0.37470913
208	0x3e502536	0.20326695
209	0x3ebf7d2f	0.37400195
210	0x3ef85369	0.48501137
211	0x3f16c5c5	0.5889552
212	0x3ede7619	0.43449476
213	0xc0a8583b	-5.2607703
214	0xc0502749	-3.2523978
215	0xc088b4f8	-4.272091
216	0x3f149d64	0.5805266
217	0x3d71a2d0	0.05899316
218	0x3f16c33b	0.5889165
219	0xc0809d80	-4.019226
220	0x3f1bae97	0.6081328
221	0x3f1e9cbd	0.61957914
222	0xc082cf06	-4.0877714
223	0x3e751ac9	0.23935999
224	0xbe34a26d	-0.17640086
225	0x3dc98de6	0.09841518
226	0xbe084fad	-0.13311644
227	0xbdc79bfc	-0.097465485
228	0xbdf8e118	-0.12152308
229	0x3e0ecb84	0.13944823
230	0xbe293902	-0.16525653
231	0x3df2af8e	0.11849891
232	0xbd3b3298	-0.045702547
233	0xbe08b1f2	-0.13349131
234	0x3df88c19	0.121360965
235	0xbd3f1bf0	-0.046657503
236	0xbbbf6bc0	-0.005841702
237	0xbaadb129	-0.001325165
238	0x3c449319	0.011997961
239	0xbe181710	-0.14852548
240	0x3e06d15f	0.13165806
241	0x3c95438e	0.01822069
242	0xbd8f9c01	-0.07012177
243	0xbe2faa94	-0.17154914
244	0xbe0bd5f2	-0.13655832
245	0x3e170463	0.14747767
246	0xbe3162fb	-0.17322914
247	0xbe0d3352	-0.13789108
248	0x3c0b35b8	0.008496694
249	0x3dd70e0e	0.105007276
250	0xbe0c9496	-0.13728556
251	0xbcab6a88	-0.020924821
252	0x3c17d137	0.009266189
253	0xbddc6b63	-0.1076267
254	0x3e040693	0.12893133
255	0xbdd1964f	-0.10233747

fc2.bias f4 [32]
0	0x3dddf375	0.10837451
1	0x3f82267e	1.0167997
2	0x3dbc2fab	0.091887794
3	0x3f5a63ad	0.85308343
4	0x3f46cb4a	0.77653944
5	0xbe0abc87	-0.1354848
6	0x3eb47fa7	0.3525364
7	0x3e00be1f	0.12572525
8	0x3ef1d540	0.4723301
9	0x3f556539	0.8335758
10	0xbbf70663	-0.007538603
11	0x3e580a72	0.21097735
12	0xbdbca6bf	-0.09211492
13	0x3f8c8bc5	1.0980154
14	0xbe4f2b00	-0.20231247
15	0x3f6ffdd2	0.93746674
16	0x3f0fdd17	0.5619673
17	0x3ebf942b	0.3741773
18	0x3ef5dfe2	0.48022372
19	0x3ecd6b32	0.40120846
20	0x3e16b4aa	0.14717355
21	0xbe0bf72b	-0.13668506
22	0x3f47fe1c	0.78122115
23	0xbde8fa0e	-0.11375819
24	0xbe0f0e9a	-0.13970414
25	0x3e83b3b7	0.2572305
26	0x3ea805ce	0.3281693
27	0x3f445b8e	0.767022
28	0x3f61bdd8	0.88180304
29	0x3cf20c27	0.02954681
30	0xbdd72687	-0.105053954
31	0xbe4b07aa	-0.19827142

fc3.weight f4 [2, 32]
0	0xbc1f6d06	-0.009730583
1	0x4042e074	3.0449495
2	0x3dc6c3e1	0.0970533
3	0x40368e6c	2.8524427
4	0x4043d5ab	3.0599163
5	0x3dfdfa23	0.124012254
6	0x405d7b51	3.4606516
7	0xbe0a52a9	-0.13508095
8	0xbf848679	-1.0353538
9	0x3fab8dec	1.3402686
10	0x3e29a0a8	0.16565192
11	0xbe585a26	-0.21128139
12	0x3d0b82d3	0.03406031
13	0x4028b4c0	2.636032
14	0xbc7481cf	-0.014923527
15	0xc0158354	-2.3361406
16	0x4054c807	3.3247087
17	0xbfc2b610	-1.5211811
18	0x405f12ce	3.4855227
19	0x4086826d	4.203421
20	0x3dd4ea72	0.103962794
21	0xbdc3128e	-0.095250234
22	0x403f1a1a	2.985968
23	0xbcc12d28	-0.023581102
24	0xbdfdb59b	-0.12388154
25	0x3fa436fe	1.2829282
26	0x409074aa	4.514241
27	0x4054f49a	3.3274293
28	0x40369053	2.8525589
29	0x3de3c3af	0.11121308
30	0x3b86e13d	0.004116206
31	0xbda44371	-0.08020676
32	0xbd85f6ab	-0.06541189
33	0x4029cf90	2.6532936
34	0x3d761834	0.060081676
35	0x4021baa5	2.5270169
36	0x40743558	3.8157558
37	0xbd049b94	-0.032374933
38	0x4062fa8c	3.5465422
39	0xbe0d318b	-0.1378843
40	0xbfbabb86	-1.4588478
41	0xbfc54920	-1.5412941
42	0xbd5e794e	-0.054314904
43	0x3fb616b5	1.422568
44	0xbcb924c7	-0.022600545
45	0x401eb190	2.4795876
46	0xbe1191f0	-0.14215827
47	0xbf23359e	-0.6375369
48	0x4098e457	4.7778735
49	0xc0196431	-2.3967402
50	0x40ad3882	5.413148
51	0x40930058	4.593792
52	0xbd17bd98	-0.037046045
53	0xbd86519b	-0.06558534
54	0x404d5a12	3.2086225
55	0x3dab5cdd	0.08367322
56	0xbd35c114	-0.044373587
57	0x3e6cfb30	0.23142695
58	0x4096b506	4.7095976
59	0x4075486a	3.8325448
60	0x402c130b	2.6886623
61	0xbdba7d23	-0.09105899
62	0xbe16a0fe	-0.14709851
63	0xbdb287da	-0.08717318

fc3.bias f4 [2]
0	0x3f0e9376	0.5569376
1	0x3f7aa4c4	0.9790766
