saves/cartpole_dqn.pt (torch, 7967 bytes, 6 tensors)

fc1.weight f4 [32, 8]
00000000: 908a 81be 7041 fd3e f8c3 63bd e165 373e
00000010: 43a8 c5be cffa 1d3f 6650 27be e279 363e
00000020: 4f87 043e a955 063e a579 07bf 8983 d63e
00000030: 23ba a73d f3bc 3ebe 60e7 aebe 73ab 083f
00000040: dede d13d 458a 633e 8357 2bc0 0d5c b73d
00000050: 7833 0bbe e8ec 2abe 01b2 ecbf fb66 09bf
00000060: 7e08 243d 1d46 843e f842 bf3c 072b 3f3e
00000070: c2f6 a5be fdd1 1cbe b104 fdbd 9eba f23c
00000080: b601 5fbd f184 f13e bdda 30bf 22e5 873d
00000090: 53ab 46be 5be5 49bc e9ca 53bf de49 413f
000000a0: b75c 94bd 992e 413e 6bf4 edbd 46e4 70bd
000000b0: 76ae 903d d7e3 79be 50b2 36be 130e 7d3e
000000c0: 43cb a73d 923d 6abe f259 0cbe feb7 1ebe
000000d0: afa9 5d3e b9ce 893c e5d7 e6be 0b67 2dbe
000000e0: be24 abbe be7c f7bd add5 2ebd 335b ee3c
000000f0: 272a 09bf d0e5 b7bc 08bc b2be 4b08 cabe
00000100: fd25 35be 6925 a33e 5b34 543f d567 693e
00000110: 54c4 32be ec2f c83e 8b90 b93e b39c 80be
00000120: a3e9 fdbe 1a77 4b3e 5401 0240 3614 293e
00000130: c8f3 38bd 00e0 02bd 2ed6 f63f 41b5 ef3e
00000140: 3f29 23bd 3c07 813c bbcf 963e b484 e0be
00000150: fca3 6a3e 1091 ee3b 8d34 463f 5f23 10bf
00000160: 4181 0f3f 8113 cd3d 8c9f 5dbf df14 823d
00000170: 8698 93bd f7ae b63e 3369 fbbe 0809 82bc
00000180: 8f9c 99be bcbe bfbe 501d d3bf f9bb bbbe
00000190: ff8e 9dbe d6c2 fcbe 3b88 a7bf 3f14 acbe
000001a0: 071f 543f f0b2 843e 2554 3c3f efd0 753d
000001b0: 1bc9 8b3e e7ae 2e3d ee6b 383f 1806 e93e
000001c0: eaf2 b4be adb2 3d3e 13aa b63e a450 eebd
000001d0: c86b b63d ad23 e3bd 64df 763e f719 1e3e
000001e0: e73e 4a3e 4240 83be ac7b 73be 1a2a fc3d
000001f0: 8ba9 883e 7ef5 d6bd 84c0 fcbe b9c7 9e3b
00000200: 451e 363e 4b77 b9bb 5f3e d13f 8cd5 db3d
00000210: 61e8 3d3e 9bd0 6b3d 7677 b03f c6b2 023f
00000220: 449a d53b bf29 843e 24b6 a03e 1715 103d
00000230: a91a 61be b3c1 f8bd 6a4b bebd 0f07 b33e
00000240: a820 153e 37b2 2abe 2d14 b5bf 03b4 07bd
00000250: 24d8 463e 5feb 05bf cd23 2abf 0de5 013e
00000260: a873 a1be 6171 cfbd 9ccd 0440 b9c1 ddbc
00000270: 256d 56be ff11 873e e356 1340 29a5 433f
00000280: aea0 0a3e af6f 6cbe 3a56 29be 4f91 88be
00000290: 7b92 82be 30e5 f3be afc2 7abe 326a 41bd
000002a0: e81b 6a3e 153f b8bd 98b3 f73e 0067 523e
000002b0: 4b35 a7be cc45 99bd 7cdb b43e 8f5e 4abe
000002c0: 2dd6 4d3e d939 8fbe 9999 1d3d 6975 c13d
000002d0: a6df 9ebe 4c8a 983e f43a ff3d 9c47 0f3e
000002e0: a591 8ebe 4893 b5be 190a c63f 197f 653c
000002f0: d67a 533d 8eb1 b9bd 270b be3f ea84 d2bc
00000300: 620d 41be 2321 93bd f587 c6bf 0bf6 a3bd
00000310: 8a63 003d 521c e63d 4de4 b8bf feb3 58be
00000320: e201 95be e92f 363b 3d53 a53e bef2 2fbf
00000330: 8e93 00be e24d 493e affd 3ebe 06d4 4bbf
00000340: 6344 333e 4a00 cabe 691f cfbe fc6f 56be
00000350: 70e0 e83d dcfd aabd 0b87 e73d 3cf9 3bbe
00000360: ae2c bdbe 382f 0b3e d515 023f c456 8b3c
00000370: 5ed4 2f3d 6a30 e23b 46e4 a33d d0b2 46be
00000380: 5a84 14be 5c22 d83e 22de 0740 2f3b a23e
00000390: e198 2cbe 7147 49be 5b61 b93f 4c3a f63d
000003a0: f9b6 22be 8b61 38be 6444 9cbe ec2d c9bd
000003b0: 9590 89bd 5177 7e3e 6bf7 d0be 5222 e13d
000003c0: dfd4 98be cd45 afbd ba57 683f 08b7 bf3c
000003d0: 5c32 23bf be82 21be 9157 a33f 97f9 be3e
000003e0: 331f 6d3e e98a 53bd 8d48 20c0 e3c1 ddbd
000003f0: 958e 44be ed79 163d 9e93 0ec0 4fd8 a3be
-0.25301027 0.49463987 -0.055606812 0.17909957 -0.38604936 0.6171083 -0.16339263 0.17819932
0.12942241 0.13118614 -0.5291999 0.41897228 0.081898 -0.18626766 -0.341609 0.5338661
0.10247587 0.22220714 -2.6772163 0.08953104 -0.13593853 -0.16691935 -1.8491822 -0.5367276
0.04004716 0.25834742 0.023347363 0.18668757 -0.32414824 -0.15314479 -0.123544104 0.029630002
-0.05444499 0.4717174 -0.6908377 0.066355005 -0.19401293 -0.012322749 -0.8273149 0.7550334
-0.072442465 0.18865432 -0.11618885 -0.05881145 0.07064526 -0.2440332 -0.17841458 0.247124
0.08193066 -0.2287505 -0.13706186 -0.15499875 0.2164676 0.016822206 -0.4508659 -0.16933839
-0.3342647 -0.120843396 -0.042684246 0.029096222 -0.53579944 -0.02244845 -0.3490908 -0.39459452
-0.17690273 0.3186448 0.8289239 0.22793515 -0.17457706 0.3909906 0.3624309 -0.25119552
-0.49592313 0.19869652 2.031331 0.16511616 -0.045154363 -0.031951904 1.9284112 0.46817973
-0.039834257 0.01575052 0.2945536 -0.43851244 0.22914118 0.0072804764 0.77423936 -0.5630397
0.560566 0.10013486 -0.86571574 0.06351637 -0.07206826 0.35680363 -0.49103698 -0.015873447
-0.30002257 -0.37450206 -1.649332 -0.3666685 -0.3077316 -0.49367398 -1.3088449 -0.33609197
0.82859844 0.25917768 0.73565894 0.060013708 0.2730187 0.04264727 0.7203969 0.45512462
-0.3534158 0.1852519 0.3567663 -0.11636475 0.089072764 -0.11090789 0.24108654 0.15439592
0.19750558 -0.25634962 -0.23777646 0.12312718 0.2669185 -0.10496043 -0.49365628 0.004845586
0.17784984 -0.005659973 1.6347159 0.1073409 0.18545677 0.05757199 1.3786457 0.51054037
0.006518634 0.258131 0.31388962 0.035176363 -0.21982826 -0.1214632 -0.09291728 0.34966323
0.14563239 -0.16669546 -1.4146782 -0.033130657 0.19418389 -0.5231227 -0.6646088 0.12685032
-0.3153355 -0.10129047 2.0750494 -0.027069913 -0.20940073 0.26380917 2.3021781 0.7642389
0.13537857 -0.23089479 -0.16536799 -0.26673362 -0.2550238 -0.47635794 -0.24488328 -0.047220416
0.22862208 -0.08996407 0.48379207 0.20547104 -0.32657847 -0.07484016 0.35323703 -0.19762634
0.20101233 -0.27973822 0.03847656 0.09446222 -0.31030005 0.29793012 0.12462416 0.1399216
-0.27845493 -0.3546393 1.5471832 0.014007353 0.051630817 -0.09067069 1.4847153 -0.025698144
-0.18852761 -0.07184055 -1.5510241 -0.08005913 0.031344928 0.112358704 -1.4444672 -0.21162412
-0.29103 0.0027799553 0.32290068 -0.6872977 -0.12556288 0.19658616 -0.1865146 -0.796204
0.17506556 -0.39453346 -0.40453652 -0.20941156 0.11370933 -0.08349201 0.11305054 -0.18356794
-0.3694815 0.13592231 0.50814563 0.017009147 0.04292714 0.006902744 0.08002524 -0.19404149
-0.14503613 0.42213714 2.122933 0.31685778 -0.16855194 -0.19656159 1.4482836 0.12022838
-0.15890111 -0.1800596 -0.30520928 -0.09823212 -0.0671703 0.24850203 -0.40813765 0.10992874
-0.29849908 -0.08558235 0.9075886 0.023402706 -0.6374872 -0.1577253 1.2761098 0.37299797
0.23156433 -0.051646147 -2.5044281 -0.108279966 -0.19195016 0.03673737 -2.2277598 -0.32000968

fc1.bias f4 [32]
00000000: 283d 343f 1472 a33e fb62 1abf 9090 4e3f
00000010: c0b3 4ebd 07b8 3c3f 20de eb3e df6b 59bf
00000020: 5f8d 493e ebee 45bf 5759 453e 6410 7dbf
00000030: ec5a fdbe 6352 4e3d 477f 233f 31d9 2e3f
00000040: 49e4 4bbf f010 2b3f d1ff c53e fc53 33bf
00000050: 6f3a 313f a5e1 3f3f 7913 273f 49ea d53e
00000060: 52dd 1c3f 78ed b83d d5f9 273f ee70 4b3f
00000070: 8865 35bf d924 4d3f 7857 4abf 992e 59bf
0.7040582 0.31922972 -0.6030728 0.80689335 -0.05046439 0.73718303 0.46067905 -0.84930223
0.19682835 -0.77317685 0.19272362 -0.98853135 -0.4948343 0.05037154 0.63866085 0.6830016
-0.7964521 0.6682272 0.38671735 -0.70050025 0.6922979 0.7495368 0.6526409 0.41780308
0.6127521 0.090296686 0.6561559 0.7946919 -0.7085805 0.8013435 -0.79039717 -0.8483673

fc2.weight f4 [32, 32]
00000000: 8e75 60bd 59ad 0fbe c3e9 133e fc43 16bd
00000010: 41f4 2c3e 9819 0fbe f231 03be 9fd2 ebbd
00000020: 7002 c53c 3b17 d3bd 68ed 53bd 8c53 18bd
00000030: b429 10be bab8 13be 67eb 80bd 88e1 ffbd
00000040: 59e7 343e d9db 2c3e 22ac a53d 608e 29be
00000050: b8d4 363d 4c90 0abe 3089 04bc 30dc 2abd
00000060: c693 9ebd 9e27 ec3d d85e b0bc e80d 35bd
00000070: d873 cf3c c4ea 203d e9af 1e3e 68e7 c63c
00000080: f314 b53e 4b13 eebd a0fc 97bf aca3 bf3e
00000090: 7d50 26be ba48 4c3e 2921 a53e 2817 5cbe
000000a0: 2b31 e23e f402 65c0 9a17 903d 0bad f7be
000000b0: b124 08bf f205 cbbe a46d 833e 3104 5c3d
000000c0: 3c66 09bf e4e2 573e bfb1 573d 4762 25c0
000000d0: 8d41 d63e 7a73 3b3e 355b 193e 7dc2 1d3f
000000e0: b2d9 223c 5509 ab3e c979 b23e 8a2a bf3e
000000f0: 96c5 11c0 18b8 d23e 0b34 a9bf 0848 3dc0
00000100: 1434 a3bd 1a84 823d 3e14 b83d d70a 10be
00000110: 9089 19bd f8c8 c2bd 8726 2dbe 8073 1fbd
00000120: f30e 1b3e 2003 45bd 4054 893b f272 9c3d
00000130: 95a4 0c3e e91c 04be eafc 84bd 3ebe b3bd
00000140: c0c4 c0bc 473f 343e 403d fb3c 43b7 2b3e
00000150: 6892 f8bc 24e2 1cbe b41d 02bd 552e 0abe
00000160: 1a0c 2fbe a81a 8cbc 285b cfbc 485c c83c
00000170: dd0d 003e b430 03be d84a 873c fa33 f1bd
00000180: e885 213f 8fa5 933f cb7e 603e 2aa7 5a3f
00000190: 6625 903f 7250 5a3f 1ff4 e43e e231 a8be
000001a0: d5e2 0bbf de29 6bc1 49cc 553e 279a 4abe
000001b0: a3a3 0fbf 4813 2bbf 5c83 213f e51d dd3e
000001c0: f9fb 8fbf b693 193f d5e7 193f 5a9b 53c1
000001d0: f74a 1b3f dbf8 a93e 2582 283f 6b11 1dbe
000001e0: 3883 ce3e f3f6 813d 3c02 f63e 1745 b13e
000001f0: 40ee 98c0 6b0b 503f 70c6 a1c0 443d 1ec0
00000200: a953 a73e 2de3 cebd c1f6 98bf b23d 333e
00000210: fe06 bf3e 1be5 153e 90dc 913e 3b38 88be
00000220: e115 bd3e 3c0e 3dc0 1263 0bbe 4f3d f6be
00000230: ec8e eebe 295c a7be 62e9 1e3e 6551 393e
00000240: f4e8 0abf cdb6 203e 9f7d 593e a681 d4bf
00000250: aa2e d03e 4a28 373e 133c b53e 6bd3 ce3e
00000260: 189d 9a3d c844 133f 1d38 d63e f2b2 f03e
00000270: f58e 0dc0 f43e af3e ec1a 8bbf 68c8 25c0
00000280: f26e 153f 4d46 543e 1719 f1bf 6c19 d53e
00000290: 47d6 a03e 5a52 013f d5cf 8a3c 6af1 b0be
000002a0: b46e 01be 3819 26c0 cc11 4cbe 59ea b6bf
000002b0: d967 32bf d3b8 12be 3ba7 7a3e 1e84 a53e
000002c0: bb3e cbbe 9986 fe3e d7e3 803e 5e91 95bf
000002d0: 341c 823e d4bb c13e c7d1 b33e 3dec 1d3e
000002e0: ceb9 33bd fac6 483d 18da 823d 6b29 8c3e
000002f0: a4d0 cebf b411 993e 7693 3fbf 6ba2 83c0
00000300: 5c00 cb3e ee28 9e3e cd3a c5c0 a20a fc3e
00000310: 3304 7b3e 228c 063f e734 40bd 14ca fcbe
00000320: 9a90 c7bd bb18 27c0 a6f0 2b3e 4862 6cbf
00000330: d036 33bf 1cfa dabe 5f49 c73e 42f8 9f3e
00000340: 0107 48bf 2fbe 5d3e 5b50 99bd c424 21bf
00000350: 2be8 e73e 13a0 9c3e a11c 5b3e e3e3 db3c
00000360: 517d 88be 50fd be3d 4723 c63e 3064 f83e
00000370: 1a73 29c0 2a79 c13e bd31 c9bf 11c6 9cc0
00000380: a5a5 ce3d ee49 23be f48a b03d 0799 0dbe
00000390: a5fe 75bd cfe8 a83d cf86 e43d 91b0 1c3e
000003a0: f7ba 2cbc 971b 383d 16d1 f7bd 634d 73bb
000003b0: f349 af3c 8669 35be afe1 05be a3a8 053e
000003c0: aaa9 51bd 235b ac3d 7c71 97bd 0ba1 1d3e
000003d0: e69a 49be 633e a2bd edfa 81bd a93f 573d
000003e0: 35ec 9bbd 8e48 b1bd ca37 0a3d c201 4fbe
000003f0: f744 1fbe fec1 3abe 317b 663c 93c4 acbd
-0.05479961 -0.1403097 0.14444642 -0.03668593 0.1689005 -0.13974607 -0.12812021 -0.11514782
0.024049014 -0.10307165 -0.05174008 -0.03718905 -0.14078408 -0.14425936 -0.062948994 -0.124941885
0.17666377 0.1688074 0.08089472 -0.16558218 0.04463646 -0.13531607 -0.008089349 -0.041713893
-0.07743029 0.11530994 -0.0215296 -0.044202715 0.025323793 0.03928639 0.15496792 0.024280265
0.35367545 -0.116247736 -1.187397 0.3742956 -0.16241641 0.19949618 0.32251862 -0.21493208
0.44178137 -3.5783052 0.07035752 -0.4837421 -0.53180987 -0.39652973 0.25669587 0.053714935
-0.5367162 0.21082646 0.052659746 -2.5841234 0.41846886 0.1830577 0.14976199 0.6162489
0.009939598 0.33405557 0.3485854 0.37337142 -2.2776847 0.41156077 -1.3219007 -2.9575214
-0.079689175 0.063728526 0.08988236 -0.14066635 -0.037484705 -0.09510988 -0.16909228 -0.03892851
0.15142421 -0.048098683 0.0041909516 0.076391116 0.13734658 -0.12901653 -0.06493552 -0.0877652
-0.023531318 0.17602263 0.030668855 0.16769128 -0.03034325 -0.15320641 -0.03176661 -0.13494237
-0.1709446 -0.017102554 -0.025312021 0.024458066 0.12505288 -0.12811548 0.01651518 -0.11777492
0.6309495 1.15349 0.21923368 0.8541132 1.1261413 0.85279 0.447175 -0.32850558
-0.54642993 -14.6977215 0.2087871 -0.19785367 -0.56109065 -0.66826296 0.63091063 0.4318687
-1.1248771 0.59991014 0.6011937 -13.225428 0.6066126 0.33197674 0.65823585 -0.15338676
0.40334487 0.0634593 0.4804858 0.34623024 -4.7790833 0.8126742 -5.0554733 -2.4724894
0.32681015 -0.10101924 -1.1950303 0.17504004 0.37310022 0.14638178 0.28488588 -0.266054
0.36930755 -2.9539938 -0.13612011 -0.4809365 -0.46593416 -0.326875 0.15518716 0.18097456
-0.5426171 0.15694733 0.21239327 -1.6602066 0.40660602 0.17886463 0.35397395 0.40395674
0.075494945 0.57526827 0.41839686 0.47011524 -2.2118504 0.34227717 -1.0867591 -2.5903568
0.58372414 0.20729943 -1.8835782 0.41620958 0.3141348 0.50516284 0.016944805 -0.34559184
-0.12639886 -2.5952892 -0.19928664 -1.4290267 -0.6968971 -0.14328317 0.24477856 0.3232736
-0.39696297 0.49712065 0.25173828 -1.1684988 0.25412142 0.37838614 0.35120985 0.15422149
-0.04387837 0.049017884 0.06389254 0.2737535 -1.6157422 0.2989632 -0.7483438 -4.1135764
0.39648712 0.30890602 -6.163428 0.49226862 0.2451332 0.52557576 -0.04692545 -0.49372923
-0.097443774 -2.6108844 0.16791019 -0.92337465 -0.7000551 -0.42768943 0.38923165 0.31244093
-0.7813569 0.2165458 -0.0748603 -0.62946725 0.45294318 0.30590877 0.2139764 0.026842063
-0.2665811 0.09325659 0.3869879 0.48513937 -2.6476502 0.37787753 -1.5718304 -4.899178
0.10090188 -0.1594617 0.08620253 -0.13827907 -0.0600573 0.0824753 0.11158525 0.1530173
-0.010542623 0.044948187 -0.12100427 -0.0037124984 0.021397566 -0.17716035 -0.13074373 0.13052611
-0.051187195 0.084158204 -0.07394692 0.15393464 -0.19687995 -0.079220556 -0.063466884 0.052550945
-0.07613412 -0.08656417 0.03374461 -0.20215514 -0.15553652 -0.18238065 0.014067457 -0.08435931

fc2.bias f4 [32]
00000000: e8f3 e1bd 9c12 013f 28be afbc 85ee 113f
00000010: fc6a db3e e2d7 0b3f 4932 043f 98ad aa3d
00000020: 52c0 b63e 25be c4bd 27c6 d03e 7824 113f
00000030: 3f08 dd3e a18b edbd ce5e 233f 4429 143f
00000040: a4a1 163f be01 f23e 4b78 063f f212 2a3a
00000050: 21be 183f a7c1 eb3e 7152 4dbd f588 ef3d
00000060: d8bb fe3e 4780 d3bb e927 df3e 9ab3 ea3e
00000070: a1c8 5bbc 903e 143f 0cd7 243f 043d b7be
-0.110328496 0.5041902 -0.021452978 0.57004577 0.4285506 0.54626286 0.5163923 0.08333892
0.35693604 -0.0960658 0.40776178 0.5669627 0.43170354 -0.11598898 0.63816535 0.57875466
0.58840394 0.47266954 0.525273 0.00064878084 0.59665114 0.46046183 -0.05012745 0.11696044
0.49752688 -0.006454501 0.43585137 0.4584015 -0.013414533 0.5790796 0.64390635 -0.3578874

fc3.weight f4 [2, 32]
00000000: e053 31bd 88e1 ce3f b86b 1fbe 6879 823f
00000010: f576 753f d27b 9e3f 4f13 11bf 4c41 913d
00000020: 39b8 d73f 795e 473d 079a b23f 6186 893f
00000030: 31be aabf 1b40 93c0 f622 0640 b15d a6bf
00000040: aa0d c83f 91c0 e43f e7f2 d13f 5c17 9b3f
00000050: 71b5 e23f f505 3540 c3de dfbd a5de f2bd
00000060: 70a1 833f f1a8 d5bd a556 213f 046f 503f
00000070: f172 f83c eeb2 4d3f 5ce6 cf3f 2c91 eebf
00000080: 24a0 6f3d aaee 2c3f c0ea bdbd 74d6 32c0
00000090: e517 843f 1f3e 9c3f e21c ec3f 700b 0fbe
000000a0: d4c8 ba3f a1f9 e8bd ace6 cd3f c3ca e83f
000000b0: bd6e db3f c2a0 19be d2eb 913f 9997 e63f
000000c0: ebc9 e83f 89e3 c53f 66bc ac3f f090 08c0
000000d0: 0f0e dc3f 6c18 d8bd f4a6 a3bd b922 fbbd
000000e0: 06c7 913f ad21 f8bc fba8 9d3f b536 8f3f
000000f0: ebba d6bd 15c4 8b3f c5c9 ba3f 1b37 2cc0
-0.04329288 1.6162577 -0.15568435 1.01933 0.9588464 1.2381537 -0.5667009 0.070925325
1.6853095 0.04867408 1.3953255 1.0744134 -1.3339292 -4.6015754 2.0958838 -1.2997342
1.562917 1.7871267 1.6402253 1.2116504 1.7711622 2.8284886 -0.1093116 -0.11858872
1.0283642 -0.10432614 0.63022834 0.81419396 0.030328246 0.8035115 1.6242175 -1.8638053
0.05850233 0.6755167 -0.09273291 -2.7943392 1.0319792 1.2206458 1.8446314 -0.13969207
1.4592538 -0.11375738 1.608602 1.8186878 1.714317 -0.1500273 1.1400092 1.8015014
1.818662 1.5460063 1.3494995 -2.1338463 1.719179 -0.10551533 -0.07990828 -0.12262482
1.1388862 -0.030289495 1.2317194 1.118857 -0.104848705 1.0919214 1.4592825 -2.6908634

fc3.bias f4 [2]
00000000: cda6 d43e 9ffc c63e
0.4153351 0.3886461
