saves/cartpole_dqn.pt (torch, 78111 bytes, 6 tensors)

fc1.weight f4 [128, 16]
0.10105756 -0.11748433 0.081045955 0.1587843 -0.15657866 -0.1140272 -0.06618366 -0.037324816
0.0741384 0.058354855 0.007798195 0.24133638 0.106416315 0.029041499 -0.00026011467 0.117152244
0.022631735 -0.16738975 0.2452797 0.046194762 -0.13600987 0.015181363 -0.21225879 0.16572663
0.07521275 0.24862358 0.13454646 -0.08412337 -0.041560262 -0.08292675 0.0743396 -0.15203962
-0.16884384 -0.13457894 -0.029247612 0.22420105 -0.24949372 -0.23893139 -0.04163474 0.22783822
-0.064635605 -0.11392453 0.06719178 -0.039983988 -0.24157917 0.033393234 -0.0041357577 0.10108188
0.1292586 0.01800403 0.12056422 0.22495052 -0.032380998 -0.22621137 -0.15302747 -0.067463845
0.04073015 -0.07985821 -0.20044795 -0.10479182 -0.14336893 0.11138746 -0.0037508905 0.10617146
-0.07713613 0.11422324 -0.104439795 0.2230629 0.23798308 0.06669235 0.13927451 -0.03788528
-0.12110224 0.15034255 -0.22397771 -0.21264902 0.112751454 -0.0633629 -0.08613336 0.19384179
0.17241907 0.19787902 0.009206682 -0.0024021864 -0.0044826567 -0.08694467 -0.09020454 -0.092098
-0.2163148 0.0140833855 -0.1665349 -0.11904958 0.14207795 -0.1719023 -0.0109013915 0.08982909
0.18741319 0.23047525 0.12039256 -0.017056316 -0.050262183 0.14615232 -0.20752457 0.1172286
0.01972866 0.036439568 -0.15043172 -0.23357657 -0.12907839 -0.2492148 -0.040700138 -0.17483065
-0.028820872 -0.20064941 -0.13166478 0.1896936 0.043099254 -0.05033183 0.063889116 0.02006504
-0.21233904 -0.10603094 -0.14683828 0.11560616 -0.08822486 -0.22830933 -0.22943175 -0.20136896
-0.24195391 0.14226806 -0.22551575 -0.13227758 0.19749442 -0.23276249 -0.24112117 0.10458434
0.074110895 0.010243088 -0.057995796 -0.08883828 0.06450859 0.13228217 -0.2226825 0.048081398
-0.12803936 0.24374974 -0.17002714 0.18666404 -0.24441138 -0.13465661 -0.09427759 0.1160056
-0.014115095 0.18816501 -0.18451789 0.18530774 0.088416725 0.17135343 0.03747672 0.22407824
0.0121744275 0.12282181 0.1662206 -0.053195 0.20038292 -0.11835572 -0.04471323 0.14277613
0.08068493 0.17718872 -0.23994234 0.2080653 -0.03458646 0.1053572 0.22226712 0.020510197
-0.15049803 -0.065461755 0.115828544 -0.0801996 -0.08826032 -0.10578862 -0.06626654 -0.1426754
0.021387607 0.04293406 -0.185245 -0.0740397 -0.20971781 0.16379833 0.06982699 -0.13458166
-0.13138872 -0.20306584 -0.24473509 0.16055939 -0.09914723 0.08340463 -0.24840727 0.12606812
-0.19941911 0.057687283 0.24342135 -0.14479801 -0.07633963 0.24427962 0.09751862 0.115469754
0.17720333 0.16698661 -0.11735293 0.1818996 0.20445323 -0.0024285913 -0.014059305 -0.071977556
0.22507265 0.039180845 -0.24920422 -0.21260875 0.066729605 0.096888006 0.07213265 0.21114093
-0.24213198 0.10087931 0.11159095 -0.15765113 -0.1106191 0.23758456 -0.045095384 0.19221261
-0.028485298 0.1813511 -0.078060806 -0.20166904 0.09343243 0.18637204 0.20689124 -0.1730229
-0.13847527 0.08737478 -0.1905759 -0.09865272 0.022813588 -0.06983268 0.14754212 0.14081824
-0.1479468 -0.23331377 -0.05685404 -0.21733475 -0.22517967 -0.10846296 -0.10070455 0.1310656
00000000: 44f7 ce3d a09b f0bd 6cfb a53d 5a98 223e
00000010: 2856 20be 1887 e9bd 4c8b 87bd e8e1 18bd
00000020: e0d5 973d 8005 6f3d 0088 ff3b e220 773e
00000030: ccf0 d93d 70e8 ed3c 0060 88b9 84ed ef3d
00000040: 3066 b93c 3868 2bbe 9a2a 7b3e b836 3d3d
00000050: 2c46 0bbe 40bb 783c 5e5a 59be 3eb4 293e
00000060: 2409 9a3d 2e97 7e3e 8cc6 093e e048 acbd
00000070: 183b 2abd 80d5 a9bd 5c3f 983d 46b0 1bbe
00000080: 66e5 2cbe 10cf 09be b098 efbc f694 653e
00000090: 487b 7fbe 6eaa 74be 3089 2abd 6c4e 693e
000000a0: ac5f 84bd 4451 e9bd d89b 893d 40c6 23bd
000000b0: 8860 77be 58c7 083d 4085 87bb 0404 cf3d
000000c0: 5e5c 043e 307d 933c 60ea f63d 6e59 663e
000000d0: f0a1 04bd f4a3 67be 3cb3 1cbe 7c2a 8abd
000000e0: a8d4 263d b48c a3bd 3a42 4dbe 189d d6bd
000000f0: 4ecf 12be 1c1f e43d 80d1 75bb 6c70 d93d
00000100: 8cf9 9dbd e0ed e93d 88e4 d5bd 9a6a 643e
00000110: d6b1 733e 0096 883d fa9d 0e3e 982d 1bbd
00000120: 7404 f8bd 66f3 193e 6a5a 65be aac0 59be
00000130: 3cea e63d 68c4 81bd b066 b0bd 767e 463e
00000140: a08e 303e cca0 4a3e a0d7 163c 006e 1dbb
00000150: 40e3 92bb 0c10 b2bd 28bd b8bd e09d bcbd
00000160: a081 5dbe 00be 663c 2088 2abe 44d0 f3bd
00000170: e27c 113e 2807 30be c09b 32bc 50f8 b73d
00000180: 3ee9 3f3e b401 6c3e 6090 f63d b0b9 8bbc
00000190: b8df 4dbd f4a8 153e 5281 54be 8c15 f03d
000001a0: 009e a13c a841 153d c60a 1abe b22e 6fbe
000001b0: 202d 04be 2a32 7fbe 30b5 26bd ce06 33be
000001c0: c019 ecbc 0a77 4dbe 22d3 06be 0a3f 423e
000001d0: d888 303d c028 4ebd 4cd8 823d 705f a43c
000001e0: 686f 59be c026 d9bd c65c 16be ecc2 ec3d
000001f0: 3caf b4bd ecc9 69be 28f0 6abe aa33 4ebe
00000200: c4c2 77be b8ae 113e 9aed 66be c673 07be
00000210: fa3b 4a3e 4a59 6ebe 78e8 76be 5030 d63d
00000220: 74c7 973d a0d2 273c 008d 6dbd d8f0 b5bd
00000230: 141d 843d fa74 073e e206 64be 00f1 443d
00000240: c01c 03be 8899 793e 981b 2ebe dc24 3f3e
00000250: fa46 7abe 6ce3 09be 9c14 c1bd 5894 ed3d
00000260: 0043 67bc 54ae 403e 42f2 3cbe 50c1 3d3e
00000270: d413 b53d 4677 2f3e 3081 193d c474 653e
00000280: 4077 473c 008a fb3d bc35 2a3e 00e3 59bd
00000290: 2e31 4d3e 7c64 f2bd 3825 37bd e833 123e
000002a0: 243e a53d f670 353e 72b3 75be 120f 553e
000002b0: 88aa 0dbd 84c5 d73d fe99 633e 0005 a83c
000002c0: 281c 1abe d010 86bd 8437 ed3d b03f a4bd
000002d0: d4c1 b4bd b4a7 d8bd c0b6 87bd 8019 12be
000002e0: 1035 af3c a0db 2f3d deb0 3dbe 20a2 97bd
000002f0: 44c0 56be c0ba 273e 7401 8f3d c6cf 09be
00000300: c48a 06be 7ef0 4fbe d69b 7abe ae69 243e
00000310: b40d cbbd 0cd0 aa3d 7a5e 7ebe 0018 013e
00000320: 8634 4cbe 8049 6c3d 7243 793e ee45 14be
00000330: f457 9cbd 7024 7a3e d8b7 c73d 687b ec3d
00000340: ca74 353e 8afe 2a3e bc56 f0bd e443 3a3e
00000350: 305c 513e 0029 1fbb 0059 66bc f868 93bd
00000360: 7279 663e 187c 203d 642f 7fbe 1cb6 59be
00000370: 88a9 883d 386d c63d 48ba 933d 5435 583e
00000380: 72f1 77be d099 ce3d cc89 e43d 4c6f 21be
00000390: 448c e2bd 5e49 733e f0b5 38bd 62d3 443e
000003a0: 005a e9bc 1ab4 393e 58de 9fbd 5482 4ebe
000003b0: 8059 bf3d 50d8 3e3e 4cdb 533e ea2c 31be
000003c0: 76cc 0dbe 8cf1 b23d 5426 43be 700a cabd
000003d0: 90e3 ba3c 7004 8fbd 4815 173e a832 103e
000003e0: 5e7f 17be cee9 6ebe c8df 68bd 008d 5ebe
000003f0: 8095 66be d421 debd 303e cebd 1036 063e

fc1.bias f4 [128]
0.04773113 -0.028812647 -0.22175887 -0.121485114 -0.08032107 0.03826362 0.07733345 -0.12039098
0.12700793 -0.06949702 -0.2470173 0.052146852 -0.012541056 0.24659747 0.051030457 -0.20861965
-0.0956251 -0.12990475 -0.24534369 0.01808387 0.15889832 0.030887276 0.22797874 -0.05091998
0.24407333 0.13083452 0.089252144 -0.24074015 0.062144548 0.20727268 -0.06376359 -0.15803662
0.13744956 -0.041502237 -0.056488663 0.1606375 0.09984234 -0.24014187 0.04786417 0.24762723
-0.18967742 -0.12976328 -0.23750046 -0.1425612 -0.077798665 -0.22248611 0.124875635 0.008714706
-0.14974791 0.20540115 -0.15174207 -0.099334955 -0.028423607 0.068712175 -0.0006560981 -0.23011976
-0.09079155 -0.07493636 0.19149074 -0.08706695 0.15870574 0.21095511 0.18619871 -0.189098
-0.17772648 0.2472781 0.038256675 -0.095722646 0.22040945 -0.09958881 -0.019385546 -0.2078309
-0.20991376 -0.012545288 0.24803278 0.03183207 0.0468044 -0.18682036 -0.018713325 0.2034809
0.1945365 0.07177949 -0.23833916 0.16661972 -0.17853406 0.22231838 0.13220298 -0.019427538
-0.028354466 0.16735464 0.16030014 0.2343016 -0.18583795 0.095513195 -0.027565926 0.17724839
0.22400495 0.047706217 0.048665732 0.24848396 -0.1827198 0.08581841 0.056150764 -0.21692497
0.026308715 0.18563133 -0.17197266 0.20869291 -0.21250558 -0.1562103 -0.21271071 -0.02361682
-0.18442613 -0.015909493 0.1696116 0.24306431 0.11001268 0.028977096 -0.20563167 0.20330042
0.22443166 -0.14600354 0.1706492 -0.19392368 -0.13882726 -0.17854959 -0.14532036 -0.07523981
00000000: b881 433d 8008 ecbc c214 63be 30cd f8bd
00000010: 607f a4bd 50ba 1c3d 0061 9e3d 8c8f f6bd
00000020: 5e0e 023e 7454 8ebd 1af2 7cbe f097 553d
00000030: 0079 4dbc 0c84 7c3e 5005 513d 64a0 55be
00000040: 18d7 c3bd c005 05be 603b 7bbe a024 943c
00000050: 3eb6 223e 5007 fd3c 4273 693e 7891 50bd
00000060: 5cee 793e 7cf9 053e d4c9 b63d 9684 76be
00000070: 488b 7e3d 4a3f 543e 7c96 82bd 5ad4 21be
00000080: 94bf 0c3e 40fe 29bd a860 67bd 287e 243e
00000090: 247a cc3d c0e7 75be 380d 443d fe91 7d3e
000000a0: cc3a 42be aae0 04be 5233 73be 90fb 11be
000000b0: e854 9fbd 66d3 63be ccbe ff3d 20c8 0e3c
000000c0: 8457 19be ae54 523e 4662 1bbe 2070 cbbd
000000d0: a0d8 e8bc f8b8 8c3d 00fe 2bba 84a4 6bbe
000000e0: ecf0 b9bd 3c78 99bd 2616 443e 2850 b2bd
000000f0: c283 223e 9e04 583e e0aa 3e3e e8a2 41be
00000100: eefd 35be 7836 7d3e 08b3 1c3d 3c0a c4bd
00000110: 04b3 613e 38f5 cbbd 70ce 9ebc a0d1 54be
00000120: a2f3 56be c08a 4dbc 4efc 7d3e 5862 023d
00000130: f8b5 3f3d d64d 3fbe b04c 99bc 4c5d 503e
00000140: 9434 473e 2001 933d 2e0f 74be 5c9e 2a3e
00000150: a2d1 36be 6ea7 633e 3860 073e 8026 9fbc
00000160: a047 e8bc 045f 2b3e b825 243e c2ec 6f3e
00000170: 4e4c 3ebe 6c9c c33d f0d1 e1bc 9a80 353e
00000180: 8e61 653e 9867 433d b855 473d 9472 7e3e
00000190: e61a 3bbe 90c1 af3d 58fe 653d 9421 5ebe
000001a0: 6085 d73c 2416 3e3e 9a19 30be 98b3 553e
000001b0: 109b 59be 98f5 1fbe d6d0 59be 1078 c1bc
000001c0: 34da 3cbe a054 82bc aaae 2d3e dae5 783e
000001d0: 544e e13d 6061 ed3c 1c91 52be fc2d 503e
000001e0: 6ad1 653e f481 15be aabe 2e3e ee93 46be
000001f0: bc28 0ebe b4d5 36be dcce 14be 5417 9abd

fc2.weight f4 [128, 128]
0.023121677 0.037057973 0.07799239 -0.085901774 -0.0072328523 0.061496682 0.057186164 0.020092875
-0.082866006 -0.01214885 0.0768752 -0.0063717514 0.029738195 -0.03742657 -0.06803904 0.02761656
0.021733694 0.026253723 0.026180476 -0.06627128 -0.012553647 0.035101973 -0.005879931 -0.032738745
-0.063457936 -0.08270183 -0.05051772 0.012441643 0.007940158 0.011324428 -0.075889625 0.023199849
0.08623377 -0.08038716 -0.073826954 -0.050791577 -0.070788294 0.072339736 -0.0093725845 -0.07162583
-0.06315942 -0.050377328 -0.012663946 0.07922316 0.06046226 0.06278928 -0.032227684 0.051187076
-0.028965842 -0.06481393 0.009742647 -0.04148925 -0.06608928 -0.038958732 0.073085226 -0.012214892
-0.06767933 -0.036307443 0.0055122524 0.043827973 0.07843662 -0.05721955 0.071655996 0.020957
0.071368165 0.03903777 0.01677785 -0.067644775 -0.023668312 -0.013298228 0.071656324 0.03972786
-0.025392294 0.0360644 -0.024776287 0.057746507 0.056992583 0.027132064 0.07835282 0.056372665
0.050373502 -0.07488828 -0.0059607625 0.070706315 -0.06610284 -6.8992376e-06 -0.059389673 0.05426324
0.0682273 -0.07344771 -0.009696484 -0.043584857 0.040730946 -0.0706629 0.063269086 -0.0076616853
0.08214066 -0.07455345 -0.005262688 0.03144197 0.018971309 -0.07577996 -0.0046295226 -0.05211559
0.03130714 -0.03960196 -0.07219675 0.05555176 0.06307045 -0.03009956 0.07420886 -0.020989329
0.08597637 0.016574487 -0.058349647 -0.05407704 0.024277493 0.040084608 -0.08668978 -0.07413192
-0.0076144785 0.050923876 -0.0316821 -0.013043188 -0.062314503 -0.04824222 -0.033557035 0.012690142
0.053038307 0.03498871 0.03283084 -0.007963128 -0.04858385 -0.0015096441 -0.0068167225 0.029350393
0.05535943 0.07007479 -0.004212901 0.0046268404 0.07623913 -0.056153245 -0.012559816 -0.021941923
0.07114204 -0.00039943308 -0.029496923 0.06344076 0.037574686 0.020324044 0.026507989 -0.08333911
0.0077093467 -0.06935324 0.081749536 0.0032360554 -0.004196264 0.086762644 0.0814539 0.0148052275
-0.011740014 0.05185645 0.05269534 -0.017808571 -0.015792638 0.03880284 -0.0017533824 0.086435236
-0.055795103 0.06580161 -0.038107283 -0.0066277385 0.040367834 0.047833122 -0.04722552 0.016638383
-0.07909831 0.007756144 -0.05675716 -0.08198193 -0.0023093447 0.02378586 0.07520569 0.01845523
0.082566224 0.04742489 -0.070786655 -0.08238643 0.07024173 -0.049147546 0.024860315 0.03626088
-0.084914036 -0.025292099 0.043280102 0.03880436 0.075048186 -0.07367419 -0.08628131 0.07255793
-0.029987145 0.037079297 0.037098907 0.053825967 -0.008323483 -0.010862812 -0.059841264 0.08009829
-0.056363445 0.0717948 0.00826174 0.062926464 0.047274552 -0.03361483 -0.07823476 0.035028912
-0.039784286 -0.046066746 0.072616674 0.08274246 -0.036703013 -0.07962337 0.06555522 0.06385171
0.03748972 0.041921027 -0.05933782 0.0033320263 0.045842774 0.00742992 -0.021204457 -0.0028530434
0.021456584 0.017970182 -0.07835903 0.0035594255 0.07220518 0.05224175 0.05593192 0.037436016
0.047578506 -0.06498745 0.07874509 0.0306243 -0.08181327 -0.06053297 0.0266423 -0.052984077
0.08233125 0.02613724 0.020414993 -0.008754082 -0.05987262 -0.08798205 -0.030219544 -0.076312825
00000000: ac69 bd3c 1aca 173d 79ba 9f3d 45ed afbd
00000010: 9001 edbb f2e3 7b3d 0a3c 6a3d d099 a43c
00000020: a7b5 a9bd f80b 47bc bf70 9d3d 20ca d0bb
00000030: 849d f33c 9a4c 19bd 0d58 8bbd 203c e23c
00000040: dc0a b23c 0c12 d73c 7078 d63c 3db9 87bd
00000050: d0ad 4dbc 16c7 0f3d 70ac c0bb 1019 06bd
00000060: 3cf6 81bd 945f a9bd abeb 4ebd 08d8 4b3c
00000070: 7017 023c 188a 393c 056c 9bbd 9c0d be3c
00000080: 559b b03d 06a2 a4bd 9632 97bd d40a 50bd
00000090: 74f9 90bd db26 943d 788f 19bc 90b0 92bd
000000a0: ba59 81bd 7558 4ebd 707c 4fbc c13f a23d
000000b0: 46a7 773d ab97 803d 2d01 04bd 8aa9 513d
000000c0: c649 edbc 2abd 84bd a09f 1f3c a2f0 29bd
000000d0: d159 87bd 3193 1fbd b5ad 953d f820 48bc
000000e0: 769b 8abd 1db7 14bd 20a0 b43b f684 333d
000000f0: 61a3 a03d 0c5f 6abd 61c0 923d 04ae ab3c
00000100: 7929 923d 12e6 1f3d b471 893c 5889 8abd
00000110: 0ce4 c1bc d0e0 59bc 8dc0 923d aeb9 223d
00000120: 8003 d0bc 44b8 133d a4f7 cabc 9a87 6c3d
00000130: 0e71 693d 1044 de3c 7177 a03d 06e7 663d
00000140: 7254 4e3d 075f 99bd 8052 c3bb 79ce 903d
00000150: ed60 87bd 0080 e7b6 9642 73bd 2243 5e3d
00000160: c1ba 8b3d c16b 96bd 00de 1ebc 0986 32bd
00000170: 7ed5 263d b6b7 90bd 3993 813d e00e fbbb
00000180: 5d39 a83d 7baf 98bd a072 acbb 4cc9 003d
00000190: b869 9b3c 8632 9bbd 40b3 97bb 2877 55bd
000001a0: ea3b 003d aa35 22bd e4db 93bd 3e8a 633d
000001b0: 152b 813d 5a93 f6bc d1fa 973d d0f1 abbc
000001c0: 6114 b03d 38c7 873c 0a00 6fbd e37f 5dbd
000001d0: 98e1 c63c c22f 243d 698a b1bd 7ad2 97bd
000001e0: e082 f9bb 8e95 503d 17c5 01bd 18b3 55bc
000001f0: 7e3d 7fbd a299 45bd 1a73 09bd 50ea 4f3c
00000200: b23e 593d 5250 0f3d a279 063d c877 02bc
00000210: dcff 46bd 40df c5ba d05e dfbb 3c70 f03c
00000220: 92c0 623d 5f83 8f3d 600c 8abb c09c 973b
00000230: 4323 9c3d f200 66bd b0c7 4dbc 8cbf b3bc
00000240: ebb2 913d 006b d1b9 88a3 f1bc 3bed 813d
00000250: eae7 193d 9c7e a63c 4827 d93c b2ad aabd
00000260: b09e fc3b 1209 8ebd 4d6c a73d 0014 543b
00000270: d080 89bb 9db0 b13d 4dd1 a63d a091 723c
00000280: 3059 40bc 6e67 543d 12d7 573d 48e3 91bc
00000290: 905f 81bc baef 1e3d c0d1 e5ba f504 b13d
000002a0: 6889 64bd ffc2 863d 6216 1cbd 802d d9bb
000002b0: be58 253d aaec 433d 8c6f 41bd 384d 883c
000002c0: 4bfe a1bd 4027 fe3b 327a 68bd 24e6 a7bd
000002d0: 6058 17bb 90da c23c 7105 9a3d 6c2f 973c
000002e0: 7b18 a93d 9a40 423d 98f8 90bd 37ba a8bd
000002f0: e5da 8f3d f04e 49bd dca7 cb3c 4a86 143d
00000300: 69e7 adbd 6031 cfbc 7a46 313d 52f1 1e3d
00000310: ddb2 993d 7ee2 96bd 41b4 b0bd 4199 943d
00000320: 9aa7 f5bc 76e0 173d 06f5 173d 9e78 5c3d
00000330: 385f 08bc f0f9 31bc 1d1c 75bd 930a a43d
00000340: 5bdd 66bd 2709 933d 405c 073c 97df 803d
00000350: f6a2 413d b4af 09bd 8c39 a0bd 7a7a 0f3d
00000360: d9f4 22bd 7cb0 3cbd 0db8 943d e174 a93d
00000370: e655 16bd 9411 a3bd d141 863d afc4 823d
00000380: d28e 193d 62b5 2b3d 370c 73bd 205e 5a3b
00000390: a2c5 3b3d b076 f33b f8b4 adbc 20fa 3abb
000003a0: b8c5 af3c 3436 933c b37a a0bd 4045 693b
000003b0: 4fe0 933d 72fb 553d de18 653d 8256 193d
000003c0: aee1 423d 2418 85bd 1b45 a13d d0df fa3c
000003d0: b78d a7bd 6bf1 77bd f440 da3c d505 59bd
000003e0: 499d a83d c41d d63c 583d a73c 486d 0fbc
000003f0: fe3c 75bd ef2f b4bd fa8e f7bc e649 9cbd

fc2.bias f4 [128]
0.00043697655 0.0676621 -0.037019253 0.0090621635 -0.07610323 -0.009605944 -0.007381469 0.029986441
0.07575288 0.06452186 0.08432678 -0.058134675 -0.023752429 0.053832345 -0.008980595 -0.047574665
0.072081156 -0.079580076 0.04926493 0.015163466 -0.071021035 0.0043932945 -0.076859385 -0.039767414
0.029734813 0.009934992 -0.0856264 -0.06517148 0.005353652 -0.048324365 0.058828168 0.06390672
-0.08478187 -0.033789214 -0.038127176 -0.06497187 0.005350977 -0.024528489 0.06490872 -0.0021029264
-0.04664481 0.057648636 0.048653893 -0.0078076497 -0.031011555 0.08537298 0.038904138 -0.08179089
-0.009541795 -0.03049453 0.06255043 -0.059220325 -0.05326229 -0.015537761 0.06402279 0.001775384
-0.07163944 0.058935978 0.03496685 0.02520416 0.0083514005 -0.06434898 0.053723328 -0.070180625
0.054505266 0.01744052 -0.039653122 0.03959983 -0.064024895 -0.00869973 -0.05862181 0.06565336
-0.029509928 -0.047466937 0.08361324 0.086450584 0.04444497 -0.01171612 -0.040702675 -0.03644993
-0.08689183 -0.032611135 0.0073060393 -0.07429368 -0.018710628 -0.087982334 -0.075598925 0.05620221
-0.05768031 0.05035279 -0.064561486 0.047678046 -0.035087988 0.05394339 -0.06809198 -0.048398122
0.04503744 -0.07463796 -0.048338305 -0.011823267 -0.035103288 0.06727523 -0.07936084 0.003281325
0.05553878 -0.016443223 -0.079331666 0.07680643 0.052279763 -0.07844144 -0.04660197 0.020865194
0.0004464388 0.02739247 0.011671104 -0.051298868 -0.014841519 -0.044447474 -0.057057813 0.07968629
0.040741436 -0.07593836 -0.088081114 0.06681951 -0.0070470497 -0.023498207 -0.0022020563 0.022438265
00000000: 001a e539 6d92 8a3d 80a1 17bd 7879 143c
00000010: 03dc 9bbd 4062 1dbc 40e0 f1bb 20a6 f53c
00000020: 5324 9b3d 0924 843d 85b3 ac3d a01e 6ebd
00000030: 7494 c2bc 4e7f 5c3d 5823 13bc a7dd 42bd
00000040: 499f 933d e1fa a2bd 06ca 493d 3070 783c
00000050: 7a73 91bd a0f5 8f3b 7468 9dbd 28e3 22bd
00000060: 6c96 f33c 60c6 223c e55c afbd a078 85bd
00000070: b06d af3b c5ef 45bd cef5 703d 87e1 823d
00000080: 1ea2 adbd 8f66 0abd 3e2b 1cbd f90f 85bd
00000090: 4057 af3b f8ef c8bc ddee 843d 40d1 09bb
000000a0: a10e 3fbd fa20 6c3d 4e49 473d 50d7 ffbb
000000b0: f20b febc 07d8 ae3d f259 1f3d fb81 a7bd
000000c0: 3055 1cbc aacf f9bc 711a 803d 0391 72bd
000000d0: 8f29 5abd 1892 7ebc 611e 833d 00b4 e83a
000000e0: b3b7 92bd da66 713d 6639 0f3d f478 ce3c
000000f0: 50d4 083c 66c9 83bd fe0c 5c3d dcba 8fbd
00000100: ea40 5f3d 6cdf 8e3c 506b 22bd 6e33 223d
00000110: 7c1f 83bd 5089 0ebc 6c1d 70bd 4575 863d
00000120: cebe f1bc b16c 42bd 6b3d ab3d 010d b13d
00000130: ee0b 363d f8f4 3fbc d9b7 26bd 864c 15bd
00000140: 58f4 b1bd 4193 05bd 8067 ef3b 4927 98bd
00000150: 0847 99bc 1530 b4bd 9cd3 9abd 4a34 663d
00000160: 3042 6cbd ba3e 4e3d d038 84bd 0e4a 433d
00000170: 6cb8 0fbd bef3 5c3d cf73 8bbd 1c3d 46bd
00000180: 2e79 383d c9db 98bd 63fe 45bd 60b6 41bc
00000190: 77c8 0fbd 99c7 893d f087 a2bd 800b 573b
000001a0: a27c 633d f0b3 86bc a478 a2bd b14c 9d3d
000001b0: 4e23 563d e8a5 a0bd b5e1 3ebd 7ced aa3c
000001c0: 0010 ea39 2c66 e03c 2838 3f3c c31e 52bd
000001d0: d829 73bc 8e0e 36bd 74b5 69bd 9132 a33d
000001e0: 7ee0 263d 9285 9bbd df63 b4bd abd8 883d
000001f0: f0ea e6bb 507f c0bc 6050 10bb 74d0 b73c

fc3.weight f4 [2, 128]
0.028726898 0.054985248 -0.05300794 0.000114396214 0.033470057 0.08228729 0.029532738 0.0034909993
-0.056812517 -0.053046834 0.03384058 -0.022024319 -0.03324125 0.02876354 -0.02067969 -0.012960903
0.0599541 -0.055279963 0.079639845 0.022995576 0.049035214 0.045417316 0.008503914 0.004493363
-0.0624625 0.033656552 0.07571367 0.040206455 0.024171725 0.031295225 -0.053735934 -0.08375319
-0.00076843053 0.04135213 0.0064806268 -0.058175303 -0.007976256 -0.083419055 -0.0059133098 -0.010726921
0.0134611055 -0.0043866113 0.041820668 0.06011834 -0.07143541 0.044232927 -0.007592663 0.06765524
-0.058867663 -0.043587692 0.0075788274 -0.027823307 0.01457639 -0.083797336 -0.051938962 0.048391305
-0.07120476 0.020318724 -0.063913174 -0.08237956 -0.041335016 -0.006297022 -0.009988837 0.08514769
0.060714804 0.068966724 -0.08314288 0.07708802 -0.017338142 0.032755986 -0.001842007 0.035162263
-0.082869366 -0.07739013 0.05896225 0.004100792 -0.07131218 0.026575021 -0.07050308 0.00132934
-0.07630047 0.01165691 0.027282909 -0.07177601 0.04185272 -0.040848177 -0.010828897 0.028766327
-0.036344048 0.021506116 0.052686147 0.0066025034 0.086803086 0.049101673 0.057122357 0.038138784
0.0063879564 0.085953705 0.037503548 0.088268034 0.038482778 0.037187867 -0.0071130916 0.043341182
-0.031575933 0.08170753 0.06883808 0.06399008 -0.014294155 -0.028853491 -0.07487297 0.08438329
-0.07780591 -0.013858765 0.08799865 0.007382229 0.054245807 0.08410782 -0.08373342 -0.038325023
0.08258516 -0.0657364 0.082703 0.052622072 -0.016550586 0.013690621 0.06139081 -0.05640561
0.062195666 0.05694928 -0.043099936 -0.0696097 0.04884032 -0.054033693 0.07214705 0.014197253
-0.01994259 -0.015148386 -0.024302192 0.04737968 -0.039874278 0.013665259 -0.013669416 0.04229323
0.025412261 0.080863096 0.001941666 0.08468037 -0.04020624 -0.06157337 -0.04421356 0.08164739
-0.02816403 -0.017400779 -0.03140527 -0.03343067 -0.08399494 -0.08756838 -0.07933875 0.040153123
-0.040845364 -0.02875359 -0.06903732 -0.033473175 -0.027522746 -0.07353814 0.0043895766 -0.009300008
-0.053617872 0.06864732 0.0054660216 0.03334859 -0.01956717 0.036086924 -0.00010467321 0.00083611906
0.0639318 -0.06632112 0.06265325 0.086773135 0.0047853217 -0.012287408 0.03213524 -0.0047275573
0.05450412 0.06432784 -0.029624302 0.066253446 -0.059148666 -0.04113172 0.013868503 -0.06718038
0.079214565 0.026491493 -0.08436514 0.06609339 -0.052241154 0.055446662 0.06405317 0.02901581
-0.02275528 0.06505302 0.046679787 0.046319433 -0.054845948 -0.07702107 -0.027328301 -0.06312835
0.037237577 0.08626669 -0.05070153 0.0151435435 -0.017376505 -0.08016244 0.06410696 -0.0081139505
-0.033820223 -0.05256102 0.030213997 0.0419446 -0.059147663 0.049028568 0.067151375 0.007511981
-0.045850355 -0.007963203 0.02821324 0.07007543 0.07008352 0.020944677 -0.027154267 -0.07817682
0.07944585 0.045340694 -0.055546418 0.067229815 0.006700635 -0.005485773 0.058447786 -0.04606328
0.014276907 0.05071365 -0.01688502 0.014469236 -0.045394864 0.013528317 -0.0556321 0.046800487
0.078733705 -0.030766755 -0.052948833 -0.042437956 -0.05545795 -0.08305108 0.021697566 0.022375785
00000000: ac54 eb3c 3638 613d db1e 59bd 00e8 ef38
00000010: e617 093d 3d86 a83d a4ee f13c 40c9 643b
00000020: 3eb4 68bd a347 59bd 6c9c 0a3d 586c b4bc
00000030: fa27 08bd 84a1 eb3c 7468 a9bc f859 54bc
00000040: 6e92 753d 3e6d 62bd 371a a33d 3861 bc3c
00000050: 26d9 483d 8207 3a3d 0054 0b3c 103d 933b
00000060: aed8 7fbd 74db 093d c50f 9b3d 86af 243d
00000070: c803 c63c 6c2f 003d 361a 5cbd cb86 abbd
00000080: 8070 49ba da60 293d 705b d43b 3a49 6ebd
00000090: d8ae 02bc 9cd7 aabd 70c4 c1bb f8bf 2fbc
000000a0: f88b 5c3c 90bd 8fbb 264c 2b3d a63e 763d
000000b0: ba4c 92bd 962d 353d e0cb f8bb d58e 8a3d
000000c0: 381f 71bd 0289 32bd d057 f83b b4ed e3bc
000000d0: d0d1 6e3c f09d abbd f3bd 54bd f635 463d
000000e0: cdd3 91bd 7473 a63c e9e4 82bd 9db6 a8bd
000000f0: e84e 29bd 4057 cebb 38a8 23bc e961 ae3d
00000100: 16b0 783d 6d3e 8d3d d046 aabd 53e0 9d3d
00000110: b808 8ebc 242b 063d 806f f1ba 4e06 103d
00000120: 6ab7 a9bd b77e 9ebd 6682 713d f05f 863b
00000130: 1f0c 92bd dcb3 d93c eb63 90bd 403d ae3a
00000140: 6c43 9cbd a0fc 3e3c 6880 df3c 4dff 92bd
00000150: c26d 2b3d 6b50 27bd b06b 31bc 5ca7 eb3c
00000160: 7fdd 14bd 982d b03c 6ecd 573d d059 d83b
00000170: d1c5 b13d d61e 493d 22f9 693d 6a37 1c3d
00000180: 1052 d13b 7f08 b03d 529d 193d dfc5 b43d
00000190: 1ea0 1d3d 4e52 183d f014 e9bb 8686 313d
000001a0: c455 01bd 4756 a73d fbfa 8c3d 3b0d 833d
000001b0: 0832 6abc 285e ecbc 0057 99bd 25d1 ac3d
000001c0: b458 9fbd e00f 63bc a338 b43d a0e6 f13b
000001d0: da30 5e3d b940 ac3d 6d7c abbd b3fa 1cbd
000001e0: 6922 a93d cea0 86bd 3160 a93d 3e8a 573d
000001f0: 1895 87bc a04e 603c ee74 7b3d 9209 67bd
00000200: e2c0 7e3d a643 693d 8f89 30bd 888f 8ebd
00000210: ca0c 483d 6f52 5dbd d5c1 933d 989b 683c
00000220: a45e a3bc f030 78bc 6415 c7bc 3211 423d
00000230: 3653 23bd 40e4 5f3c b0f5 5fbc aa3b 2d3d
00000240: 602d d03c 8d9b a53d 807f fe3a e76c ad3d
00000250: 4caf 24bd 5c34 7cbd 4719 35bd bf36 a73d
00000260: 40b8 e6bc 148c 8ebc d0a2 00bd 99ee 08bd
00000270: 8a05 acbd 0d57 b3bd 5b7c a2bd 9a77 243d
00000280: 784d 27bd a68c ebbc 7063 8dbd 2b1b 09bd
00000290: 6277 e1bc 2a9b 96bd 70d6 8f3b 105f 18bc
000002a0: 6a9e 5bbd f796 8c3d 501c b33b 8898 083d
000002b0: 544b a0bc e2cf 133d 0084 dbb8 002f 5b3a
000002c0: adee 823d 5ed3 87bd 5950 803d 1db6 b13d
000002d0: 30ce 9c3b 2051 49bc 3ea0 033d a0e9 9abb
000002e0: b63f 5f3d 51be 833d aaae f2bc e3af 873d
000002f0: df45 72bd bc79 28bd b838 633c de95 89bd
00000300: 3f3b a23d b004 d93c a1c7 acbd f95b 873d
00000310: d2fa 55bd 0a1c 633d 4f2e 833d 90b2 ed3c
00000320: 4869 babc 853a 853d 4e33 3f3d 72b9 3d3d
00000330: 25a6 60bd 39bd 9dbd 9adf dfbc 7049 81bd
00000340: 6e86 183d 97ac b03d 68ac 4fbd a01c 783c
00000350: 2c59 8ebc 352c a4bd 834a 833d 60f0 04bc
00000360: 1387 0abd 394a 57bd 5883 f73c 1ace 2b3d
00000370: d244 72bd 2ed2 483d a986 893d 1027 f63b
00000380: 95cd 3bbd 1878 02bc 741f e73c b583 8f3d
00000390: f387 8f3d 2c94 ab3c a072 debc 2b1b a0bd
000003a0: 81b4 a23d 2ab7 393d a484 63bd c9af 893d
000003b0: 0091 db3b 00c2 b3bb f266 6f3d daac 3cbd
000003c0: b0e9 693c 1eb9 4f3d 7452 8abc 6010 6d3c
000003d0: f7ef 39bd e0a5 5d3c 7cde 63bd deb1 3f3d
000003e0: 233f a13d 900a fcbc e0e0 58bd 6cd3 2dbd
000003f0: e027 63bd af16 aabd 18bf b13c 6c4d b73c

fc3.bias f4 [2]
-0.06570786 -0.049035024
00000000: d891 86bd f3d8 48bd
